module attributes {llvm.data_layout = "e-m:e-p270:32:32-p271:32:32-p272:64:64-i64:64-f80:128-n8:16:32:64-S128", llvm.target_triple = "x86_64-unknown-linux-gnu"} {
  func.func @main_graph(%arg0: tensor<?x384xi64>, %arg1: tensor<?x384xi64>, %arg2: tensor<?x384xi64>) -> (tensor<?x384xf32>, tensor<?x384xf32>) attributes {input_names = ["input_ids", "input_mask", "segment_ids"], output_names = ["output_start_logits", "output_end_logits"]} {
    %0 = crt.constant : () -> tensor<1024xf32>
    %1 = crt.constant : () -> tensor<1024xf32>
    %2 = crt.constant : () -> tensor<512x1024xf32>
    %3 = crt.constant : () -> tensor<2x1024xf32>
    %4 = crt.constant : () -> tensor<30522x1024xf32>
    %5 = crt.constant : () -> tensor<1024xf32>
    %6 = crt.constant : () -> tensor<1024xf32>
    %7 = crt.constant : () -> tensor<1024xf32>
    %8 = crt.constant : () -> tensor<1024xf32>
    %9 = crt.constant : () -> tensor<1024xf32>
    %10 = crt.constant : () -> tensor<4096xf32>
    %11 = crt.constant : () -> tensor<1024xf32>
    %12 = crt.constant : () -> tensor<1024xf32>
    %13 = crt.constant : () -> tensor<1024xf32>
    %14 = crt.constant : () -> tensor<1024xf32>
    %15 = crt.constant : () -> tensor<1024xf32>
    %16 = crt.constant : () -> tensor<1024xf32>
    %17 = crt.constant : () -> tensor<1024xf32>
    %18 = crt.constant : () -> tensor<4096xf32>
    %19 = crt.constant : () -> tensor<1024xf32>
    %20 = crt.constant : () -> tensor<1024xf32>
    %21 = crt.constant : () -> tensor<1024xf32>
    %22 = crt.constant : () -> tensor<1024xf32>
    %23 = crt.constant : () -> tensor<1024xf32>
    %24 = crt.constant : () -> tensor<1024xf32>
    %25 = crt.constant : () -> tensor<1024xf32>
    %26 = crt.constant : () -> tensor<4096xf32>
    %27 = crt.constant : () -> tensor<1024xf32>
    %28 = crt.constant : () -> tensor<1024xf32>
    %29 = crt.constant : () -> tensor<1024xf32>
    %30 = crt.constant : () -> tensor<1024xf32>
    %31 = crt.constant : () -> tensor<1024xf32>
    %32 = crt.constant : () -> tensor<1024xf32>
    %33 = crt.constant : () -> tensor<1024xf32>
    %34 = crt.constant : () -> tensor<4096xf32>
    %35 = crt.constant : () -> tensor<1024xf32>
    %36 = crt.constant : () -> tensor<1024xf32>
    %37 = crt.constant : () -> tensor<1024xf32>
    %38 = crt.constant : () -> tensor<1024xf32>
    %39 = crt.constant : () -> tensor<1024xf32>
    %40 = crt.constant : () -> tensor<1024xf32>
    %41 = crt.constant : () -> tensor<1024xf32>
    %42 = crt.constant : () -> tensor<4096xf32>
    %43 = crt.constant : () -> tensor<1024xf32>
    %44 = crt.constant : () -> tensor<1024xf32>
    %45 = crt.constant : () -> tensor<1024xf32>
    %46 = crt.constant : () -> tensor<1024xf32>
    %47 = crt.constant : () -> tensor<1024xf32>
    %48 = crt.constant : () -> tensor<1024xf32>
    %49 = crt.constant : () -> tensor<1024xf32>
    %50 = crt.constant : () -> tensor<4096xf32>
    %51 = crt.constant : () -> tensor<1024xf32>
    %52 = crt.constant : () -> tensor<1024xf32>
    %53 = crt.constant : () -> tensor<1024xf32>
    %54 = crt.constant : () -> tensor<1024xf32>
    %55 = crt.constant : () -> tensor<1024xf32>
    %56 = crt.constant : () -> tensor<1024xf32>
    %57 = crt.constant : () -> tensor<1024xf32>
    %58 = crt.constant : () -> tensor<4096xf32>
    %59 = crt.constant : () -> tensor<1024xf32>
    %60 = crt.constant : () -> tensor<1024xf32>
    %61 = crt.constant : () -> tensor<1024xf32>
    %62 = crt.constant : () -> tensor<1024xf32>
    %63 = crt.constant : () -> tensor<1024xf32>
    %64 = crt.constant : () -> tensor<1024xf32>
    %65 = crt.constant : () -> tensor<1024xf32>
    %66 = crt.constant : () -> tensor<4096xf32>
    %67 = crt.constant : () -> tensor<1024xf32>
    %68 = crt.constant : () -> tensor<1024xf32>
    %69 = crt.constant : () -> tensor<1024xf32>
    %70 = crt.constant : () -> tensor<1024xf32>
    %71 = crt.constant : () -> tensor<1024xf32>
    %72 = crt.constant : () -> tensor<1024xf32>
    %73 = crt.constant : () -> tensor<1024xf32>
    %74 = crt.constant : () -> tensor<4096xf32>
    %75 = crt.constant : () -> tensor<1024xf32>
    %76 = crt.constant : () -> tensor<1024xf32>
    %77 = crt.constant : () -> tensor<1024xf32>
    %78 = crt.constant : () -> tensor<1024xf32>
    %79 = crt.constant : () -> tensor<1024xf32>
    %80 = crt.constant : () -> tensor<1024xf32>
    %81 = crt.constant : () -> tensor<1024xf32>
    %82 = crt.constant : () -> tensor<4096xf32>
    %83 = crt.constant : () -> tensor<1024xf32>
    %84 = crt.constant : () -> tensor<1024xf32>
    %85 = crt.constant : () -> tensor<1024xf32>
    %86 = crt.constant : () -> tensor<1024xf32>
    %87 = crt.constant : () -> tensor<1024xf32>
    %88 = crt.constant : () -> tensor<1024xf32>
    %89 = crt.constant : () -> tensor<1024xf32>
    %90 = crt.constant : () -> tensor<4096xf32>
    %91 = crt.constant : () -> tensor<1024xf32>
    %92 = crt.constant : () -> tensor<1024xf32>
    %93 = crt.constant : () -> tensor<1024xf32>
    %94 = crt.constant : () -> tensor<1024xf32>
    %95 = crt.constant : () -> tensor<1024xf32>
    %96 = crt.constant : () -> tensor<1024xf32>
    %97 = crt.constant : () -> tensor<1024xf32>
    %98 = crt.constant : () -> tensor<4096xf32>
    %99 = crt.constant : () -> tensor<1024xf32>
    %100 = crt.constant : () -> tensor<1024xf32>
    %101 = crt.constant : () -> tensor<1024xf32>
    %102 = crt.constant : () -> tensor<1024xf32>
    %103 = crt.constant : () -> tensor<1024xf32>
    %104 = crt.constant : () -> tensor<1024xf32>
    %105 = crt.constant : () -> tensor<1024xf32>
    %106 = crt.constant : () -> tensor<4096xf32>
    %107 = crt.constant : () -> tensor<1024xf32>
    %108 = crt.constant : () -> tensor<1024xf32>
    %109 = crt.constant : () -> tensor<1024xf32>
    %110 = crt.constant : () -> tensor<1024xf32>
    %111 = crt.constant : () -> tensor<1024xf32>
    %112 = crt.constant : () -> tensor<1024xf32>
    %113 = crt.constant : () -> tensor<1024xf32>
    %114 = crt.constant : () -> tensor<4096xf32>
    %115 = crt.constant : () -> tensor<1024xf32>
    %116 = crt.constant : () -> tensor<1024xf32>
    %117 = crt.constant : () -> tensor<1024xf32>
    %118 = crt.constant : () -> tensor<1024xf32>
    %119 = crt.constant : () -> tensor<1024xf32>
    %120 = crt.constant : () -> tensor<1024xf32>
    %121 = crt.constant : () -> tensor<1024xf32>
    %122 = crt.constant : () -> tensor<4096xf32>
    %123 = crt.constant : () -> tensor<1024xf32>
    %124 = crt.constant : () -> tensor<1024xf32>
    %125 = crt.constant : () -> tensor<1024xf32>
    %126 = crt.constant : () -> tensor<1024xf32>
    %127 = crt.constant : () -> tensor<1024xf32>
    %128 = crt.constant : () -> tensor<1024xf32>
    %129 = crt.constant : () -> tensor<1024xf32>
    %130 = crt.constant : () -> tensor<4096xf32>
    %131 = crt.constant : () -> tensor<1024xf32>
    %132 = crt.constant : () -> tensor<1024xf32>
    %133 = crt.constant : () -> tensor<1024xf32>
    %134 = crt.constant : () -> tensor<1024xf32>
    %135 = crt.constant : () -> tensor<1024xf32>
    %136 = crt.constant : () -> tensor<1024xf32>
    %137 = crt.constant : () -> tensor<1024xf32>
    %138 = crt.constant : () -> tensor<4096xf32>
    %139 = crt.constant : () -> tensor<1024xf32>
    %140 = crt.constant : () -> tensor<1024xf32>
    %141 = crt.constant : () -> tensor<1024xf32>
    %142 = crt.constant : () -> tensor<1024xf32>
    %143 = crt.constant : () -> tensor<1024xf32>
    %144 = crt.constant : () -> tensor<1024xf32>
    %145 = crt.constant : () -> tensor<1024xf32>
    %146 = crt.constant : () -> tensor<4096xf32>
    %147 = crt.constant : () -> tensor<1024xf32>
    %148 = crt.constant : () -> tensor<1024xf32>
    %149 = crt.constant : () -> tensor<1024xf32>
    %150 = crt.constant : () -> tensor<1024xf32>
    %151 = crt.constant : () -> tensor<1024xf32>
    %152 = crt.constant : () -> tensor<1024xf32>
    %153 = crt.constant : () -> tensor<1024xf32>
    %154 = crt.constant : () -> tensor<4096xf32>
    %155 = crt.constant : () -> tensor<1024xf32>
    %156 = crt.constant : () -> tensor<1024xf32>
    %157 = crt.constant : () -> tensor<1024xf32>
    %158 = crt.constant : () -> tensor<1024xf32>
    %159 = crt.constant : () -> tensor<1024xf32>
    %160 = crt.constant : () -> tensor<1024xf32>
    %161 = crt.constant : () -> tensor<1024xf32>
    %162 = crt.constant : () -> tensor<4096xf32>
    %163 = crt.constant : () -> tensor<1024xf32>
    %164 = crt.constant : () -> tensor<1024xf32>
    %165 = crt.constant : () -> tensor<1024xf32>
    %166 = crt.constant : () -> tensor<1024xf32>
    %167 = crt.constant : () -> tensor<1024xf32>
    %168 = crt.constant : () -> tensor<1024xf32>
    %169 = crt.constant : () -> tensor<1024xf32>
    %170 = crt.constant : () -> tensor<4096xf32>
    %171 = crt.constant : () -> tensor<1024xf32>
    %172 = crt.constant : () -> tensor<1024xf32>
    %173 = crt.constant : () -> tensor<1024xf32>
    %174 = crt.constant : () -> tensor<1024xf32>
    %175 = crt.constant : () -> tensor<1024xf32>
    %176 = crt.constant : () -> tensor<1024xf32>
    %177 = crt.constant : () -> tensor<1024xf32>
    %178 = crt.constant : () -> tensor<4096xf32>
    %179 = crt.constant : () -> tensor<1024xf32>
    %180 = crt.constant : () -> tensor<1024xf32>
    %181 = crt.constant : () -> tensor<1024xf32>
    %182 = crt.constant : () -> tensor<1024xf32>
    %183 = crt.constant : () -> tensor<1024xf32>
    %184 = crt.constant : () -> tensor<1024xf32>
    %185 = crt.constant : () -> tensor<1024xf32>
    %186 = crt.constant : () -> tensor<4096xf32>
    %187 = crt.constant : () -> tensor<1024xf32>
    %188 = crt.constant : () -> tensor<1024xf32>
    %189 = crt.constant : () -> tensor<1024xf32>
    %190 = crt.constant : () -> tensor<1024xf32>
    %191 = crt.constant : () -> tensor<1024xf32>
    %192 = crt.constant : () -> tensor<1024xf32>
    %193 = crt.constant : () -> tensor<1024xf32>
    %194 = crt.constant : () -> tensor<4096xf32>
    %195 = crt.constant : () -> tensor<1024xf32>
    %196 = crt.constant : () -> tensor<1024xf32>
    %197 = crt.constant : () -> tensor<2xf32>
    %198 = crt.constant : () -> tensor<f32>
    %199 = crt.constant : () -> tensor<f32>
    %200 = crt.constant : () -> tensor<f32>
    %201 = crt.constant : () -> tensor<f32>
    %202 = crt.constant : () -> tensor<1024x1024xf32>
    %203 = crt.constant : () -> tensor<1024x1024xf32>
    %204 = crt.constant : () -> tensor<1024x1024xf32>
    %205 = crt.constant : () -> tensor<1xi64>
    %206 = crt.constant : () -> tensor<1xi64>
    %207 = crt.constant : () -> tensor<f32>
    %208 = crt.constant : () -> tensor<1xi64>
    %209 = crt.constant : () -> tensor<1024x1024xf32>
    %210 = crt.constant : () -> tensor<1024x4096xf32>
    %211 = crt.constant : () -> tensor<f32>
    %212 = crt.constant : () -> tensor<f32>
    %213 = crt.constant : () -> tensor<4096x1024xf32>
    %214 = crt.constant : () -> tensor<1024x1024xf32>
    %215 = crt.constant : () -> tensor<1024x1024xf32>
    %216 = crt.constant : () -> tensor<1024x1024xf32>
    %217 = crt.constant : () -> tensor<1024x1024xf32>
    %218 = crt.constant : () -> tensor<1024x4096xf32>
    %219 = crt.constant : () -> tensor<4096x1024xf32>
    %220 = crt.constant : () -> tensor<1024x1024xf32>
    %221 = crt.constant : () -> tensor<1024x1024xf32>
    %222 = crt.constant : () -> tensor<1024x1024xf32>
    %223 = crt.constant : () -> tensor<1024x1024xf32>
    %224 = crt.constant : () -> tensor<1024x4096xf32>
    %225 = crt.constant : () -> tensor<4096x1024xf32>
    %226 = crt.constant : () -> tensor<1024x1024xf32>
    %227 = crt.constant : () -> tensor<1024x1024xf32>
    %228 = crt.constant : () -> tensor<1024x1024xf32>
    %229 = crt.constant : () -> tensor<1024x1024xf32>
    %230 = crt.constant : () -> tensor<1024x4096xf32>
    %231 = crt.constant : () -> tensor<4096x1024xf32>
    %232 = crt.constant : () -> tensor<1024x1024xf32>
    %233 = crt.constant : () -> tensor<1024x1024xf32>
    %234 = crt.constant : () -> tensor<1024x1024xf32>
    %235 = crt.constant : () -> tensor<1024x1024xf32>
    %236 = crt.constant : () -> tensor<1024x4096xf32>
    %237 = crt.constant : () -> tensor<4096x1024xf32>
    %238 = crt.constant : () -> tensor<1024x1024xf32>
    %239 = crt.constant : () -> tensor<1024x1024xf32>
    %240 = crt.constant : () -> tensor<1024x1024xf32>
    %241 = crt.constant : () -> tensor<1024x1024xf32>
    %242 = crt.constant : () -> tensor<1024x4096xf32>
    %243 = crt.constant : () -> tensor<4096x1024xf32>
    %244 = crt.constant : () -> tensor<1024x1024xf32>
    %245 = crt.constant : () -> tensor<1024x1024xf32>
    %246 = crt.constant : () -> tensor<1024x1024xf32>
    %247 = crt.constant : () -> tensor<1024x1024xf32>
    %248 = crt.constant : () -> tensor<1024x4096xf32>
    %249 = crt.constant : () -> tensor<4096x1024xf32>
    %250 = crt.constant : () -> tensor<1024x1024xf32>
    %251 = crt.constant : () -> tensor<1024x1024xf32>
    %252 = crt.constant : () -> tensor<1024x1024xf32>
    %253 = crt.constant : () -> tensor<1024x1024xf32>
    %254 = crt.constant : () -> tensor<1024x4096xf32>
    %255 = crt.constant : () -> tensor<4096x1024xf32>
    %256 = crt.constant : () -> tensor<1024x1024xf32>
    %257 = crt.constant : () -> tensor<1024x1024xf32>
    %258 = crt.constant : () -> tensor<1024x1024xf32>
    %259 = crt.constant : () -> tensor<1024x1024xf32>
    %260 = crt.constant : () -> tensor<1024x4096xf32>
    %261 = crt.constant : () -> tensor<4096x1024xf32>
    %262 = crt.constant : () -> tensor<1024x1024xf32>
    %263 = crt.constant : () -> tensor<1024x1024xf32>
    %264 = crt.constant : () -> tensor<1024x1024xf32>
    %265 = crt.constant : () -> tensor<1024x1024xf32>
    %266 = crt.constant : () -> tensor<1024x4096xf32>
    %267 = crt.constant : () -> tensor<4096x1024xf32>
    %268 = crt.constant : () -> tensor<1024x1024xf32>
    %269 = crt.constant : () -> tensor<1024x1024xf32>
    %270 = crt.constant : () -> tensor<1024x1024xf32>
    %271 = crt.constant : () -> tensor<1024x1024xf32>
    %272 = crt.constant : () -> tensor<1024x4096xf32>
    %273 = crt.constant : () -> tensor<4096x1024xf32>
    %274 = crt.constant : () -> tensor<1024x1024xf32>
    %275 = crt.constant : () -> tensor<1024x1024xf32>
    %276 = crt.constant : () -> tensor<1024x1024xf32>
    %277 = crt.constant : () -> tensor<1024x1024xf32>
    %278 = crt.constant : () -> tensor<1024x4096xf32>
    %279 = crt.constant : () -> tensor<4096x1024xf32>
    %280 = crt.constant : () -> tensor<1024x1024xf32>
    %281 = crt.constant : () -> tensor<1024x1024xf32>
    %282 = crt.constant : () -> tensor<1024x1024xf32>
    %283 = crt.constant : () -> tensor<1024x1024xf32>
    %284 = crt.constant : () -> tensor<1024x4096xf32>
    %285 = crt.constant : () -> tensor<4096x1024xf32>
    %286 = crt.constant : () -> tensor<1024x1024xf32>
    %287 = crt.constant : () -> tensor<1024x1024xf32>
    %288 = crt.constant : () -> tensor<1024x1024xf32>
    %289 = crt.constant : () -> tensor<1024x1024xf32>
    %290 = crt.constant : () -> tensor<1024x4096xf32>
    %291 = crt.constant : () -> tensor<4096x1024xf32>
    %292 = crt.constant : () -> tensor<1024x1024xf32>
    %293 = crt.constant : () -> tensor<1024x1024xf32>
    %294 = crt.constant : () -> tensor<1024x1024xf32>
    %295 = crt.constant : () -> tensor<1024x1024xf32>
    %296 = crt.constant : () -> tensor<1024x4096xf32>
    %297 = crt.constant : () -> tensor<4096x1024xf32>
    %298 = crt.constant : () -> tensor<1024x1024xf32>
    %299 = crt.constant : () -> tensor<1024x1024xf32>
    %300 = crt.constant : () -> tensor<1024x1024xf32>
    %301 = crt.constant : () -> tensor<1024x1024xf32>
    %302 = crt.constant : () -> tensor<1024x4096xf32>
    %303 = crt.constant : () -> tensor<4096x1024xf32>
    %304 = crt.constant : () -> tensor<1024x1024xf32>
    %305 = crt.constant : () -> tensor<1024x1024xf32>
    %306 = crt.constant : () -> tensor<1024x1024xf32>
    %307 = crt.constant : () -> tensor<1024x1024xf32>
    %308 = crt.constant : () -> tensor<1024x4096xf32>
    %309 = crt.constant : () -> tensor<4096x1024xf32>
    %310 = crt.constant : () -> tensor<1024x1024xf32>
    %311 = crt.constant : () -> tensor<1024x1024xf32>
    %312 = crt.constant : () -> tensor<1024x1024xf32>
    %313 = crt.constant : () -> tensor<1024x1024xf32>
    %314 = crt.constant : () -> tensor<1024x4096xf32>
    %315 = crt.constant : () -> tensor<4096x1024xf32>
    %316 = crt.constant : () -> tensor<1024x1024xf32>
    %317 = crt.constant : () -> tensor<1024x1024xf32>
    %318 = crt.constant : () -> tensor<1024x1024xf32>
    %319 = crt.constant : () -> tensor<1024x1024xf32>
    %320 = crt.constant : () -> tensor<1024x4096xf32>
    %321 = crt.constant : () -> tensor<4096x1024xf32>
    %322 = crt.constant : () -> tensor<1024x1024xf32>
    %323 = crt.constant : () -> tensor<1024x1024xf32>
    %324 = crt.constant : () -> tensor<1024x1024xf32>
    %325 = crt.constant : () -> tensor<1024x1024xf32>
    %326 = crt.constant : () -> tensor<1024x4096xf32>
    %327 = crt.constant : () -> tensor<4096x1024xf32>
    %328 = crt.constant : () -> tensor<1024x1024xf32>
    %329 = crt.constant : () -> tensor<1024x1024xf32>
    %330 = crt.constant : () -> tensor<1024x1024xf32>
    %331 = crt.constant : () -> tensor<1024x1024xf32>
    %332 = crt.constant : () -> tensor<1024x4096xf32>
    %333 = crt.constant : () -> tensor<4096x1024xf32>
    %334 = crt.constant : () -> tensor<1024x1024xf32>
    %335 = crt.constant : () -> tensor<1024x1024xf32>
    %336 = crt.constant : () -> tensor<1024x1024xf32>
    %337 = crt.constant : () -> tensor<1024x1024xf32>
    %338 = crt.constant : () -> tensor<1024x4096xf32>
    %339 = crt.constant : () -> tensor<4096x1024xf32>
    %340 = crt.constant : () -> tensor<1024x1024xf32>
    %341 = crt.constant : () -> tensor<1024x1024xf32>
    %342 = crt.constant : () -> tensor<1024x1024xf32>
    %343 = crt.constant : () -> tensor<1024x1024xf32>
    %344 = crt.constant : () -> tensor<1024x4096xf32>
    %345 = crt.constant : () -> tensor<4096x1024xf32>
    %346 = crt.constant : () -> tensor<1024x1024xf32>
    %347 = crt.constant : () -> tensor<1024x1024xf32>
    %348 = crt.constant : () -> tensor<1024x1024xf32>
    %349 = crt.constant : () -> tensor<1024x1024xf32>
    %350 = crt.constant : () -> tensor<1024x4096xf32>
    %351 = crt.constant : () -> tensor<4096x1024xf32>
    %352 = crt.constant : () -> tensor<1024x2xf32>
    %353 = crt.constant : () -> tensor<1x384xi64>
    %354 = crt.constant : () -> tensor<1xi64>
    %355 = crt.constant : () -> tensor<4xi64>
    %356 = crt.constant : () -> tensor<3xi64>
    %357 = crt.constant : () -> tensor<1xi64>
    %358 = crt.constant : () -> tensor<1xi64>
    %359 = crt.constant : () -> tensor<1xi64>
    %360 = crt.constant : () -> tensor<1xi64>
    %361 = crt.unsqueeze %arg1, %360 : (tensor<?x384xi64>, tensor<1xi64>) -> tensor<?x1x384xi64>
    %362 = crt.constant : () -> tensor<1xi64>
    %363 = crt.unsqueeze %361, %362 : (tensor<?x1x384xi64>, tensor<1xi64>) -> tensor<?x1x1x384xi64>
    %364 = crt.cast %363 : (tensor<?x1x1x384xi64>) -> tensor<?x1x1x384xf32>
    %365 = crt.sub %198, %364 : (tensor<f32>, tensor<?x1x1x384xf32>) -> tensor<?x1x1x384xf32>
    %366 = crt.mul %365, %199 : (tensor<?x1x1x384xf32>, tensor<f32>) -> tensor<?x1x1x384xf32>
    %367 = crt.dim %arg0 : (tensor<?x384xi64>) -> tensor<1xi64>
    %368 = crt.concat %367, %354 : (tensor<1xi64>, tensor<1xi64>) -> tensor<2xi64>
    %369 = crt.expand %353, %368 : (tensor<1x384xi64>, tensor<2xi64>) -> tensor<?x384xi64>
    %370 = crt.gather %4, %arg0 : (tensor<30522x1024xf32>, tensor<?x384xi64>) -> tensor<?x384x1024xf32>
    %371 = crt.gather %2, %369 : (tensor<512x1024xf32>, tensor<?x384xi64>) -> tensor<?x384x1024xf32>
    %372 = crt.gather %3, %arg2 : (tensor<2x1024xf32>, tensor<?x384xi64>) -> tensor<?x384x1024xf32>
    %373 = crt.add %370, %371 : (tensor<?x384x1024xf32>, tensor<?x384x1024xf32>) -> tensor<?x384x1024xf32>
    %374 = crt.add %373, %372 : (tensor<?x384x1024xf32>, tensor<?x384x1024xf32>) -> tensor<?x384x1024xf32>
    %375 = crt.reducemean %374 : (tensor<?x384x1024xf32>) -> tensor<?x384x1xf32>
    %376 = crt.sub %374, %375 : (tensor<?x384x1024xf32>, tensor<?x384x1xf32>) -> tensor<?x384x1024xf32>
    %377 = crt.pow %376 : (tensor<?x384x1024xf32>) -> tensor<?x384x1024xf32>
    %378 = crt.reducemean %377 : (tensor<?x384x1024xf32>) -> tensor<?x384x1xf32>
    %379 = crt.add %378, %201 : (tensor<?x384x1xf32>, tensor<f32>) -> tensor<?x384x1xf32>
    %380 = crt.sqrt %379 : (tensor<?x384x1xf32>) -> tensor<?x384x1xf32>
    %381 = crt.div %376, %380 : (tensor<?x384x1024xf32>, tensor<?x384x1xf32>) -> tensor<?x384x1024xf32>
    %382 = crt.mul %381, %1 : (tensor<?x384x1024xf32>, tensor<1024xf32>) -> tensor<?x384x1024xf32>
    %383 = crt.add %382, %0 : (tensor<?x384x1024xf32>, tensor<1024xf32>) -> tensor<?x384x1024xf32>
    %384 = crt.matmul %383, %202 : (tensor<?x384x1024xf32>, tensor<1024x1024xf32>) -> tensor<?x384x1024xf32>
    %385 = crt.add %384, %8 : (tensor<?x384x1024xf32>, tensor<1024xf32>) -> tensor<?x384x1024xf32>
    %386 = crt.matmul %383, %203 : (tensor<?x384x1024xf32>, tensor<1024x1024xf32>) -> tensor<?x384x1024xf32>
    %387 = crt.add %386, %7 : (tensor<?x384x1024xf32>, tensor<1024xf32>) -> tensor<?x384x1024xf32>
    %388 = crt.matmul %383, %204 : (tensor<?x384x1024xf32>, tensor<1024x1024xf32>) -> tensor<?x384x1024xf32>
    %389 = crt.add %388, %9 : (tensor<?x384x1024xf32>, tensor<1024xf32>) -> tensor<?x384x1024xf32>
    %390 = crt.reshape %385, %355 : (tensor<?x384x1024xf32>, tensor<4xi64>) -> tensor<?x384x16x64xf32>
    %391 = crt.transpose %390 : (tensor<?x384x16x64xf32>) -> tensor<?x16x384x64xf32>
    %392 = crt.reshape %387, %355 : (tensor<?x384x1024xf32>, tensor<4xi64>) -> tensor<?x384x16x64xf32>
    %393 = crt.reshape %389, %355 : (tensor<?x384x1024xf32>, tensor<4xi64>) -> tensor<?x384x16x64xf32>
    %394 = crt.transpose %393 : (tensor<?x384x16x64xf32>) -> tensor<?x16x384x64xf32>
    %395 = crt.transpose %392 : (tensor<?x384x16x64xf32>) -> tensor<?x16x64x384xf32>
    %396 = crt.matmul %391, %395 : (tensor<?x16x384x64xf32>, tensor<?x16x64x384xf32>) -> tensor<?x16x384x384xf32>
    %397 = crt.div %396, %207 : (tensor<?x16x384x384xf32>, tensor<f32>) -> tensor<?x16x384x384xf32>
    %398 = crt.add %397, %366 : (tensor<?x16x384x384xf32>, tensor<?x1x1x384xf32>) -> tensor<?x16x384x384xf32>
    %399 = crt.softmax %398 : (tensor<?x16x384x384xf32>) -> tensor<?x16x384x384xf32>
    %400 = crt.matmul %399, %394 : (tensor<?x16x384x384xf32>, tensor<?x16x384x64xf32>) -> tensor<?x16x384x64xf32>
    %401 = crt.transpose %400 : (tensor<?x16x384x64xf32>) -> tensor<?x384x16x64xf32>
    %402 = crt.reshape %401, %356 : (tensor<?x384x16x64xf32>, tensor<3xi64>) -> tensor<?x384x1024xf32>
    %403 = crt.matmul %402, %209 : (tensor<?x384x1024xf32>, tensor<1024x1024xf32>) -> tensor<?x384x1024xf32>
    %404 = crt.add %403, %382 : (tensor<?x384x1024xf32>, tensor<?x384x1024xf32>) -> tensor<?x384x1024xf32>
    %405 = crt.constant : () -> tensor<1024xf32>
    %406 = crt.add %404, %405 : (tensor<?x384x1024xf32>, tensor<1024xf32>) -> tensor<?x384x1024xf32>
    %407 = crt.reducemean %406 : (tensor<?x384x1024xf32>) -> tensor<?x384x1xf32>
    %408 = crt.sub %406, %407 : (tensor<?x384x1024xf32>, tensor<?x384x1xf32>) -> tensor<?x384x1024xf32>
    %409 = crt.pow %408 : (tensor<?x384x1024xf32>) -> tensor<?x384x1024xf32>
    %410 = crt.reducemean %409 : (tensor<?x384x1024xf32>) -> tensor<?x384x1xf32>
    %411 = crt.add %410, %201 : (tensor<?x384x1xf32>, tensor<f32>) -> tensor<?x384x1xf32>
    %412 = crt.sqrt %411 : (tensor<?x384x1xf32>) -> tensor<?x384x1xf32>
    %413 = crt.div %408, %412 : (tensor<?x384x1024xf32>, tensor<?x384x1xf32>) -> tensor<?x384x1024xf32>
    %414 = crt.mul %413, %6 : (tensor<?x384x1024xf32>, tensor<1024xf32>) -> tensor<?x384x1024xf32>
    %415 = crt.add %414, %5 : (tensor<?x384x1024xf32>, tensor<1024xf32>) -> tensor<?x384x1024xf32>
    %416 = crt.matmul %415, %210 : (tensor<?x384x1024xf32>, tensor<1024x4096xf32>) -> tensor<?x384x4096xf32>
    %417 = crt.add %416, %10 : (tensor<?x384x4096xf32>, tensor<4096xf32>) -> tensor<?x384x4096xf32>
    %418 = crt.div %417, %212 : (tensor<?x384x4096xf32>, tensor<f32>) -> tensor<?x384x4096xf32>
    %419 = crt.erf %418 : (tensor<?x384x4096xf32>) -> tensor<?x384x4096xf32>
    %420 = crt.add %419, %198 : (tensor<?x384x4096xf32>, tensor<f32>) -> tensor<?x384x4096xf32>
    %421 = crt.mul %417, %420 : (tensor<?x384x4096xf32>, tensor<?x384x4096xf32>) -> tensor<?x384x4096xf32>
    %422 = crt.mul %421, %211 : (tensor<?x384x4096xf32>, tensor<f32>) -> tensor<?x384x4096xf32>
    %423 = crt.matmul %422, %213 : (tensor<?x384x4096xf32>, tensor<4096x1024xf32>) -> tensor<?x384x1024xf32>
    %424 = crt.add %423, %414 : (tensor<?x384x1024xf32>, tensor<?x384x1024xf32>) -> tensor<?x384x1024xf32>
    %425 = crt.constant : () -> tensor<1024xf32>
    %426 = crt.add %424, %425 : (tensor<?x384x1024xf32>, tensor<1024xf32>) -> tensor<?x384x1024xf32>
    %427 = crt.reducemean %426 : (tensor<?x384x1024xf32>) -> tensor<?x384x1xf32>
    %428 = crt.sub %426, %427 : (tensor<?x384x1024xf32>, tensor<?x384x1xf32>) -> tensor<?x384x1024xf32>
    %429 = crt.pow %428 : (tensor<?x384x1024xf32>) -> tensor<?x384x1024xf32>
    %430 = crt.reducemean %429 : (tensor<?x384x1024xf32>) -> tensor<?x384x1xf32>
    %431 = crt.add %430, %201 : (tensor<?x384x1xf32>, tensor<f32>) -> tensor<?x384x1xf32>
    %432 = crt.sqrt %431 : (tensor<?x384x1xf32>) -> tensor<?x384x1xf32>
    %433 = crt.div %428, %432 : (tensor<?x384x1024xf32>, tensor<?x384x1xf32>) -> tensor<?x384x1024xf32>
    %434 = crt.mul %433, %12 : (tensor<?x384x1024xf32>, tensor<1024xf32>) -> tensor<?x384x1024xf32>
    %435 = crt.add %434, %11 : (tensor<?x384x1024xf32>, tensor<1024xf32>) -> tensor<?x384x1024xf32>
    %436 = crt.matmul %435, %214 : (tensor<?x384x1024xf32>, tensor<1024x1024xf32>) -> tensor<?x384x1024xf32>
    %437 = crt.add %436, %16 : (tensor<?x384x1024xf32>, tensor<1024xf32>) -> tensor<?x384x1024xf32>
    %438 = crt.matmul %435, %215 : (tensor<?x384x1024xf32>, tensor<1024x1024xf32>) -> tensor<?x384x1024xf32>
    %439 = crt.add %438, %15 : (tensor<?x384x1024xf32>, tensor<1024xf32>) -> tensor<?x384x1024xf32>
    %440 = crt.matmul %435, %216 : (tensor<?x384x1024xf32>, tensor<1024x1024xf32>) -> tensor<?x384x1024xf32>
    %441 = crt.add %440, %17 : (tensor<?x384x1024xf32>, tensor<1024xf32>) -> tensor<?x384x1024xf32>
    %442 = crt.reshape %437, %355 : (tensor<?x384x1024xf32>, tensor<4xi64>) -> tensor<?x384x16x64xf32>
    %443 = crt.transpose %442 : (tensor<?x384x16x64xf32>) -> tensor<?x16x384x64xf32>
    %444 = crt.reshape %439, %355 : (tensor<?x384x1024xf32>, tensor<4xi64>) -> tensor<?x384x16x64xf32>
    %445 = crt.reshape %441, %355 : (tensor<?x384x1024xf32>, tensor<4xi64>) -> tensor<?x384x16x64xf32>
    %446 = crt.transpose %445 : (tensor<?x384x16x64xf32>) -> tensor<?x16x384x64xf32>
    %447 = crt.transpose %444 : (tensor<?x384x16x64xf32>) -> tensor<?x16x64x384xf32>
    %448 = crt.matmul %443, %447 : (tensor<?x16x384x64xf32>, tensor<?x16x64x384xf32>) -> tensor<?x16x384x384xf32>
    %449 = crt.div %448, %207 : (tensor<?x16x384x384xf32>, tensor<f32>) -> tensor<?x16x384x384xf32>
    %450 = crt.add %449, %366 : (tensor<?x16x384x384xf32>, tensor<?x1x1x384xf32>) -> tensor<?x16x384x384xf32>
    %451 = crt.softmax %450 : (tensor<?x16x384x384xf32>) -> tensor<?x16x384x384xf32>
    %452 = crt.matmul %451, %446 : (tensor<?x16x384x384xf32>, tensor<?x16x384x64xf32>) -> tensor<?x16x384x64xf32>
    %453 = crt.transpose %452 : (tensor<?x16x384x64xf32>) -> tensor<?x384x16x64xf32>
    %454 = crt.reshape %453, %356 : (tensor<?x384x16x64xf32>, tensor<3xi64>) -> tensor<?x384x1024xf32>
    %455 = crt.matmul %454, %217 : (tensor<?x384x1024xf32>, tensor<1024x1024xf32>) -> tensor<?x384x1024xf32>
    %456 = crt.add %455, %434 : (tensor<?x384x1024xf32>, tensor<?x384x1024xf32>) -> tensor<?x384x1024xf32>
    %457 = crt.constant : () -> tensor<1024xf32>
    %458 = crt.add %456, %457 : (tensor<?x384x1024xf32>, tensor<1024xf32>) -> tensor<?x384x1024xf32>
    %459 = crt.reducemean %458 : (tensor<?x384x1024xf32>) -> tensor<?x384x1xf32>
    %460 = crt.sub %458, %459 : (tensor<?x384x1024xf32>, tensor<?x384x1xf32>) -> tensor<?x384x1024xf32>
    %461 = crt.pow %460 : (tensor<?x384x1024xf32>) -> tensor<?x384x1024xf32>
    %462 = crt.reducemean %461 : (tensor<?x384x1024xf32>) -> tensor<?x384x1xf32>
    %463 = crt.add %462, %201 : (tensor<?x384x1xf32>, tensor<f32>) -> tensor<?x384x1xf32>
    %464 = crt.sqrt %463 : (tensor<?x384x1xf32>) -> tensor<?x384x1xf32>
    %465 = crt.div %460, %464 : (tensor<?x384x1024xf32>, tensor<?x384x1xf32>) -> tensor<?x384x1024xf32>
    %466 = crt.mul %465, %14 : (tensor<?x384x1024xf32>, tensor<1024xf32>) -> tensor<?x384x1024xf32>
    %467 = crt.add %466, %13 : (tensor<?x384x1024xf32>, tensor<1024xf32>) -> tensor<?x384x1024xf32>
    %468 = crt.matmul %467, %218 : (tensor<?x384x1024xf32>, tensor<1024x4096xf32>) -> tensor<?x384x4096xf32>
    %469 = crt.add %468, %18 : (tensor<?x384x4096xf32>, tensor<4096xf32>) -> tensor<?x384x4096xf32>
    %470 = crt.div %469, %212 : (tensor<?x384x4096xf32>, tensor<f32>) -> tensor<?x384x4096xf32>
    %471 = crt.erf %470 : (tensor<?x384x4096xf32>) -> tensor<?x384x4096xf32>
    %472 = crt.add %471, %198 : (tensor<?x384x4096xf32>, tensor<f32>) -> tensor<?x384x4096xf32>
    %473 = crt.mul %469, %472 : (tensor<?x384x4096xf32>, tensor<?x384x4096xf32>) -> tensor<?x384x4096xf32>
    %474 = crt.mul %473, %211 : (tensor<?x384x4096xf32>, tensor<f32>) -> tensor<?x384x4096xf32>
    %475 = crt.matmul %474, %219 : (tensor<?x384x4096xf32>, tensor<4096x1024xf32>) -> tensor<?x384x1024xf32>
    %476 = crt.add %475, %466 : (tensor<?x384x1024xf32>, tensor<?x384x1024xf32>) -> tensor<?x384x1024xf32>
    %477 = crt.constant : () -> tensor<1024xf32>
    %478 = crt.add %476, %477 : (tensor<?x384x1024xf32>, tensor<1024xf32>) -> tensor<?x384x1024xf32>
    %479 = crt.reducemean %478 : (tensor<?x384x1024xf32>) -> tensor<?x384x1xf32>
    %480 = crt.sub %478, %479 : (tensor<?x384x1024xf32>, tensor<?x384x1xf32>) -> tensor<?x384x1024xf32>
    %481 = crt.pow %480 : (tensor<?x384x1024xf32>) -> tensor<?x384x1024xf32>
    %482 = crt.reducemean %481 : (tensor<?x384x1024xf32>) -> tensor<?x384x1xf32>
    %483 = crt.add %482, %201 : (tensor<?x384x1xf32>, tensor<f32>) -> tensor<?x384x1xf32>
    %484 = crt.sqrt %483 : (tensor<?x384x1xf32>) -> tensor<?x384x1xf32>
    %485 = crt.div %480, %484 : (tensor<?x384x1024xf32>, tensor<?x384x1xf32>) -> tensor<?x384x1024xf32>
    %486 = crt.mul %485, %20 : (tensor<?x384x1024xf32>, tensor<1024xf32>) -> tensor<?x384x1024xf32>
    %487 = crt.add %486, %19 : (tensor<?x384x1024xf32>, tensor<1024xf32>) -> tensor<?x384x1024xf32>
    %488 = crt.matmul %487, %220 : (tensor<?x384x1024xf32>, tensor<1024x1024xf32>) -> tensor<?x384x1024xf32>
    %489 = crt.add %488, %104 : (tensor<?x384x1024xf32>, tensor<1024xf32>) -> tensor<?x384x1024xf32>
    %490 = crt.matmul %487, %221 : (tensor<?x384x1024xf32>, tensor<1024x1024xf32>) -> tensor<?x384x1024xf32>
    %491 = crt.add %490, %103 : (tensor<?x384x1024xf32>, tensor<1024xf32>) -> tensor<?x384x1024xf32>
    %492 = crt.matmul %487, %222 : (tensor<?x384x1024xf32>, tensor<1024x1024xf32>) -> tensor<?x384x1024xf32>
    %493 = crt.add %492, %105 : (tensor<?x384x1024xf32>, tensor<1024xf32>) -> tensor<?x384x1024xf32>
    %494 = crt.reshape %489, %355 : (tensor<?x384x1024xf32>, tensor<4xi64>) -> tensor<?x384x16x64xf32>
    %495 = crt.transpose %494 : (tensor<?x384x16x64xf32>) -> tensor<?x16x384x64xf32>
    %496 = crt.reshape %491, %355 : (tensor<?x384x1024xf32>, tensor<4xi64>) -> tensor<?x384x16x64xf32>
    %497 = crt.reshape %493, %355 : (tensor<?x384x1024xf32>, tensor<4xi64>) -> tensor<?x384x16x64xf32>
    %498 = crt.transpose %497 : (tensor<?x384x16x64xf32>) -> tensor<?x16x384x64xf32>
    %499 = crt.transpose %496 : (tensor<?x384x16x64xf32>) -> tensor<?x16x64x384xf32>
    %500 = crt.matmul %495, %499 : (tensor<?x16x384x64xf32>, tensor<?x16x64x384xf32>) -> tensor<?x16x384x384xf32>
    %501 = crt.div %500, %207 : (tensor<?x16x384x384xf32>, tensor<f32>) -> tensor<?x16x384x384xf32>
    %502 = crt.add %501, %366 : (tensor<?x16x384x384xf32>, tensor<?x1x1x384xf32>) -> tensor<?x16x384x384xf32>
    %503 = crt.softmax %502 : (tensor<?x16x384x384xf32>) -> tensor<?x16x384x384xf32>
    %504 = crt.matmul %503, %498 : (tensor<?x16x384x384xf32>, tensor<?x16x384x64xf32>) -> tensor<?x16x384x64xf32>
    %505 = crt.transpose %504 : (tensor<?x16x384x64xf32>) -> tensor<?x384x16x64xf32>
    %506 = crt.reshape %505, %356 : (tensor<?x384x16x64xf32>, tensor<3xi64>) -> tensor<?x384x1024xf32>
    %507 = crt.matmul %506, %223 : (tensor<?x384x1024xf32>, tensor<1024x1024xf32>) -> tensor<?x384x1024xf32>
    %508 = crt.add %507, %486 : (tensor<?x384x1024xf32>, tensor<?x384x1024xf32>) -> tensor<?x384x1024xf32>
    %509 = crt.constant : () -> tensor<1024xf32>
    %510 = crt.add %508, %509 : (tensor<?x384x1024xf32>, tensor<1024xf32>) -> tensor<?x384x1024xf32>
    %511 = crt.reducemean %510 : (tensor<?x384x1024xf32>) -> tensor<?x384x1xf32>
    %512 = crt.sub %510, %511 : (tensor<?x384x1024xf32>, tensor<?x384x1xf32>) -> tensor<?x384x1024xf32>
    %513 = crt.pow %512 : (tensor<?x384x1024xf32>) -> tensor<?x384x1024xf32>
    %514 = crt.reducemean %513 : (tensor<?x384x1024xf32>) -> tensor<?x384x1xf32>
    %515 = crt.add %514, %201 : (tensor<?x384x1xf32>, tensor<f32>) -> tensor<?x384x1xf32>
    %516 = crt.sqrt %515 : (tensor<?x384x1xf32>) -> tensor<?x384x1xf32>
    %517 = crt.div %512, %516 : (tensor<?x384x1024xf32>, tensor<?x384x1xf32>) -> tensor<?x384x1024xf32>
    %518 = crt.mul %517, %102 : (tensor<?x384x1024xf32>, tensor<1024xf32>) -> tensor<?x384x1024xf32>
    %519 = crt.add %518, %101 : (tensor<?x384x1024xf32>, tensor<1024xf32>) -> tensor<?x384x1024xf32>
    %520 = crt.matmul %519, %224 : (tensor<?x384x1024xf32>, tensor<1024x4096xf32>) -> tensor<?x384x4096xf32>
    %521 = crt.add %520, %106 : (tensor<?x384x4096xf32>, tensor<4096xf32>) -> tensor<?x384x4096xf32>
    %522 = crt.div %521, %212 : (tensor<?x384x4096xf32>, tensor<f32>) -> tensor<?x384x4096xf32>
    %523 = crt.erf %522 : (tensor<?x384x4096xf32>) -> tensor<?x384x4096xf32>
    %524 = crt.add %523, %198 : (tensor<?x384x4096xf32>, tensor<f32>) -> tensor<?x384x4096xf32>
    %525 = crt.mul %521, %524 : (tensor<?x384x4096xf32>, tensor<?x384x4096xf32>) -> tensor<?x384x4096xf32>
    %526 = crt.mul %525, %211 : (tensor<?x384x4096xf32>, tensor<f32>) -> tensor<?x384x4096xf32>
    %527 = crt.matmul %526, %225 : (tensor<?x384x4096xf32>, tensor<4096x1024xf32>) -> tensor<?x384x1024xf32>
    %528 = crt.add %527, %518 : (tensor<?x384x1024xf32>, tensor<?x384x1024xf32>) -> tensor<?x384x1024xf32>
    %529 = crt.constant : () -> tensor<1024xf32>
    %530 = crt.add %528, %529 : (tensor<?x384x1024xf32>, tensor<1024xf32>) -> tensor<?x384x1024xf32>
    %531 = crt.reducemean %530 : (tensor<?x384x1024xf32>) -> tensor<?x384x1xf32>
    %532 = crt.sub %530, %531 : (tensor<?x384x1024xf32>, tensor<?x384x1xf32>) -> tensor<?x384x1024xf32>
    %533 = crt.pow %532 : (tensor<?x384x1024xf32>) -> tensor<?x384x1024xf32>
    %534 = crt.reducemean %533 : (tensor<?x384x1024xf32>) -> tensor<?x384x1xf32>
    %535 = crt.add %534, %201 : (tensor<?x384x1xf32>, tensor<f32>) -> tensor<?x384x1xf32>
    %536 = crt.sqrt %535 : (tensor<?x384x1xf32>) -> tensor<?x384x1xf32>
    %537 = crt.div %532, %536 : (tensor<?x384x1024xf32>, tensor<?x384x1xf32>) -> tensor<?x384x1024xf32>
    %538 = crt.mul %537, %108 : (tensor<?x384x1024xf32>, tensor<1024xf32>) -> tensor<?x384x1024xf32>
    %539 = crt.add %538, %107 : (tensor<?x384x1024xf32>, tensor<1024xf32>) -> tensor<?x384x1024xf32>
    %540 = crt.matmul %539, %226 : (tensor<?x384x1024xf32>, tensor<1024x1024xf32>) -> tensor<?x384x1024xf32>
    %541 = crt.add %540, %144 : (tensor<?x384x1024xf32>, tensor<1024xf32>) -> tensor<?x384x1024xf32>
    %542 = crt.matmul %539, %227 : (tensor<?x384x1024xf32>, tensor<1024x1024xf32>) -> tensor<?x384x1024xf32>
    %543 = crt.add %542, %143 : (tensor<?x384x1024xf32>, tensor<1024xf32>) -> tensor<?x384x1024xf32>
    %544 = crt.matmul %539, %228 : (tensor<?x384x1024xf32>, tensor<1024x1024xf32>) -> tensor<?x384x1024xf32>
    %545 = crt.add %544, %145 : (tensor<?x384x1024xf32>, tensor<1024xf32>) -> tensor<?x384x1024xf32>
    %546 = crt.reshape %541, %355 : (tensor<?x384x1024xf32>, tensor<4xi64>) -> tensor<?x384x16x64xf32>
    %547 = crt.transpose %546 : (tensor<?x384x16x64xf32>) -> tensor<?x16x384x64xf32>
    %548 = crt.reshape %543, %355 : (tensor<?x384x1024xf32>, tensor<4xi64>) -> tensor<?x384x16x64xf32>
    %549 = crt.reshape %545, %355 : (tensor<?x384x1024xf32>, tensor<4xi64>) -> tensor<?x384x16x64xf32>
    %550 = crt.transpose %549 : (tensor<?x384x16x64xf32>) -> tensor<?x16x384x64xf32>
    %551 = crt.transpose %548 : (tensor<?x384x16x64xf32>) -> tensor<?x16x64x384xf32>
    %552 = crt.matmul %547, %551 : (tensor<?x16x384x64xf32>, tensor<?x16x64x384xf32>) -> tensor<?x16x384x384xf32>
    %553 = crt.div %552, %207 : (tensor<?x16x384x384xf32>, tensor<f32>) -> tensor<?x16x384x384xf32>
    %554 = crt.add %553, %366 : (tensor<?x16x384x384xf32>, tensor<?x1x1x384xf32>) -> tensor<?x16x384x384xf32>
    %555 = crt.softmax %554 : (tensor<?x16x384x384xf32>) -> tensor<?x16x384x384xf32>
    %556 = crt.matmul %555, %550 : (tensor<?x16x384x384xf32>, tensor<?x16x384x64xf32>) -> tensor<?x16x384x64xf32>
    %557 = crt.transpose %556 : (tensor<?x16x384x64xf32>) -> tensor<?x384x16x64xf32>
    %558 = crt.reshape %557, %356 : (tensor<?x384x16x64xf32>, tensor<3xi64>) -> tensor<?x384x1024xf32>
    %559 = crt.matmul %558, %229 : (tensor<?x384x1024xf32>, tensor<1024x1024xf32>) -> tensor<?x384x1024xf32>
    %560 = crt.add %559, %538 : (tensor<?x384x1024xf32>, tensor<?x384x1024xf32>) -> tensor<?x384x1024xf32>
    %561 = crt.constant : () -> tensor<1024xf32>
    %562 = crt.add %560, %561 : (tensor<?x384x1024xf32>, tensor<1024xf32>) -> tensor<?x384x1024xf32>
    %563 = crt.reducemean %562 : (tensor<?x384x1024xf32>) -> tensor<?x384x1xf32>
    %564 = crt.sub %562, %563 : (tensor<?x384x1024xf32>, tensor<?x384x1xf32>) -> tensor<?x384x1024xf32>
    %565 = crt.pow %564 : (tensor<?x384x1024xf32>) -> tensor<?x384x1024xf32>
    %566 = crt.reducemean %565 : (tensor<?x384x1024xf32>) -> tensor<?x384x1xf32>
    %567 = crt.add %566, %201 : (tensor<?x384x1xf32>, tensor<f32>) -> tensor<?x384x1xf32>
    %568 = crt.sqrt %567 : (tensor<?x384x1xf32>) -> tensor<?x384x1xf32>
    %569 = crt.div %564, %568 : (tensor<?x384x1024xf32>, tensor<?x384x1xf32>) -> tensor<?x384x1024xf32>
    %570 = crt.mul %569, %142 : (tensor<?x384x1024xf32>, tensor<1024xf32>) -> tensor<?x384x1024xf32>
    %571 = crt.add %570, %141 : (tensor<?x384x1024xf32>, tensor<1024xf32>) -> tensor<?x384x1024xf32>
    %572 = crt.matmul %571, %230 : (tensor<?x384x1024xf32>, tensor<1024x4096xf32>) -> tensor<?x384x4096xf32>
    %573 = crt.add %572, %146 : (tensor<?x384x4096xf32>, tensor<4096xf32>) -> tensor<?x384x4096xf32>
    %574 = crt.div %573, %212 : (tensor<?x384x4096xf32>, tensor<f32>) -> tensor<?x384x4096xf32>
    %575 = crt.erf %574 : (tensor<?x384x4096xf32>) -> tensor<?x384x4096xf32>
    %576 = crt.add %575, %198 : (tensor<?x384x4096xf32>, tensor<f32>) -> tensor<?x384x4096xf32>
    %577 = crt.mul %573, %576 : (tensor<?x384x4096xf32>, tensor<?x384x4096xf32>) -> tensor<?x384x4096xf32>
    %578 = crt.mul %577, %211 : (tensor<?x384x4096xf32>, tensor<f32>) -> tensor<?x384x4096xf32>
    %579 = crt.matmul %578, %231 : (tensor<?x384x4096xf32>, tensor<4096x1024xf32>) -> tensor<?x384x1024xf32>
    %580 = crt.add %579, %570 : (tensor<?x384x1024xf32>, tensor<?x384x1024xf32>) -> tensor<?x384x1024xf32>
    %581 = crt.constant : () -> tensor<1024xf32>
    %582 = crt.add %580, %581 : (tensor<?x384x1024xf32>, tensor<1024xf32>) -> tensor<?x384x1024xf32>
    %583 = crt.reducemean %582 : (tensor<?x384x1024xf32>) -> tensor<?x384x1xf32>
    %584 = crt.sub %582, %583 : (tensor<?x384x1024xf32>, tensor<?x384x1xf32>) -> tensor<?x384x1024xf32>
    %585 = crt.pow %584 : (tensor<?x384x1024xf32>) -> tensor<?x384x1024xf32>
    %586 = crt.reducemean %585 : (tensor<?x384x1024xf32>) -> tensor<?x384x1xf32>
    %587 = crt.add %586, %201 : (tensor<?x384x1xf32>, tensor<f32>) -> tensor<?x384x1xf32>
    %588 = crt.sqrt %587 : (tensor<?x384x1xf32>) -> tensor<?x384x1xf32>
    %589 = crt.div %584, %588 : (tensor<?x384x1024xf32>, tensor<?x384x1xf32>) -> tensor<?x384x1024xf32>
    %590 = crt.mul %589, %148 : (tensor<?x384x1024xf32>, tensor<1024xf32>) -> tensor<?x384x1024xf32>
    %591 = crt.add %590, %147 : (tensor<?x384x1024xf32>, tensor<1024xf32>) -> tensor<?x384x1024xf32>
    %592 = crt.matmul %591, %232 : (tensor<?x384x1024xf32>, tensor<1024x1024xf32>) -> tensor<?x384x1024xf32>
    %593 = crt.add %592, %152 : (tensor<?x384x1024xf32>, tensor<1024xf32>) -> tensor<?x384x1024xf32>
    %594 = crt.matmul %591, %233 : (tensor<?x384x1024xf32>, tensor<1024x1024xf32>) -> tensor<?x384x1024xf32>
    %595 = crt.add %594, %151 : (tensor<?x384x1024xf32>, tensor<1024xf32>) -> tensor<?x384x1024xf32>
    %596 = crt.matmul %591, %234 : (tensor<?x384x1024xf32>, tensor<1024x1024xf32>) -> tensor<?x384x1024xf32>
    %597 = crt.add %596, %153 : (tensor<?x384x1024xf32>, tensor<1024xf32>) -> tensor<?x384x1024xf32>
    %598 = crt.reshape %593, %355 : (tensor<?x384x1024xf32>, tensor<4xi64>) -> tensor<?x384x16x64xf32>
    %599 = crt.transpose %598 : (tensor<?x384x16x64xf32>) -> tensor<?x16x384x64xf32>
    %600 = crt.reshape %595, %355 : (tensor<?x384x1024xf32>, tensor<4xi64>) -> tensor<?x384x16x64xf32>
    %601 = crt.reshape %597, %355 : (tensor<?x384x1024xf32>, tensor<4xi64>) -> tensor<?x384x16x64xf32>
    %602 = crt.transpose %601 : (tensor<?x384x16x64xf32>) -> tensor<?x16x384x64xf32>
    %603 = crt.transpose %600 : (tensor<?x384x16x64xf32>) -> tensor<?x16x64x384xf32>
    %604 = crt.matmul %599, %603 : (tensor<?x16x384x64xf32>, tensor<?x16x64x384xf32>) -> tensor<?x16x384x384xf32>
    %605 = crt.div %604, %207 : (tensor<?x16x384x384xf32>, tensor<f32>) -> tensor<?x16x384x384xf32>
    %606 = crt.add %605, %366 : (tensor<?x16x384x384xf32>, tensor<?x1x1x384xf32>) -> tensor<?x16x384x384xf32>
    %607 = crt.softmax %606 : (tensor<?x16x384x384xf32>) -> tensor<?x16x384x384xf32>
    %608 = crt.matmul %607, %602 : (tensor<?x16x384x384xf32>, tensor<?x16x384x64xf32>) -> tensor<?x16x384x64xf32>
    %609 = crt.transpose %608 : (tensor<?x16x384x64xf32>) -> tensor<?x384x16x64xf32>
    %610 = crt.reshape %609, %356 : (tensor<?x384x16x64xf32>, tensor<3xi64>) -> tensor<?x384x1024xf32>
    %611 = crt.matmul %610, %235 : (tensor<?x384x1024xf32>, tensor<1024x1024xf32>) -> tensor<?x384x1024xf32>
    %612 = crt.add %611, %590 : (tensor<?x384x1024xf32>, tensor<?x384x1024xf32>) -> tensor<?x384x1024xf32>
    %613 = crt.constant : () -> tensor<1024xf32>
    %614 = crt.add %612, %613 : (tensor<?x384x1024xf32>, tensor<1024xf32>) -> tensor<?x384x1024xf32>
    %615 = crt.reducemean %614 : (tensor<?x384x1024xf32>) -> tensor<?x384x1xf32>
    %616 = crt.sub %614, %615 : (tensor<?x384x1024xf32>, tensor<?x384x1xf32>) -> tensor<?x384x1024xf32>
    %617 = crt.pow %616 : (tensor<?x384x1024xf32>) -> tensor<?x384x1024xf32>
    %618 = crt.reducemean %617 : (tensor<?x384x1024xf32>) -> tensor<?x384x1xf32>
    %619 = crt.add %618, %201 : (tensor<?x384x1xf32>, tensor<f32>) -> tensor<?x384x1xf32>
    %620 = crt.sqrt %619 : (tensor<?x384x1xf32>) -> tensor<?x384x1xf32>
    %621 = crt.div %616, %620 : (tensor<?x384x1024xf32>, tensor<?x384x1xf32>) -> tensor<?x384x1024xf32>
    %622 = crt.mul %621, %150 : (tensor<?x384x1024xf32>, tensor<1024xf32>) -> tensor<?x384x1024xf32>
    %623 = crt.add %622, %149 : (tensor<?x384x1024xf32>, tensor<1024xf32>) -> tensor<?x384x1024xf32>
    %624 = crt.matmul %623, %236 : (tensor<?x384x1024xf32>, tensor<1024x4096xf32>) -> tensor<?x384x4096xf32>
    %625 = crt.add %624, %154 : (tensor<?x384x4096xf32>, tensor<4096xf32>) -> tensor<?x384x4096xf32>
    %626 = crt.div %625, %212 : (tensor<?x384x4096xf32>, tensor<f32>) -> tensor<?x384x4096xf32>
    %627 = crt.erf %626 : (tensor<?x384x4096xf32>) -> tensor<?x384x4096xf32>
    %628 = crt.add %627, %198 : (tensor<?x384x4096xf32>, tensor<f32>) -> tensor<?x384x4096xf32>
    %629 = crt.mul %625, %628 : (tensor<?x384x4096xf32>, tensor<?x384x4096xf32>) -> tensor<?x384x4096xf32>
    %630 = crt.mul %629, %211 : (tensor<?x384x4096xf32>, tensor<f32>) -> tensor<?x384x4096xf32>
    %631 = crt.matmul %630, %237 : (tensor<?x384x4096xf32>, tensor<4096x1024xf32>) -> tensor<?x384x1024xf32>
    %632 = crt.add %631, %622 : (tensor<?x384x1024xf32>, tensor<?x384x1024xf32>) -> tensor<?x384x1024xf32>
    %633 = crt.constant : () -> tensor<1024xf32>
    %634 = crt.add %632, %633 : (tensor<?x384x1024xf32>, tensor<1024xf32>) -> tensor<?x384x1024xf32>
    %635 = crt.reducemean %634 : (tensor<?x384x1024xf32>) -> tensor<?x384x1xf32>
    %636 = crt.sub %634, %635 : (tensor<?x384x1024xf32>, tensor<?x384x1xf32>) -> tensor<?x384x1024xf32>
    %637 = crt.pow %636 : (tensor<?x384x1024xf32>) -> tensor<?x384x1024xf32>
    %638 = crt.reducemean %637 : (tensor<?x384x1024xf32>) -> tensor<?x384x1xf32>
    %639 = crt.add %638, %201 : (tensor<?x384x1xf32>, tensor<f32>) -> tensor<?x384x1xf32>
    %640 = crt.sqrt %639 : (tensor<?x384x1xf32>) -> tensor<?x384x1xf32>
    %641 = crt.div %636, %640 : (tensor<?x384x1024xf32>, tensor<?x384x1xf32>) -> tensor<?x384x1024xf32>
    %642 = crt.mul %641, %156 : (tensor<?x384x1024xf32>, tensor<1024xf32>) -> tensor<?x384x1024xf32>
    %643 = crt.add %642, %155 : (tensor<?x384x1024xf32>, tensor<1024xf32>) -> tensor<?x384x1024xf32>
    %644 = crt.matmul %643, %238 : (tensor<?x384x1024xf32>, tensor<1024x1024xf32>) -> tensor<?x384x1024xf32>
    %645 = crt.add %644, %160 : (tensor<?x384x1024xf32>, tensor<1024xf32>) -> tensor<?x384x1024xf32>
    %646 = crt.matmul %643, %239 : (tensor<?x384x1024xf32>, tensor<1024x1024xf32>) -> tensor<?x384x1024xf32>
    %647 = crt.add %646, %159 : (tensor<?x384x1024xf32>, tensor<1024xf32>) -> tensor<?x384x1024xf32>
    %648 = crt.matmul %643, %240 : (tensor<?x384x1024xf32>, tensor<1024x1024xf32>) -> tensor<?x384x1024xf32>
    %649 = crt.add %648, %161 : (tensor<?x384x1024xf32>, tensor<1024xf32>) -> tensor<?x384x1024xf32>
    %650 = crt.reshape %645, %355 : (tensor<?x384x1024xf32>, tensor<4xi64>) -> tensor<?x384x16x64xf32>
    %651 = crt.transpose %650 : (tensor<?x384x16x64xf32>) -> tensor<?x16x384x64xf32>
    %652 = crt.reshape %647, %355 : (tensor<?x384x1024xf32>, tensor<4xi64>) -> tensor<?x384x16x64xf32>
    %653 = crt.reshape %649, %355 : (tensor<?x384x1024xf32>, tensor<4xi64>) -> tensor<?x384x16x64xf32>
    %654 = crt.transpose %653 : (tensor<?x384x16x64xf32>) -> tensor<?x16x384x64xf32>
    %655 = crt.transpose %652 : (tensor<?x384x16x64xf32>) -> tensor<?x16x64x384xf32>
    %656 = crt.matmul %651, %655 : (tensor<?x16x384x64xf32>, tensor<?x16x64x384xf32>) -> tensor<?x16x384x384xf32>
    %657 = crt.div %656, %207 : (tensor<?x16x384x384xf32>, tensor<f32>) -> tensor<?x16x384x384xf32>
    %658 = crt.add %657, %366 : (tensor<?x16x384x384xf32>, tensor<?x1x1x384xf32>) -> tensor<?x16x384x384xf32>
    %659 = crt.softmax %658 : (tensor<?x16x384x384xf32>) -> tensor<?x16x384x384xf32>
    %660 = crt.matmul %659, %654 : (tensor<?x16x384x384xf32>, tensor<?x16x384x64xf32>) -> tensor<?x16x384x64xf32>
    %661 = crt.transpose %660 : (tensor<?x16x384x64xf32>) -> tensor<?x384x16x64xf32>
    %662 = crt.reshape %661, %356 : (tensor<?x384x16x64xf32>, tensor<3xi64>) -> tensor<?x384x1024xf32>
    %663 = crt.matmul %662, %241 : (tensor<?x384x1024xf32>, tensor<1024x1024xf32>) -> tensor<?x384x1024xf32>
    %664 = crt.add %663, %642 : (tensor<?x384x1024xf32>, tensor<?x384x1024xf32>) -> tensor<?x384x1024xf32>
    %665 = crt.constant : () -> tensor<1024xf32>
    %666 = crt.add %664, %665 : (tensor<?x384x1024xf32>, tensor<1024xf32>) -> tensor<?x384x1024xf32>
    %667 = crt.reducemean %666 : (tensor<?x384x1024xf32>) -> tensor<?x384x1xf32>
    %668 = crt.sub %666, %667 : (tensor<?x384x1024xf32>, tensor<?x384x1xf32>) -> tensor<?x384x1024xf32>
    %669 = crt.pow %668 : (tensor<?x384x1024xf32>) -> tensor<?x384x1024xf32>
    %670 = crt.reducemean %669 : (tensor<?x384x1024xf32>) -> tensor<?x384x1xf32>
    %671 = crt.add %670, %201 : (tensor<?x384x1xf32>, tensor<f32>) -> tensor<?x384x1xf32>
    %672 = crt.sqrt %671 : (tensor<?x384x1xf32>) -> tensor<?x384x1xf32>
    %673 = crt.div %668, %672 : (tensor<?x384x1024xf32>, tensor<?x384x1xf32>) -> tensor<?x384x1024xf32>
    %674 = crt.mul %673, %158 : (tensor<?x384x1024xf32>, tensor<1024xf32>) -> tensor<?x384x1024xf32>
    %675 = crt.add %674, %157 : (tensor<?x384x1024xf32>, tensor<1024xf32>) -> tensor<?x384x1024xf32>
    %676 = crt.matmul %675, %242 : (tensor<?x384x1024xf32>, tensor<1024x4096xf32>) -> tensor<?x384x4096xf32>
    %677 = crt.add %676, %162 : (tensor<?x384x4096xf32>, tensor<4096xf32>) -> tensor<?x384x4096xf32>
    %678 = crt.div %677, %212 : (tensor<?x384x4096xf32>, tensor<f32>) -> tensor<?x384x4096xf32>
    %679 = crt.erf %678 : (tensor<?x384x4096xf32>) -> tensor<?x384x4096xf32>
    %680 = crt.add %679, %198 : (tensor<?x384x4096xf32>, tensor<f32>) -> tensor<?x384x4096xf32>
    %681 = crt.mul %677, %680 : (tensor<?x384x4096xf32>, tensor<?x384x4096xf32>) -> tensor<?x384x4096xf32>
    %682 = crt.mul %681, %211 : (tensor<?x384x4096xf32>, tensor<f32>) -> tensor<?x384x4096xf32>
    %683 = crt.matmul %682, %243 : (tensor<?x384x4096xf32>, tensor<4096x1024xf32>) -> tensor<?x384x1024xf32>
    %684 = crt.add %683, %674 : (tensor<?x384x1024xf32>, tensor<?x384x1024xf32>) -> tensor<?x384x1024xf32>
    %685 = crt.constant : () -> tensor<1024xf32>
    %686 = crt.add %684, %685 : (tensor<?x384x1024xf32>, tensor<1024xf32>) -> tensor<?x384x1024xf32>
    %687 = crt.reducemean %686 : (tensor<?x384x1024xf32>) -> tensor<?x384x1xf32>
    %688 = crt.sub %686, %687 : (tensor<?x384x1024xf32>, tensor<?x384x1xf32>) -> tensor<?x384x1024xf32>
    %689 = crt.pow %688 : (tensor<?x384x1024xf32>) -> tensor<?x384x1024xf32>
    %690 = crt.reducemean %689 : (tensor<?x384x1024xf32>) -> tensor<?x384x1xf32>
    %691 = crt.add %690, %201 : (tensor<?x384x1xf32>, tensor<f32>) -> tensor<?x384x1xf32>
    %692 = crt.sqrt %691 : (tensor<?x384x1xf32>) -> tensor<?x384x1xf32>
    %693 = crt.div %688, %692 : (tensor<?x384x1024xf32>, tensor<?x384x1xf32>) -> tensor<?x384x1024xf32>
    %694 = crt.mul %693, %164 : (tensor<?x384x1024xf32>, tensor<1024xf32>) -> tensor<?x384x1024xf32>
    %695 = crt.add %694, %163 : (tensor<?x384x1024xf32>, tensor<1024xf32>) -> tensor<?x384x1024xf32>
    %696 = crt.matmul %695, %244 : (tensor<?x384x1024xf32>, tensor<1024x1024xf32>) -> tensor<?x384x1024xf32>
    %697 = crt.add %696, %168 : (tensor<?x384x1024xf32>, tensor<1024xf32>) -> tensor<?x384x1024xf32>
    %698 = crt.matmul %695, %245 : (tensor<?x384x1024xf32>, tensor<1024x1024xf32>) -> tensor<?x384x1024xf32>
    %699 = crt.add %698, %167 : (tensor<?x384x1024xf32>, tensor<1024xf32>) -> tensor<?x384x1024xf32>
    %700 = crt.matmul %695, %246 : (tensor<?x384x1024xf32>, tensor<1024x1024xf32>) -> tensor<?x384x1024xf32>
    %701 = crt.add %700, %169 : (tensor<?x384x1024xf32>, tensor<1024xf32>) -> tensor<?x384x1024xf32>
    %702 = crt.reshape %697, %355 : (tensor<?x384x1024xf32>, tensor<4xi64>) -> tensor<?x384x16x64xf32>
    %703 = crt.transpose %702 : (tensor<?x384x16x64xf32>) -> tensor<?x16x384x64xf32>
    %704 = crt.reshape %699, %355 : (tensor<?x384x1024xf32>, tensor<4xi64>) -> tensor<?x384x16x64xf32>
    %705 = crt.reshape %701, %355 : (tensor<?x384x1024xf32>, tensor<4xi64>) -> tensor<?x384x16x64xf32>
    %706 = crt.transpose %705 : (tensor<?x384x16x64xf32>) -> tensor<?x16x384x64xf32>
    %707 = crt.transpose %704 : (tensor<?x384x16x64xf32>) -> tensor<?x16x64x384xf32>
    %708 = crt.matmul %703, %707 : (tensor<?x16x384x64xf32>, tensor<?x16x64x384xf32>) -> tensor<?x16x384x384xf32>
    %709 = crt.div %708, %207 : (tensor<?x16x384x384xf32>, tensor<f32>) -> tensor<?x16x384x384xf32>
    %710 = crt.add %709, %366 : (tensor<?x16x384x384xf32>, tensor<?x1x1x384xf32>) -> tensor<?x16x384x384xf32>
    %711 = crt.softmax %710 : (tensor<?x16x384x384xf32>) -> tensor<?x16x384x384xf32>
    %712 = crt.matmul %711, %706 : (tensor<?x16x384x384xf32>, tensor<?x16x384x64xf32>) -> tensor<?x16x384x64xf32>
    %713 = crt.transpose %712 : (tensor<?x16x384x64xf32>) -> tensor<?x384x16x64xf32>
    %714 = crt.reshape %713, %356 : (tensor<?x384x16x64xf32>, tensor<3xi64>) -> tensor<?x384x1024xf32>
    %715 = crt.matmul %714, %247 : (tensor<?x384x1024xf32>, tensor<1024x1024xf32>) -> tensor<?x384x1024xf32>
    %716 = crt.add %715, %694 : (tensor<?x384x1024xf32>, tensor<?x384x1024xf32>) -> tensor<?x384x1024xf32>
    %717 = crt.constant : () -> tensor<1024xf32>
    %718 = crt.add %716, %717 : (tensor<?x384x1024xf32>, tensor<1024xf32>) -> tensor<?x384x1024xf32>
    %719 = crt.reducemean %718 : (tensor<?x384x1024xf32>) -> tensor<?x384x1xf32>
    %720 = crt.sub %718, %719 : (tensor<?x384x1024xf32>, tensor<?x384x1xf32>) -> tensor<?x384x1024xf32>
    %721 = crt.pow %720 : (tensor<?x384x1024xf32>) -> tensor<?x384x1024xf32>
    %722 = crt.reducemean %721 : (tensor<?x384x1024xf32>) -> tensor<?x384x1xf32>
    %723 = crt.add %722, %201 : (tensor<?x384x1xf32>, tensor<f32>) -> tensor<?x384x1xf32>
    %724 = crt.sqrt %723 : (tensor<?x384x1xf32>) -> tensor<?x384x1xf32>
    %725 = crt.div %720, %724 : (tensor<?x384x1024xf32>, tensor<?x384x1xf32>) -> tensor<?x384x1024xf32>
    %726 = crt.mul %725, %166 : (tensor<?x384x1024xf32>, tensor<1024xf32>) -> tensor<?x384x1024xf32>
    %727 = crt.add %726, %165 : (tensor<?x384x1024xf32>, tensor<1024xf32>) -> tensor<?x384x1024xf32>
    %728 = crt.matmul %727, %248 : (tensor<?x384x1024xf32>, tensor<1024x4096xf32>) -> tensor<?x384x4096xf32>
    %729 = crt.add %728, %170 : (tensor<?x384x4096xf32>, tensor<4096xf32>) -> tensor<?x384x4096xf32>
    %730 = crt.div %729, %212 : (tensor<?x384x4096xf32>, tensor<f32>) -> tensor<?x384x4096xf32>
    %731 = crt.erf %730 : (tensor<?x384x4096xf32>) -> tensor<?x384x4096xf32>
    %732 = crt.add %731, %198 : (tensor<?x384x4096xf32>, tensor<f32>) -> tensor<?x384x4096xf32>
    %733 = crt.mul %729, %732 : (tensor<?x384x4096xf32>, tensor<?x384x4096xf32>) -> tensor<?x384x4096xf32>
    %734 = crt.mul %733, %211 : (tensor<?x384x4096xf32>, tensor<f32>) -> tensor<?x384x4096xf32>
    %735 = crt.matmul %734, %249 : (tensor<?x384x4096xf32>, tensor<4096x1024xf32>) -> tensor<?x384x1024xf32>
    %736 = crt.add %735, %726 : (tensor<?x384x1024xf32>, tensor<?x384x1024xf32>) -> tensor<?x384x1024xf32>
    %737 = crt.constant : () -> tensor<1024xf32>
    %738 = crt.add %736, %737 : (tensor<?x384x1024xf32>, tensor<1024xf32>) -> tensor<?x384x1024xf32>
    %739 = crt.reducemean %738 : (tensor<?x384x1024xf32>) -> tensor<?x384x1xf32>
    %740 = crt.sub %738, %739 : (tensor<?x384x1024xf32>, tensor<?x384x1xf32>) -> tensor<?x384x1024xf32>
    %741 = crt.pow %740 : (tensor<?x384x1024xf32>) -> tensor<?x384x1024xf32>
    %742 = crt.reducemean %741 : (tensor<?x384x1024xf32>) -> tensor<?x384x1xf32>
    %743 = crt.add %742, %201 : (tensor<?x384x1xf32>, tensor<f32>) -> tensor<?x384x1xf32>
    %744 = crt.sqrt %743 : (tensor<?x384x1xf32>) -> tensor<?x384x1xf32>
    %745 = crt.div %740, %744 : (tensor<?x384x1024xf32>, tensor<?x384x1xf32>) -> tensor<?x384x1024xf32>
    %746 = crt.mul %745, %172 : (tensor<?x384x1024xf32>, tensor<1024xf32>) -> tensor<?x384x1024xf32>
    %747 = crt.add %746, %171 : (tensor<?x384x1024xf32>, tensor<1024xf32>) -> tensor<?x384x1024xf32>
    %748 = crt.matmul %747, %250 : (tensor<?x384x1024xf32>, tensor<1024x1024xf32>) -> tensor<?x384x1024xf32>
    %749 = crt.add %748, %176 : (tensor<?x384x1024xf32>, tensor<1024xf32>) -> tensor<?x384x1024xf32>
    %750 = crt.matmul %747, %251 : (tensor<?x384x1024xf32>, tensor<1024x1024xf32>) -> tensor<?x384x1024xf32>
    %751 = crt.add %750, %175 : (tensor<?x384x1024xf32>, tensor<1024xf32>) -> tensor<?x384x1024xf32>
    %752 = crt.matmul %747, %252 : (tensor<?x384x1024xf32>, tensor<1024x1024xf32>) -> tensor<?x384x1024xf32>
    %753 = crt.add %752, %177 : (tensor<?x384x1024xf32>, tensor<1024xf32>) -> tensor<?x384x1024xf32>
    %754 = crt.dim %749 : (tensor<?x384x1024xf32>) -> tensor<1xi64>
    %755 = crt.concat %754, %357, %205, %206 : (tensor<1xi64>, tensor<1xi64>, tensor<1xi64>, tensor<1xi64>) -> tensor<4xi64>
    %756 = crt.reshape %749, %755 : (tensor<?x384x1024xf32>, tensor<4xi64>) -> tensor<?x384x16x64xf32>
    %757 = crt.transpose %756 : (tensor<?x384x16x64xf32>) -> tensor<?x16x384x64xf32>
    %758 = crt.dim %751 : (tensor<?x384x1024xf32>) -> tensor<1xi64>
    %759 = crt.concat %758, %358, %205, %206 : (tensor<1xi64>, tensor<1xi64>, tensor<1xi64>, tensor<1xi64>) -> tensor<4xi64>
    %760 = crt.reshape %751, %759 : (tensor<?x384x1024xf32>, tensor<4xi64>) -> tensor<?x384x16x64xf32>
    %761 = crt.dim %753 : (tensor<?x384x1024xf32>) -> tensor<1xi64>
    %762 = crt.concat %761, %359, %205, %206 : (tensor<1xi64>, tensor<1xi64>, tensor<1xi64>, tensor<1xi64>) -> tensor<4xi64>
    %763 = crt.reshape %753, %762 : (tensor<?x384x1024xf32>, tensor<4xi64>) -> tensor<?x384x16x64xf32>
    %764 = crt.transpose %763 : (tensor<?x384x16x64xf32>) -> tensor<?x16x384x64xf32>
    %765 = crt.transpose %760 : (tensor<?x384x16x64xf32>) -> tensor<?x16x64x384xf32>
    %766 = crt.matmul %757, %765 : (tensor<?x16x384x64xf32>, tensor<?x16x64x384xf32>) -> tensor<?x16x384x384xf32>
    %767 = crt.div %766, %207 : (tensor<?x16x384x384xf32>, tensor<f32>) -> tensor<?x16x384x384xf32>
    %768 = crt.add %767, %366 : (tensor<?x16x384x384xf32>, tensor<?x1x1x384xf32>) -> tensor<?x16x384x384xf32>
    %769 = crt.softmax %768 : (tensor<?x16x384x384xf32>) -> tensor<?x16x384x384xf32>
    %770 = crt.matmul %769, %764 : (tensor<?x16x384x384xf32>, tensor<?x16x384x64xf32>) -> tensor<?x16x384x64xf32>
    %771 = crt.transpose %770 : (tensor<?x16x384x64xf32>) -> tensor<?x384x16x64xf32>
    %772 = crt.dim %771 : (tensor<?x384x16x64xf32>) -> tensor<1xi64>
    %773 = crt.constant : () -> tensor<1xi64>
    %774 = crt.concat %772, %773, %208 : (tensor<1xi64>, tensor<1xi64>, tensor<1xi64>) -> tensor<3xi64>
    %775 = crt.reshape %771, %774 : (tensor<?x384x16x64xf32>, tensor<3xi64>) -> tensor<?x384x1024xf32>
    %776 = crt.matmul %775, %253 : (tensor<?x384x1024xf32>, tensor<1024x1024xf32>) -> tensor<?x384x1024xf32>
    %777 = crt.add %776, %746 : (tensor<?x384x1024xf32>, tensor<?x384x1024xf32>) -> tensor<?x384x1024xf32>
    %778 = crt.constant : () -> tensor<1024xf32>
    %779 = crt.add %777, %778 : (tensor<?x384x1024xf32>, tensor<1024xf32>) -> tensor<?x384x1024xf32>
    %780 = crt.reducemean %779 : (tensor<?x384x1024xf32>) -> tensor<?x384x1xf32>
    %781 = crt.sub %779, %780 : (tensor<?x384x1024xf32>, tensor<?x384x1xf32>) -> tensor<?x384x1024xf32>
    %782 = crt.pow %781 : (tensor<?x384x1024xf32>) -> tensor<?x384x1024xf32>
    %783 = crt.reducemean %782 : (tensor<?x384x1024xf32>) -> tensor<?x384x1xf32>
    %784 = crt.add %783, %201 : (tensor<?x384x1xf32>, tensor<f32>) -> tensor<?x384x1xf32>
    %785 = crt.sqrt %784 : (tensor<?x384x1xf32>) -> tensor<?x384x1xf32>
    %786 = crt.div %781, %785 : (tensor<?x384x1024xf32>, tensor<?x384x1xf32>) -> tensor<?x384x1024xf32>
    %787 = crt.mul %786, %174 : (tensor<?x384x1024xf32>, tensor<1024xf32>) -> tensor<?x384x1024xf32>
    %788 = crt.add %787, %173 : (tensor<?x384x1024xf32>, tensor<1024xf32>) -> tensor<?x384x1024xf32>
    %789 = crt.matmul %788, %254 : (tensor<?x384x1024xf32>, tensor<1024x4096xf32>) -> tensor<?x384x4096xf32>
    %790 = crt.add %789, %178 : (tensor<?x384x4096xf32>, tensor<4096xf32>) -> tensor<?x384x4096xf32>
    %791 = crt.div %790, %212 : (tensor<?x384x4096xf32>, tensor<f32>) -> tensor<?x384x4096xf32>
    %792 = crt.erf %791 : (tensor<?x384x4096xf32>) -> tensor<?x384x4096xf32>
    %793 = crt.add %792, %198 : (tensor<?x384x4096xf32>, tensor<f32>) -> tensor<?x384x4096xf32>
    %794 = crt.mul %790, %793 : (tensor<?x384x4096xf32>, tensor<?x384x4096xf32>) -> tensor<?x384x4096xf32>
    %795 = crt.mul %794, %211 : (tensor<?x384x4096xf32>, tensor<f32>) -> tensor<?x384x4096xf32>
    %796 = crt.matmul %795, %255 : (tensor<?x384x4096xf32>, tensor<4096x1024xf32>) -> tensor<?x384x1024xf32>
    %797 = crt.add %796, %787 : (tensor<?x384x1024xf32>, tensor<?x384x1024xf32>) -> tensor<?x384x1024xf32>
    %798 = crt.constant : () -> tensor<1024xf32>
    %799 = crt.add %797, %798 : (tensor<?x384x1024xf32>, tensor<1024xf32>) -> tensor<?x384x1024xf32>
    %800 = crt.reducemean %799 : (tensor<?x384x1024xf32>) -> tensor<?x384x1xf32>
    %801 = crt.sub %799, %800 : (tensor<?x384x1024xf32>, tensor<?x384x1xf32>) -> tensor<?x384x1024xf32>
    %802 = crt.pow %801 : (tensor<?x384x1024xf32>) -> tensor<?x384x1024xf32>
    %803 = crt.reducemean %802 : (tensor<?x384x1024xf32>) -> tensor<?x384x1xf32>
    %804 = crt.add %803, %201 : (tensor<?x384x1xf32>, tensor<f32>) -> tensor<?x384x1xf32>
    %805 = crt.sqrt %804 : (tensor<?x384x1xf32>) -> tensor<?x384x1xf32>
    %806 = crt.div %801, %805 : (tensor<?x384x1024xf32>, tensor<?x384x1xf32>) -> tensor<?x384x1024xf32>
    %807 = crt.mul %806, %180 : (tensor<?x384x1024xf32>, tensor<1024xf32>) -> tensor<?x384x1024xf32>
    %808 = crt.add %807, %179 : (tensor<?x384x1024xf32>, tensor<1024xf32>) -> tensor<?x384x1024xf32>
    %809 = crt.matmul %808, %256 : (tensor<?x384x1024xf32>, tensor<1024x1024xf32>) -> tensor<?x384x1024xf32>
    %810 = crt.add %809, %184 : (tensor<?x384x1024xf32>, tensor<1024xf32>) -> tensor<?x384x1024xf32>
    %811 = crt.matmul %808, %257 : (tensor<?x384x1024xf32>, tensor<1024x1024xf32>) -> tensor<?x384x1024xf32>
    %812 = crt.add %811, %183 : (tensor<?x384x1024xf32>, tensor<1024xf32>) -> tensor<?x384x1024xf32>
    %813 = crt.matmul %808, %258 : (tensor<?x384x1024xf32>, tensor<1024x1024xf32>) -> tensor<?x384x1024xf32>
    %814 = crt.add %813, %185 : (tensor<?x384x1024xf32>, tensor<1024xf32>) -> tensor<?x384x1024xf32>
    %815 = crt.dim %810 : (tensor<?x384x1024xf32>) -> tensor<1xi64>
    %816 = crt.constant : () -> tensor<1xi64>
    %817 = crt.concat %815, %816, %205, %206 : (tensor<1xi64>, tensor<1xi64>, tensor<1xi64>, tensor<1xi64>) -> tensor<4xi64>
    %818 = crt.reshape %810, %817 : (tensor<?x384x1024xf32>, tensor<4xi64>) -> tensor<?x384x16x64xf32>
    %819 = crt.transpose %818 : (tensor<?x384x16x64xf32>) -> tensor<?x16x384x64xf32>
    %820 = crt.dim %812 : (tensor<?x384x1024xf32>) -> tensor<1xi64>
    %821 = crt.constant : () -> tensor<1xi64>
    %822 = crt.concat %820, %821, %205, %206 : (tensor<1xi64>, tensor<1xi64>, tensor<1xi64>, tensor<1xi64>) -> tensor<4xi64>
    %823 = crt.reshape %812, %822 : (tensor<?x384x1024xf32>, tensor<4xi64>) -> tensor<?x384x16x64xf32>
    %824 = crt.dim %814 : (tensor<?x384x1024xf32>) -> tensor<1xi64>
    %825 = crt.constant : () -> tensor<1xi64>
    %826 = crt.concat %824, %825, %205, %206 : (tensor<1xi64>, tensor<1xi64>, tensor<1xi64>, tensor<1xi64>) -> tensor<4xi64>
    %827 = crt.reshape %814, %826 : (tensor<?x384x1024xf32>, tensor<4xi64>) -> tensor<?x384x16x64xf32>
    %828 = crt.transpose %827 : (tensor<?x384x16x64xf32>) -> tensor<?x16x384x64xf32>
    %829 = crt.transpose %823 : (tensor<?x384x16x64xf32>) -> tensor<?x16x64x384xf32>
    %830 = crt.matmul %819, %829 : (tensor<?x16x384x64xf32>, tensor<?x16x64x384xf32>) -> tensor<?x16x384x384xf32>
    %831 = crt.div %830, %207 : (tensor<?x16x384x384xf32>, tensor<f32>) -> tensor<?x16x384x384xf32>
    %832 = crt.add %831, %366 : (tensor<?x16x384x384xf32>, tensor<?x1x1x384xf32>) -> tensor<?x16x384x384xf32>
    %833 = crt.softmax %832 : (tensor<?x16x384x384xf32>) -> tensor<?x16x384x384xf32>
    %834 = crt.matmul %833, %828 : (tensor<?x16x384x384xf32>, tensor<?x16x384x64xf32>) -> tensor<?x16x384x64xf32>
    %835 = crt.transpose %834 : (tensor<?x16x384x64xf32>) -> tensor<?x384x16x64xf32>
    %836 = crt.dim %835 : (tensor<?x384x16x64xf32>) -> tensor<1xi64>
    %837 = crt.constant : () -> tensor<1xi64>
    %838 = crt.concat %836, %837, %208 : (tensor<1xi64>, tensor<1xi64>, tensor<1xi64>) -> tensor<3xi64>
    %839 = crt.reshape %835, %838 : (tensor<?x384x16x64xf32>, tensor<3xi64>) -> tensor<?x384x1024xf32>
    %840 = crt.matmul %839, %259 : (tensor<?x384x1024xf32>, tensor<1024x1024xf32>) -> tensor<?x384x1024xf32>
    %841 = crt.add %840, %807 : (tensor<?x384x1024xf32>, tensor<?x384x1024xf32>) -> tensor<?x384x1024xf32>
    %842 = crt.constant : () -> tensor<1024xf32>
    %843 = crt.add %841, %842 : (tensor<?x384x1024xf32>, tensor<1024xf32>) -> tensor<?x384x1024xf32>
    %844 = crt.reducemean %843 : (tensor<?x384x1024xf32>) -> tensor<?x384x1xf32>
    %845 = crt.sub %843, %844 : (tensor<?x384x1024xf32>, tensor<?x384x1xf32>) -> tensor<?x384x1024xf32>
    %846 = crt.pow %845 : (tensor<?x384x1024xf32>) -> tensor<?x384x1024xf32>
    %847 = crt.reducemean %846 : (tensor<?x384x1024xf32>) -> tensor<?x384x1xf32>
    %848 = crt.add %847, %201 : (tensor<?x384x1xf32>, tensor<f32>) -> tensor<?x384x1xf32>
    %849 = crt.sqrt %848 : (tensor<?x384x1xf32>) -> tensor<?x384x1xf32>
    %850 = crt.div %845, %849 : (tensor<?x384x1024xf32>, tensor<?x384x1xf32>) -> tensor<?x384x1024xf32>
    %851 = crt.mul %850, %182 : (tensor<?x384x1024xf32>, tensor<1024xf32>) -> tensor<?x384x1024xf32>
    %852 = crt.add %851, %181 : (tensor<?x384x1024xf32>, tensor<1024xf32>) -> tensor<?x384x1024xf32>
    %853 = crt.matmul %852, %260 : (tensor<?x384x1024xf32>, tensor<1024x4096xf32>) -> tensor<?x384x4096xf32>
    %854 = crt.add %853, %186 : (tensor<?x384x4096xf32>, tensor<4096xf32>) -> tensor<?x384x4096xf32>
    %855 = crt.div %854, %212 : (tensor<?x384x4096xf32>, tensor<f32>) -> tensor<?x384x4096xf32>
    %856 = crt.erf %855 : (tensor<?x384x4096xf32>) -> tensor<?x384x4096xf32>
    %857 = crt.add %856, %198 : (tensor<?x384x4096xf32>, tensor<f32>) -> tensor<?x384x4096xf32>
    %858 = crt.mul %854, %857 : (tensor<?x384x4096xf32>, tensor<?x384x4096xf32>) -> tensor<?x384x4096xf32>
    %859 = crt.mul %858, %211 : (tensor<?x384x4096xf32>, tensor<f32>) -> tensor<?x384x4096xf32>
    %860 = crt.matmul %859, %261 : (tensor<?x384x4096xf32>, tensor<4096x1024xf32>) -> tensor<?x384x1024xf32>
    %861 = crt.add %860, %851 : (tensor<?x384x1024xf32>, tensor<?x384x1024xf32>) -> tensor<?x384x1024xf32>
    %862 = crt.constant : () -> tensor<1024xf32>
    %863 = crt.add %861, %862 : (tensor<?x384x1024xf32>, tensor<1024xf32>) -> tensor<?x384x1024xf32>
    %864 = crt.reducemean %863 : (tensor<?x384x1024xf32>) -> tensor<?x384x1xf32>
    %865 = crt.sub %863, %864 : (tensor<?x384x1024xf32>, tensor<?x384x1xf32>) -> tensor<?x384x1024xf32>
    %866 = crt.pow %865 : (tensor<?x384x1024xf32>) -> tensor<?x384x1024xf32>
    %867 = crt.reducemean %866 : (tensor<?x384x1024xf32>) -> tensor<?x384x1xf32>
    %868 = crt.add %867, %201 : (tensor<?x384x1xf32>, tensor<f32>) -> tensor<?x384x1xf32>
    %869 = crt.sqrt %868 : (tensor<?x384x1xf32>) -> tensor<?x384x1xf32>
    %870 = crt.div %865, %869 : (tensor<?x384x1024xf32>, tensor<?x384x1xf32>) -> tensor<?x384x1024xf32>
    %871 = crt.mul %870, %188 : (tensor<?x384x1024xf32>, tensor<1024xf32>) -> tensor<?x384x1024xf32>
    %872 = crt.add %871, %187 : (tensor<?x384x1024xf32>, tensor<1024xf32>) -> tensor<?x384x1024xf32>
    %873 = crt.matmul %872, %262 : (tensor<?x384x1024xf32>, tensor<1024x1024xf32>) -> tensor<?x384x1024xf32>
    %874 = crt.add %873, %192 : (tensor<?x384x1024xf32>, tensor<1024xf32>) -> tensor<?x384x1024xf32>
    %875 = crt.matmul %872, %263 : (tensor<?x384x1024xf32>, tensor<1024x1024xf32>) -> tensor<?x384x1024xf32>
    %876 = crt.add %875, %191 : (tensor<?x384x1024xf32>, tensor<1024xf32>) -> tensor<?x384x1024xf32>
    %877 = crt.matmul %872, %264 : (tensor<?x384x1024xf32>, tensor<1024x1024xf32>) -> tensor<?x384x1024xf32>
    %878 = crt.add %877, %193 : (tensor<?x384x1024xf32>, tensor<1024xf32>) -> tensor<?x384x1024xf32>
    %879 = crt.dim %874 : (tensor<?x384x1024xf32>) -> tensor<1xi64>
    %880 = crt.constant : () -> tensor<1xi64>
    %881 = crt.concat %879, %880, %205, %206 : (tensor<1xi64>, tensor<1xi64>, tensor<1xi64>, tensor<1xi64>) -> tensor<4xi64>
    %882 = crt.reshape %874, %881 : (tensor<?x384x1024xf32>, tensor<4xi64>) -> tensor<?x384x16x64xf32>
    %883 = crt.transpose %882 : (tensor<?x384x16x64xf32>) -> tensor<?x16x384x64xf32>
    %884 = crt.dim %876 : (tensor<?x384x1024xf32>) -> tensor<1xi64>
    %885 = crt.constant : () -> tensor<1xi64>
    %886 = crt.concat %884, %885, %205, %206 : (tensor<1xi64>, tensor<1xi64>, tensor<1xi64>, tensor<1xi64>) -> tensor<4xi64>
    %887 = crt.reshape %876, %886 : (tensor<?x384x1024xf32>, tensor<4xi64>) -> tensor<?x384x16x64xf32>
    %888 = crt.dim %878 : (tensor<?x384x1024xf32>) -> tensor<1xi64>
    %889 = crt.constant : () -> tensor<1xi64>
    %890 = crt.concat %888, %889, %205, %206 : (tensor<1xi64>, tensor<1xi64>, tensor<1xi64>, tensor<1xi64>) -> tensor<4xi64>
    %891 = crt.reshape %878, %890 : (tensor<?x384x1024xf32>, tensor<4xi64>) -> tensor<?x384x16x64xf32>
    %892 = crt.transpose %891 : (tensor<?x384x16x64xf32>) -> tensor<?x16x384x64xf32>
    %893 = crt.transpose %887 : (tensor<?x384x16x64xf32>) -> tensor<?x16x64x384xf32>
    %894 = crt.matmul %883, %893 : (tensor<?x16x384x64xf32>, tensor<?x16x64x384xf32>) -> tensor<?x16x384x384xf32>
    %895 = crt.div %894, %207 : (tensor<?x16x384x384xf32>, tensor<f32>) -> tensor<?x16x384x384xf32>
    %896 = crt.add %895, %366 : (tensor<?x16x384x384xf32>, tensor<?x1x1x384xf32>) -> tensor<?x16x384x384xf32>
    %897 = crt.softmax %896 : (tensor<?x16x384x384xf32>) -> tensor<?x16x384x384xf32>
    %898 = crt.matmul %897, %892 : (tensor<?x16x384x384xf32>, tensor<?x16x384x64xf32>) -> tensor<?x16x384x64xf32>
    %899 = crt.transpose %898 : (tensor<?x16x384x64xf32>) -> tensor<?x384x16x64xf32>
    %900 = crt.dim %899 : (tensor<?x384x16x64xf32>) -> tensor<1xi64>
    %901 = crt.constant : () -> tensor<1xi64>
    %902 = crt.concat %900, %901, %208 : (tensor<1xi64>, tensor<1xi64>, tensor<1xi64>) -> tensor<3xi64>
    %903 = crt.reshape %899, %902 : (tensor<?x384x16x64xf32>, tensor<3xi64>) -> tensor<?x384x1024xf32>
    %904 = crt.matmul %903, %265 : (tensor<?x384x1024xf32>, tensor<1024x1024xf32>) -> tensor<?x384x1024xf32>
    %905 = crt.add %904, %871 : (tensor<?x384x1024xf32>, tensor<?x384x1024xf32>) -> tensor<?x384x1024xf32>
    %906 = crt.constant : () -> tensor<1024xf32>
    %907 = crt.add %905, %906 : (tensor<?x384x1024xf32>, tensor<1024xf32>) -> tensor<?x384x1024xf32>
    %908 = crt.reducemean %907 : (tensor<?x384x1024xf32>) -> tensor<?x384x1xf32>
    %909 = crt.sub %907, %908 : (tensor<?x384x1024xf32>, tensor<?x384x1xf32>) -> tensor<?x384x1024xf32>
    %910 = crt.pow %909 : (tensor<?x384x1024xf32>) -> tensor<?x384x1024xf32>
    %911 = crt.reducemean %910 : (tensor<?x384x1024xf32>) -> tensor<?x384x1xf32>
    %912 = crt.add %911, %201 : (tensor<?x384x1xf32>, tensor<f32>) -> tensor<?x384x1xf32>
    %913 = crt.sqrt %912 : (tensor<?x384x1xf32>) -> tensor<?x384x1xf32>
    %914 = crt.div %909, %913 : (tensor<?x384x1024xf32>, tensor<?x384x1xf32>) -> tensor<?x384x1024xf32>
    %915 = crt.mul %914, %190 : (tensor<?x384x1024xf32>, tensor<1024xf32>) -> tensor<?x384x1024xf32>
    %916 = crt.add %915, %189 : (tensor<?x384x1024xf32>, tensor<1024xf32>) -> tensor<?x384x1024xf32>
    %917 = crt.matmul %916, %266 : (tensor<?x384x1024xf32>, tensor<1024x4096xf32>) -> tensor<?x384x4096xf32>
    %918 = crt.add %917, %194 : (tensor<?x384x4096xf32>, tensor<4096xf32>) -> tensor<?x384x4096xf32>
    %919 = crt.div %918, %212 : (tensor<?x384x4096xf32>, tensor<f32>) -> tensor<?x384x4096xf32>
    %920 = crt.erf %919 : (tensor<?x384x4096xf32>) -> tensor<?x384x4096xf32>
    %921 = crt.add %920, %198 : (tensor<?x384x4096xf32>, tensor<f32>) -> tensor<?x384x4096xf32>
    %922 = crt.mul %918, %921 : (tensor<?x384x4096xf32>, tensor<?x384x4096xf32>) -> tensor<?x384x4096xf32>
    %923 = crt.mul %922, %211 : (tensor<?x384x4096xf32>, tensor<f32>) -> tensor<?x384x4096xf32>
    %924 = crt.matmul %923, %267 : (tensor<?x384x4096xf32>, tensor<4096x1024xf32>) -> tensor<?x384x1024xf32>
    %925 = crt.add %924, %915 : (tensor<?x384x1024xf32>, tensor<?x384x1024xf32>) -> tensor<?x384x1024xf32>
    %926 = crt.constant : () -> tensor<1024xf32>
    %927 = crt.add %925, %926 : (tensor<?x384x1024xf32>, tensor<1024xf32>) -> tensor<?x384x1024xf32>
    %928 = crt.reducemean %927 : (tensor<?x384x1024xf32>) -> tensor<?x384x1xf32>
    %929 = crt.sub %927, %928 : (tensor<?x384x1024xf32>, tensor<?x384x1xf32>) -> tensor<?x384x1024xf32>
    %930 = crt.pow %929 : (tensor<?x384x1024xf32>) -> tensor<?x384x1024xf32>
    %931 = crt.reducemean %930 : (tensor<?x384x1024xf32>) -> tensor<?x384x1xf32>
    %932 = crt.add %931, %201 : (tensor<?x384x1xf32>, tensor<f32>) -> tensor<?x384x1xf32>
    %933 = crt.sqrt %932 : (tensor<?x384x1xf32>) -> tensor<?x384x1xf32>
    %934 = crt.div %929, %933 : (tensor<?x384x1024xf32>, tensor<?x384x1xf32>) -> tensor<?x384x1024xf32>
    %935 = crt.mul %934, %196 : (tensor<?x384x1024xf32>, tensor<1024xf32>) -> tensor<?x384x1024xf32>
    %936 = crt.add %935, %195 : (tensor<?x384x1024xf32>, tensor<1024xf32>) -> tensor<?x384x1024xf32>
    %937 = crt.matmul %936, %268 : (tensor<?x384x1024xf32>, tensor<1024x1024xf32>) -> tensor<?x384x1024xf32>
    %938 = crt.add %937, %24 : (tensor<?x384x1024xf32>, tensor<1024xf32>) -> tensor<?x384x1024xf32>
    %939 = crt.matmul %936, %269 : (tensor<?x384x1024xf32>, tensor<1024x1024xf32>) -> tensor<?x384x1024xf32>
    %940 = crt.add %939, %23 : (tensor<?x384x1024xf32>, tensor<1024xf32>) -> tensor<?x384x1024xf32>
    %941 = crt.matmul %936, %270 : (tensor<?x384x1024xf32>, tensor<1024x1024xf32>) -> tensor<?x384x1024xf32>
    %942 = crt.add %941, %25 : (tensor<?x384x1024xf32>, tensor<1024xf32>) -> tensor<?x384x1024xf32>
    %943 = crt.dim %938 : (tensor<?x384x1024xf32>) -> tensor<1xi64>
    %944 = crt.constant : () -> tensor<1xi64>
    %945 = crt.concat %943, %944, %205, %206 : (tensor<1xi64>, tensor<1xi64>, tensor<1xi64>, tensor<1xi64>) -> tensor<4xi64>
    %946 = crt.reshape %938, %945 : (tensor<?x384x1024xf32>, tensor<4xi64>) -> tensor<?x384x16x64xf32>
    %947 = crt.transpose %946 : (tensor<?x384x16x64xf32>) -> tensor<?x16x384x64xf32>
    %948 = crt.dim %940 : (tensor<?x384x1024xf32>) -> tensor<1xi64>
    %949 = crt.constant : () -> tensor<1xi64>
    %950 = crt.concat %948, %949, %205, %206 : (tensor<1xi64>, tensor<1xi64>, tensor<1xi64>, tensor<1xi64>) -> tensor<4xi64>
    %951 = crt.reshape %940, %950 : (tensor<?x384x1024xf32>, tensor<4xi64>) -> tensor<?x384x16x64xf32>
    %952 = crt.dim %942 : (tensor<?x384x1024xf32>) -> tensor<1xi64>
    %953 = crt.constant : () -> tensor<1xi64>
    %954 = crt.concat %952, %953, %205, %206 : (tensor<1xi64>, tensor<1xi64>, tensor<1xi64>, tensor<1xi64>) -> tensor<4xi64>
    %955 = crt.reshape %942, %954 : (tensor<?x384x1024xf32>, tensor<4xi64>) -> tensor<?x384x16x64xf32>
    %956 = crt.transpose %955 : (tensor<?x384x16x64xf32>) -> tensor<?x16x384x64xf32>
    %957 = crt.transpose %951 : (tensor<?x384x16x64xf32>) -> tensor<?x16x64x384xf32>
    %958 = crt.matmul %947, %957 : (tensor<?x16x384x64xf32>, tensor<?x16x64x384xf32>) -> tensor<?x16x384x384xf32>
    %959 = crt.div %958, %207 : (tensor<?x16x384x384xf32>, tensor<f32>) -> tensor<?x16x384x384xf32>
    %960 = crt.add %959, %366 : (tensor<?x16x384x384xf32>, tensor<?x1x1x384xf32>) -> tensor<?x16x384x384xf32>
    %961 = crt.softmax %960 : (tensor<?x16x384x384xf32>) -> tensor<?x16x384x384xf32>
    %962 = crt.matmul %961, %956 : (tensor<?x16x384x384xf32>, tensor<?x16x384x64xf32>) -> tensor<?x16x384x64xf32>
    %963 = crt.transpose %962 : (tensor<?x16x384x64xf32>) -> tensor<?x384x16x64xf32>
    %964 = crt.dim %963 : (tensor<?x384x16x64xf32>) -> tensor<1xi64>
    %965 = crt.constant : () -> tensor<1xi64>
    %966 = crt.concat %964, %965, %208 : (tensor<1xi64>, tensor<1xi64>, tensor<1xi64>) -> tensor<3xi64>
    %967 = crt.reshape %963, %966 : (tensor<?x384x16x64xf32>, tensor<3xi64>) -> tensor<?x384x1024xf32>
    %968 = crt.matmul %967, %271 : (tensor<?x384x1024xf32>, tensor<1024x1024xf32>) -> tensor<?x384x1024xf32>
    %969 = crt.add %968, %935 : (tensor<?x384x1024xf32>, tensor<?x384x1024xf32>) -> tensor<?x384x1024xf32>
    %970 = crt.constant : () -> tensor<1024xf32>
    %971 = crt.add %969, %970 : (tensor<?x384x1024xf32>, tensor<1024xf32>) -> tensor<?x384x1024xf32>
    %972 = crt.reducemean %971 : (tensor<?x384x1024xf32>) -> tensor<?x384x1xf32>
    %973 = crt.sub %971, %972 : (tensor<?x384x1024xf32>, tensor<?x384x1xf32>) -> tensor<?x384x1024xf32>
    %974 = crt.pow %973 : (tensor<?x384x1024xf32>) -> tensor<?x384x1024xf32>
    %975 = crt.reducemean %974 : (tensor<?x384x1024xf32>) -> tensor<?x384x1xf32>
    %976 = crt.add %975, %201 : (tensor<?x384x1xf32>, tensor<f32>) -> tensor<?x384x1xf32>
    %977 = crt.sqrt %976 : (tensor<?x384x1xf32>) -> tensor<?x384x1xf32>
    %978 = crt.div %973, %977 : (tensor<?x384x1024xf32>, tensor<?x384x1xf32>) -> tensor<?x384x1024xf32>
    %979 = crt.mul %978, %22 : (tensor<?x384x1024xf32>, tensor<1024xf32>) -> tensor<?x384x1024xf32>
    %980 = crt.add %979, %21 : (tensor<?x384x1024xf32>, tensor<1024xf32>) -> tensor<?x384x1024xf32>
    %981 = crt.matmul %980, %272 : (tensor<?x384x1024xf32>, tensor<1024x4096xf32>) -> tensor<?x384x4096xf32>
    %982 = crt.add %981, %26 : (tensor<?x384x4096xf32>, tensor<4096xf32>) -> tensor<?x384x4096xf32>
    %983 = crt.div %982, %212 : (tensor<?x384x4096xf32>, tensor<f32>) -> tensor<?x384x4096xf32>
    %984 = crt.erf %983 : (tensor<?x384x4096xf32>) -> tensor<?x384x4096xf32>
    %985 = crt.add %984, %198 : (tensor<?x384x4096xf32>, tensor<f32>) -> tensor<?x384x4096xf32>
    %986 = crt.mul %982, %985 : (tensor<?x384x4096xf32>, tensor<?x384x4096xf32>) -> tensor<?x384x4096xf32>
    %987 = crt.mul %986, %211 : (tensor<?x384x4096xf32>, tensor<f32>) -> tensor<?x384x4096xf32>
    %988 = crt.matmul %987, %273 : (tensor<?x384x4096xf32>, tensor<4096x1024xf32>) -> tensor<?x384x1024xf32>
    %989 = crt.add %988, %979 : (tensor<?x384x1024xf32>, tensor<?x384x1024xf32>) -> tensor<?x384x1024xf32>
    %990 = crt.constant : () -> tensor<1024xf32>
    %991 = crt.add %989, %990 : (tensor<?x384x1024xf32>, tensor<1024xf32>) -> tensor<?x384x1024xf32>
    %992 = crt.reducemean %991 : (tensor<?x384x1024xf32>) -> tensor<?x384x1xf32>
    %993 = crt.sub %991, %992 : (tensor<?x384x1024xf32>, tensor<?x384x1xf32>) -> tensor<?x384x1024xf32>
    %994 = crt.pow %993 : (tensor<?x384x1024xf32>) -> tensor<?x384x1024xf32>
    %995 = crt.reducemean %994 : (tensor<?x384x1024xf32>) -> tensor<?x384x1xf32>
    %996 = crt.add %995, %201 : (tensor<?x384x1xf32>, tensor<f32>) -> tensor<?x384x1xf32>
    %997 = crt.sqrt %996 : (tensor<?x384x1xf32>) -> tensor<?x384x1xf32>
    %998 = crt.div %993, %997 : (tensor<?x384x1024xf32>, tensor<?x384x1xf32>) -> tensor<?x384x1024xf32>
    %999 = crt.mul %998, %28 : (tensor<?x384x1024xf32>, tensor<1024xf32>) -> tensor<?x384x1024xf32>
    %1000 = crt.add %999, %27 : (tensor<?x384x1024xf32>, tensor<1024xf32>) -> tensor<?x384x1024xf32>
    %1001 = crt.matmul %1000, %274 : (tensor<?x384x1024xf32>, tensor<1024x1024xf32>) -> tensor<?x384x1024xf32>
    %1002 = crt.add %1001, %32 : (tensor<?x384x1024xf32>, tensor<1024xf32>) -> tensor<?x384x1024xf32>
    %1003 = crt.matmul %1000, %275 : (tensor<?x384x1024xf32>, tensor<1024x1024xf32>) -> tensor<?x384x1024xf32>
    %1004 = crt.add %1003, %31 : (tensor<?x384x1024xf32>, tensor<1024xf32>) -> tensor<?x384x1024xf32>
    %1005 = crt.matmul %1000, %276 : (tensor<?x384x1024xf32>, tensor<1024x1024xf32>) -> tensor<?x384x1024xf32>
    %1006 = crt.add %1005, %33 : (tensor<?x384x1024xf32>, tensor<1024xf32>) -> tensor<?x384x1024xf32>
    %1007 = crt.dim %1002 : (tensor<?x384x1024xf32>) -> tensor<1xi64>
    %1008 = crt.constant : () -> tensor<1xi64>
    %1009 = crt.concat %1007, %1008, %205, %206 : (tensor<1xi64>, tensor<1xi64>, tensor<1xi64>, tensor<1xi64>) -> tensor<4xi64>
    %1010 = crt.reshape %1002, %1009 : (tensor<?x384x1024xf32>, tensor<4xi64>) -> tensor<?x384x16x64xf32>
    %1011 = crt.transpose %1010 : (tensor<?x384x16x64xf32>) -> tensor<?x16x384x64xf32>
    %1012 = crt.dim %1004 : (tensor<?x384x1024xf32>) -> tensor<1xi64>
    %1013 = crt.constant : () -> tensor<1xi64>
    %1014 = crt.concat %1012, %1013, %205, %206 : (tensor<1xi64>, tensor<1xi64>, tensor<1xi64>, tensor<1xi64>) -> tensor<4xi64>
    %1015 = crt.reshape %1004, %1014 : (tensor<?x384x1024xf32>, tensor<4xi64>) -> tensor<?x384x16x64xf32>
    %1016 = crt.dim %1006 : (tensor<?x384x1024xf32>) -> tensor<1xi64>
    %1017 = crt.constant : () -> tensor<1xi64>
    %1018 = crt.concat %1016, %1017, %205, %206 : (tensor<1xi64>, tensor<1xi64>, tensor<1xi64>, tensor<1xi64>) -> tensor<4xi64>
    %1019 = crt.reshape %1006, %1018 : (tensor<?x384x1024xf32>, tensor<4xi64>) -> tensor<?x384x16x64xf32>
    %1020 = crt.transpose %1019 : (tensor<?x384x16x64xf32>) -> tensor<?x16x384x64xf32>
    %1021 = crt.transpose %1015 : (tensor<?x384x16x64xf32>) -> tensor<?x16x64x384xf32>
    %1022 = crt.matmul %1011, %1021 : (tensor<?x16x384x64xf32>, tensor<?x16x64x384xf32>) -> tensor<?x16x384x384xf32>
    %1023 = crt.div %1022, %207 : (tensor<?x16x384x384xf32>, tensor<f32>) -> tensor<?x16x384x384xf32>
    %1024 = crt.add %1023, %366 : (tensor<?x16x384x384xf32>, tensor<?x1x1x384xf32>) -> tensor<?x16x384x384xf32>
    %1025 = crt.softmax %1024 : (tensor<?x16x384x384xf32>) -> tensor<?x16x384x384xf32>
    %1026 = crt.matmul %1025, %1020 : (tensor<?x16x384x384xf32>, tensor<?x16x384x64xf32>) -> tensor<?x16x384x64xf32>
    %1027 = crt.transpose %1026 : (tensor<?x16x384x64xf32>) -> tensor<?x384x16x64xf32>
    %1028 = crt.dim %1027 : (tensor<?x384x16x64xf32>) -> tensor<1xi64>
    %1029 = crt.constant : () -> tensor<1xi64>
    %1030 = crt.concat %1028, %1029, %208 : (tensor<1xi64>, tensor<1xi64>, tensor<1xi64>) -> tensor<3xi64>
    %1031 = crt.reshape %1027, %1030 : (tensor<?x384x16x64xf32>, tensor<3xi64>) -> tensor<?x384x1024xf32>
    %1032 = crt.matmul %1031, %277 : (tensor<?x384x1024xf32>, tensor<1024x1024xf32>) -> tensor<?x384x1024xf32>
    %1033 = crt.add %1032, %999 : (tensor<?x384x1024xf32>, tensor<?x384x1024xf32>) -> tensor<?x384x1024xf32>
    %1034 = crt.constant : () -> tensor<1024xf32>
    %1035 = crt.add %1033, %1034 : (tensor<?x384x1024xf32>, tensor<1024xf32>) -> tensor<?x384x1024xf32>
    %1036 = crt.reducemean %1035 : (tensor<?x384x1024xf32>) -> tensor<?x384x1xf32>
    %1037 = crt.sub %1035, %1036 : (tensor<?x384x1024xf32>, tensor<?x384x1xf32>) -> tensor<?x384x1024xf32>
    %1038 = crt.pow %1037 : (tensor<?x384x1024xf32>) -> tensor<?x384x1024xf32>
    %1039 = crt.reducemean %1038 : (tensor<?x384x1024xf32>) -> tensor<?x384x1xf32>
    %1040 = crt.add %1039, %201 : (tensor<?x384x1xf32>, tensor<f32>) -> tensor<?x384x1xf32>
    %1041 = crt.sqrt %1040 : (tensor<?x384x1xf32>) -> tensor<?x384x1xf32>
    %1042 = crt.div %1037, %1041 : (tensor<?x384x1024xf32>, tensor<?x384x1xf32>) -> tensor<?x384x1024xf32>
    %1043 = crt.mul %1042, %30 : (tensor<?x384x1024xf32>, tensor<1024xf32>) -> tensor<?x384x1024xf32>
    %1044 = crt.add %1043, %29 : (tensor<?x384x1024xf32>, tensor<1024xf32>) -> tensor<?x384x1024xf32>
    %1045 = crt.matmul %1044, %278 : (tensor<?x384x1024xf32>, tensor<1024x4096xf32>) -> tensor<?x384x4096xf32>
    %1046 = crt.add %1045, %34 : (tensor<?x384x4096xf32>, tensor<4096xf32>) -> tensor<?x384x4096xf32>
    %1047 = crt.div %1046, %212 : (tensor<?x384x4096xf32>, tensor<f32>) -> tensor<?x384x4096xf32>
    %1048 = crt.erf %1047 : (tensor<?x384x4096xf32>) -> tensor<?x384x4096xf32>
    %1049 = crt.add %1048, %198 : (tensor<?x384x4096xf32>, tensor<f32>) -> tensor<?x384x4096xf32>
    %1050 = crt.mul %1046, %1049 : (tensor<?x384x4096xf32>, tensor<?x384x4096xf32>) -> tensor<?x384x4096xf32>
    %1051 = crt.mul %1050, %211 : (tensor<?x384x4096xf32>, tensor<f32>) -> tensor<?x384x4096xf32>
    %1052 = crt.matmul %1051, %279 : (tensor<?x384x4096xf32>, tensor<4096x1024xf32>) -> tensor<?x384x1024xf32>
    %1053 = crt.add %1052, %1043 : (tensor<?x384x1024xf32>, tensor<?x384x1024xf32>) -> tensor<?x384x1024xf32>
    %1054 = crt.constant : () -> tensor<1024xf32>
    %1055 = crt.add %1053, %1054 : (tensor<?x384x1024xf32>, tensor<1024xf32>) -> tensor<?x384x1024xf32>
    %1056 = crt.reducemean %1055 : (tensor<?x384x1024xf32>) -> tensor<?x384x1xf32>
    %1057 = crt.sub %1055, %1056 : (tensor<?x384x1024xf32>, tensor<?x384x1xf32>) -> tensor<?x384x1024xf32>
    %1058 = crt.pow %1057 : (tensor<?x384x1024xf32>) -> tensor<?x384x1024xf32>
    %1059 = crt.reducemean %1058 : (tensor<?x384x1024xf32>) -> tensor<?x384x1xf32>
    %1060 = crt.add %1059, %201 : (tensor<?x384x1xf32>, tensor<f32>) -> tensor<?x384x1xf32>
    %1061 = crt.sqrt %1060 : (tensor<?x384x1xf32>) -> tensor<?x384x1xf32>
    %1062 = crt.div %1057, %1061 : (tensor<?x384x1024xf32>, tensor<?x384x1xf32>) -> tensor<?x384x1024xf32>
    %1063 = crt.mul %1062, %36 : (tensor<?x384x1024xf32>, tensor<1024xf32>) -> tensor<?x384x1024xf32>
    %1064 = crt.add %1063, %35 : (tensor<?x384x1024xf32>, tensor<1024xf32>) -> tensor<?x384x1024xf32>
    %1065 = crt.matmul %1064, %280 : (tensor<?x384x1024xf32>, tensor<1024x1024xf32>) -> tensor<?x384x1024xf32>
    %1066 = crt.add %1065, %40 : (tensor<?x384x1024xf32>, tensor<1024xf32>) -> tensor<?x384x1024xf32>
    %1067 = crt.matmul %1064, %281 : (tensor<?x384x1024xf32>, tensor<1024x1024xf32>) -> tensor<?x384x1024xf32>
    %1068 = crt.add %1067, %39 : (tensor<?x384x1024xf32>, tensor<1024xf32>) -> tensor<?x384x1024xf32>
    %1069 = crt.matmul %1064, %282 : (tensor<?x384x1024xf32>, tensor<1024x1024xf32>) -> tensor<?x384x1024xf32>
    %1070 = crt.add %1069, %41 : (tensor<?x384x1024xf32>, tensor<1024xf32>) -> tensor<?x384x1024xf32>
    %1071 = crt.dim %1066 : (tensor<?x384x1024xf32>) -> tensor<1xi64>
    %1072 = crt.constant : () -> tensor<1xi64>
    %1073 = crt.concat %1071, %1072, %205, %206 : (tensor<1xi64>, tensor<1xi64>, tensor<1xi64>, tensor<1xi64>) -> tensor<4xi64>
    %1074 = crt.reshape %1066, %1073 : (tensor<?x384x1024xf32>, tensor<4xi64>) -> tensor<?x384x16x64xf32>
    %1075 = crt.transpose %1074 : (tensor<?x384x16x64xf32>) -> tensor<?x16x384x64xf32>
    %1076 = crt.dim %1068 : (tensor<?x384x1024xf32>) -> tensor<1xi64>
    %1077 = crt.constant : () -> tensor<1xi64>
    %1078 = crt.concat %1076, %1077, %205, %206 : (tensor<1xi64>, tensor<1xi64>, tensor<1xi64>, tensor<1xi64>) -> tensor<4xi64>
    %1079 = crt.reshape %1068, %1078 : (tensor<?x384x1024xf32>, tensor<4xi64>) -> tensor<?x384x16x64xf32>
    %1080 = crt.dim %1070 : (tensor<?x384x1024xf32>) -> tensor<1xi64>
    %1081 = crt.constant : () -> tensor<1xi64>
    %1082 = crt.concat %1080, %1081, %205, %206 : (tensor<1xi64>, tensor<1xi64>, tensor<1xi64>, tensor<1xi64>) -> tensor<4xi64>
    %1083 = crt.reshape %1070, %1082 : (tensor<?x384x1024xf32>, tensor<4xi64>) -> tensor<?x384x16x64xf32>
    %1084 = crt.transpose %1083 : (tensor<?x384x16x64xf32>) -> tensor<?x16x384x64xf32>
    %1085 = crt.transpose %1079 : (tensor<?x384x16x64xf32>) -> tensor<?x16x64x384xf32>
    %1086 = crt.matmul %1075, %1085 : (tensor<?x16x384x64xf32>, tensor<?x16x64x384xf32>) -> tensor<?x16x384x384xf32>
    %1087 = crt.div %1086, %207 : (tensor<?x16x384x384xf32>, tensor<f32>) -> tensor<?x16x384x384xf32>
    %1088 = crt.add %1087, %366 : (tensor<?x16x384x384xf32>, tensor<?x1x1x384xf32>) -> tensor<?x16x384x384xf32>
    %1089 = crt.softmax %1088 : (tensor<?x16x384x384xf32>) -> tensor<?x16x384x384xf32>
    %1090 = crt.matmul %1089, %1084 : (tensor<?x16x384x384xf32>, tensor<?x16x384x64xf32>) -> tensor<?x16x384x64xf32>
    %1091 = crt.transpose %1090 : (tensor<?x16x384x64xf32>) -> tensor<?x384x16x64xf32>
    %1092 = crt.dim %1091 : (tensor<?x384x16x64xf32>) -> tensor<1xi64>
    %1093 = crt.constant : () -> tensor<1xi64>
    %1094 = crt.concat %1092, %1093, %208 : (tensor<1xi64>, tensor<1xi64>, tensor<1xi64>) -> tensor<3xi64>
    %1095 = crt.reshape %1091, %1094 : (tensor<?x384x16x64xf32>, tensor<3xi64>) -> tensor<?x384x1024xf32>
    %1096 = crt.matmul %1095, %283 : (tensor<?x384x1024xf32>, tensor<1024x1024xf32>) -> tensor<?x384x1024xf32>
    %1097 = crt.add %1096, %1063 : (tensor<?x384x1024xf32>, tensor<?x384x1024xf32>) -> tensor<?x384x1024xf32>
    %1098 = crt.constant : () -> tensor<1024xf32>
    %1099 = crt.add %1097, %1098 : (tensor<?x384x1024xf32>, tensor<1024xf32>) -> tensor<?x384x1024xf32>
    %1100 = crt.reducemean %1099 : (tensor<?x384x1024xf32>) -> tensor<?x384x1xf32>
    %1101 = crt.sub %1099, %1100 : (tensor<?x384x1024xf32>, tensor<?x384x1xf32>) -> tensor<?x384x1024xf32>
    %1102 = crt.pow %1101 : (tensor<?x384x1024xf32>) -> tensor<?x384x1024xf32>
    %1103 = crt.reducemean %1102 : (tensor<?x384x1024xf32>) -> tensor<?x384x1xf32>
    %1104 = crt.add %1103, %201 : (tensor<?x384x1xf32>, tensor<f32>) -> tensor<?x384x1xf32>
    %1105 = crt.sqrt %1104 : (tensor<?x384x1xf32>) -> tensor<?x384x1xf32>
    %1106 = crt.div %1101, %1105 : (tensor<?x384x1024xf32>, tensor<?x384x1xf32>) -> tensor<?x384x1024xf32>
    %1107 = crt.mul %1106, %38 : (tensor<?x384x1024xf32>, tensor<1024xf32>) -> tensor<?x384x1024xf32>
    %1108 = crt.add %1107, %37 : (tensor<?x384x1024xf32>, tensor<1024xf32>) -> tensor<?x384x1024xf32>
    %1109 = crt.matmul %1108, %284 : (tensor<?x384x1024xf32>, tensor<1024x4096xf32>) -> tensor<?x384x4096xf32>
    %1110 = crt.add %1109, %42 : (tensor<?x384x4096xf32>, tensor<4096xf32>) -> tensor<?x384x4096xf32>
    %1111 = crt.div %1110, %212 : (tensor<?x384x4096xf32>, tensor<f32>) -> tensor<?x384x4096xf32>
    %1112 = crt.erf %1111 : (tensor<?x384x4096xf32>) -> tensor<?x384x4096xf32>
    %1113 = crt.add %1112, %198 : (tensor<?x384x4096xf32>, tensor<f32>) -> tensor<?x384x4096xf32>
    %1114 = crt.mul %1110, %1113 : (tensor<?x384x4096xf32>, tensor<?x384x4096xf32>) -> tensor<?x384x4096xf32>
    %1115 = crt.mul %1114, %211 : (tensor<?x384x4096xf32>, tensor<f32>) -> tensor<?x384x4096xf32>
    %1116 = crt.matmul %1115, %285 : (tensor<?x384x4096xf32>, tensor<4096x1024xf32>) -> tensor<?x384x1024xf32>
    %1117 = crt.add %1116, %1107 : (tensor<?x384x1024xf32>, tensor<?x384x1024xf32>) -> tensor<?x384x1024xf32>
    %1118 = crt.constant : () -> tensor<1024xf32>
    %1119 = crt.add %1117, %1118 : (tensor<?x384x1024xf32>, tensor<1024xf32>) -> tensor<?x384x1024xf32>
    %1120 = crt.reducemean %1119 : (tensor<?x384x1024xf32>) -> tensor<?x384x1xf32>
    %1121 = crt.sub %1119, %1120 : (tensor<?x384x1024xf32>, tensor<?x384x1xf32>) -> tensor<?x384x1024xf32>
    %1122 = crt.pow %1121 : (tensor<?x384x1024xf32>) -> tensor<?x384x1024xf32>
    %1123 = crt.reducemean %1122 : (tensor<?x384x1024xf32>) -> tensor<?x384x1xf32>
    %1124 = crt.add %1123, %201 : (tensor<?x384x1xf32>, tensor<f32>) -> tensor<?x384x1xf32>
    %1125 = crt.sqrt %1124 : (tensor<?x384x1xf32>) -> tensor<?x384x1xf32>
    %1126 = crt.div %1121, %1125 : (tensor<?x384x1024xf32>, tensor<?x384x1xf32>) -> tensor<?x384x1024xf32>
    %1127 = crt.mul %1126, %44 : (tensor<?x384x1024xf32>, tensor<1024xf32>) -> tensor<?x384x1024xf32>
    %1128 = crt.add %1127, %43 : (tensor<?x384x1024xf32>, tensor<1024xf32>) -> tensor<?x384x1024xf32>
    %1129 = crt.matmul %1128, %286 : (tensor<?x384x1024xf32>, tensor<1024x1024xf32>) -> tensor<?x384x1024xf32>
    %1130 = crt.add %1129, %48 : (tensor<?x384x1024xf32>, tensor<1024xf32>) -> tensor<?x384x1024xf32>
    %1131 = crt.matmul %1128, %287 : (tensor<?x384x1024xf32>, tensor<1024x1024xf32>) -> tensor<?x384x1024xf32>
    %1132 = crt.add %1131, %47 : (tensor<?x384x1024xf32>, tensor<1024xf32>) -> tensor<?x384x1024xf32>
    %1133 = crt.matmul %1128, %288 : (tensor<?x384x1024xf32>, tensor<1024x1024xf32>) -> tensor<?x384x1024xf32>
    %1134 = crt.add %1133, %49 : (tensor<?x384x1024xf32>, tensor<1024xf32>) -> tensor<?x384x1024xf32>
    %1135 = crt.dim %1130 : (tensor<?x384x1024xf32>) -> tensor<1xi64>
    %1136 = crt.constant : () -> tensor<1xi64>
    %1137 = crt.concat %1135, %1136, %205, %206 : (tensor<1xi64>, tensor<1xi64>, tensor<1xi64>, tensor<1xi64>) -> tensor<4xi64>
    %1138 = crt.reshape %1130, %1137 : (tensor<?x384x1024xf32>, tensor<4xi64>) -> tensor<?x384x16x64xf32>
    %1139 = crt.transpose %1138 : (tensor<?x384x16x64xf32>) -> tensor<?x16x384x64xf32>
    %1140 = crt.dim %1132 : (tensor<?x384x1024xf32>) -> tensor<1xi64>
    %1141 = crt.constant : () -> tensor<1xi64>
    %1142 = crt.concat %1140, %1141, %205, %206 : (tensor<1xi64>, tensor<1xi64>, tensor<1xi64>, tensor<1xi64>) -> tensor<4xi64>
    %1143 = crt.reshape %1132, %1142 : (tensor<?x384x1024xf32>, tensor<4xi64>) -> tensor<?x384x16x64xf32>
    %1144 = crt.dim %1134 : (tensor<?x384x1024xf32>) -> tensor<1xi64>
    %1145 = crt.constant : () -> tensor<1xi64>
    %1146 = crt.concat %1144, %1145, %205, %206 : (tensor<1xi64>, tensor<1xi64>, tensor<1xi64>, tensor<1xi64>) -> tensor<4xi64>
    %1147 = crt.reshape %1134, %1146 : (tensor<?x384x1024xf32>, tensor<4xi64>) -> tensor<?x384x16x64xf32>
    %1148 = crt.transpose %1147 : (tensor<?x384x16x64xf32>) -> tensor<?x16x384x64xf32>
    %1149 = crt.transpose %1143 : (tensor<?x384x16x64xf32>) -> tensor<?x16x64x384xf32>
    %1150 = crt.matmul %1139, %1149 : (tensor<?x16x384x64xf32>, tensor<?x16x64x384xf32>) -> tensor<?x16x384x384xf32>
    %1151 = crt.div %1150, %207 : (tensor<?x16x384x384xf32>, tensor<f32>) -> tensor<?x16x384x384xf32>
    %1152 = crt.add %1151, %366 : (tensor<?x16x384x384xf32>, tensor<?x1x1x384xf32>) -> tensor<?x16x384x384xf32>
    %1153 = crt.softmax %1152 : (tensor<?x16x384x384xf32>) -> tensor<?x16x384x384xf32>
    %1154 = crt.matmul %1153, %1148 : (tensor<?x16x384x384xf32>, tensor<?x16x384x64xf32>) -> tensor<?x16x384x64xf32>
    %1155 = crt.transpose %1154 : (tensor<?x16x384x64xf32>) -> tensor<?x384x16x64xf32>
    %1156 = crt.dim %1155 : (tensor<?x384x16x64xf32>) -> tensor<1xi64>
    %1157 = crt.constant : () -> tensor<1xi64>
    %1158 = crt.concat %1156, %1157, %208 : (tensor<1xi64>, tensor<1xi64>, tensor<1xi64>) -> tensor<3xi64>
    %1159 = crt.reshape %1155, %1158 : (tensor<?x384x16x64xf32>, tensor<3xi64>) -> tensor<?x384x1024xf32>
    %1160 = crt.matmul %1159, %289 : (tensor<?x384x1024xf32>, tensor<1024x1024xf32>) -> tensor<?x384x1024xf32>
    %1161 = crt.add %1160, %1127 : (tensor<?x384x1024xf32>, tensor<?x384x1024xf32>) -> tensor<?x384x1024xf32>
    %1162 = crt.constant : () -> tensor<1024xf32>
    %1163 = crt.add %1161, %1162 : (tensor<?x384x1024xf32>, tensor<1024xf32>) -> tensor<?x384x1024xf32>
    %1164 = crt.reducemean %1163 : (tensor<?x384x1024xf32>) -> tensor<?x384x1xf32>
    %1165 = crt.sub %1163, %1164 : (tensor<?x384x1024xf32>, tensor<?x384x1xf32>) -> tensor<?x384x1024xf32>
    %1166 = crt.pow %1165 : (tensor<?x384x1024xf32>) -> tensor<?x384x1024xf32>
    %1167 = crt.reducemean %1166 : (tensor<?x384x1024xf32>) -> tensor<?x384x1xf32>
    %1168 = crt.add %1167, %201 : (tensor<?x384x1xf32>, tensor<f32>) -> tensor<?x384x1xf32>
    %1169 = crt.sqrt %1168 : (tensor<?x384x1xf32>) -> tensor<?x384x1xf32>
    %1170 = crt.div %1165, %1169 : (tensor<?x384x1024xf32>, tensor<?x384x1xf32>) -> tensor<?x384x1024xf32>
    %1171 = crt.mul %1170, %46 : (tensor<?x384x1024xf32>, tensor<1024xf32>) -> tensor<?x384x1024xf32>
    %1172 = crt.add %1171, %45 : (tensor<?x384x1024xf32>, tensor<1024xf32>) -> tensor<?x384x1024xf32>
    %1173 = crt.matmul %1172, %290 : (tensor<?x384x1024xf32>, tensor<1024x4096xf32>) -> tensor<?x384x4096xf32>
    %1174 = crt.add %1173, %50 : (tensor<?x384x4096xf32>, tensor<4096xf32>) -> tensor<?x384x4096xf32>
    %1175 = crt.div %1174, %212 : (tensor<?x384x4096xf32>, tensor<f32>) -> tensor<?x384x4096xf32>
    %1176 = crt.erf %1175 : (tensor<?x384x4096xf32>) -> tensor<?x384x4096xf32>
    %1177 = crt.add %1176, %198 : (tensor<?x384x4096xf32>, tensor<f32>) -> tensor<?x384x4096xf32>
    %1178 = crt.mul %1174, %1177 : (tensor<?x384x4096xf32>, tensor<?x384x4096xf32>) -> tensor<?x384x4096xf32>
    %1179 = crt.mul %1178, %211 : (tensor<?x384x4096xf32>, tensor<f32>) -> tensor<?x384x4096xf32>
    %1180 = crt.matmul %1179, %291 : (tensor<?x384x4096xf32>, tensor<4096x1024xf32>) -> tensor<?x384x1024xf32>
    %1181 = crt.add %1180, %1171 : (tensor<?x384x1024xf32>, tensor<?x384x1024xf32>) -> tensor<?x384x1024xf32>
    %1182 = crt.constant : () -> tensor<1024xf32>
    %1183 = crt.add %1181, %1182 : (tensor<?x384x1024xf32>, tensor<1024xf32>) -> tensor<?x384x1024xf32>
    %1184 = crt.reducemean %1183 : (tensor<?x384x1024xf32>) -> tensor<?x384x1xf32>
    %1185 = crt.sub %1183, %1184 : (tensor<?x384x1024xf32>, tensor<?x384x1xf32>) -> tensor<?x384x1024xf32>
    %1186 = crt.pow %1185 : (tensor<?x384x1024xf32>) -> tensor<?x384x1024xf32>
    %1187 = crt.reducemean %1186 : (tensor<?x384x1024xf32>) -> tensor<?x384x1xf32>
    %1188 = crt.add %1187, %201 : (tensor<?x384x1xf32>, tensor<f32>) -> tensor<?x384x1xf32>
    %1189 = crt.sqrt %1188 : (tensor<?x384x1xf32>) -> tensor<?x384x1xf32>
    %1190 = crt.div %1185, %1189 : (tensor<?x384x1024xf32>, tensor<?x384x1xf32>) -> tensor<?x384x1024xf32>
    %1191 = crt.mul %1190, %52 : (tensor<?x384x1024xf32>, tensor<1024xf32>) -> tensor<?x384x1024xf32>
    %1192 = crt.add %1191, %51 : (tensor<?x384x1024xf32>, tensor<1024xf32>) -> tensor<?x384x1024xf32>
    %1193 = crt.matmul %1192, %292 : (tensor<?x384x1024xf32>, tensor<1024x1024xf32>) -> tensor<?x384x1024xf32>
    %1194 = crt.add %1193, %56 : (tensor<?x384x1024xf32>, tensor<1024xf32>) -> tensor<?x384x1024xf32>
    %1195 = crt.matmul %1192, %293 : (tensor<?x384x1024xf32>, tensor<1024x1024xf32>) -> tensor<?x384x1024xf32>
    %1196 = crt.add %1195, %55 : (tensor<?x384x1024xf32>, tensor<1024xf32>) -> tensor<?x384x1024xf32>
    %1197 = crt.matmul %1192, %294 : (tensor<?x384x1024xf32>, tensor<1024x1024xf32>) -> tensor<?x384x1024xf32>
    %1198 = crt.add %1197, %57 : (tensor<?x384x1024xf32>, tensor<1024xf32>) -> tensor<?x384x1024xf32>
    %1199 = crt.dim %1194 : (tensor<?x384x1024xf32>) -> tensor<1xi64>
    %1200 = crt.constant : () -> tensor<1xi64>
    %1201 = crt.concat %1199, %1200, %205, %206 : (tensor<1xi64>, tensor<1xi64>, tensor<1xi64>, tensor<1xi64>) -> tensor<4xi64>
    %1202 = crt.reshape %1194, %1201 : (tensor<?x384x1024xf32>, tensor<4xi64>) -> tensor<?x384x16x64xf32>
    %1203 = crt.transpose %1202 : (tensor<?x384x16x64xf32>) -> tensor<?x16x384x64xf32>
    %1204 = crt.dim %1196 : (tensor<?x384x1024xf32>) -> tensor<1xi64>
    %1205 = crt.constant : () -> tensor<1xi64>
    %1206 = crt.concat %1204, %1205, %205, %206 : (tensor<1xi64>, tensor<1xi64>, tensor<1xi64>, tensor<1xi64>) -> tensor<4xi64>
    %1207 = crt.reshape %1196, %1206 : (tensor<?x384x1024xf32>, tensor<4xi64>) -> tensor<?x384x16x64xf32>
    %1208 = crt.dim %1198 : (tensor<?x384x1024xf32>) -> tensor<1xi64>
    %1209 = crt.constant : () -> tensor<1xi64>
    %1210 = crt.concat %1208, %1209, %205, %206 : (tensor<1xi64>, tensor<1xi64>, tensor<1xi64>, tensor<1xi64>) -> tensor<4xi64>
    %1211 = crt.reshape %1198, %1210 : (tensor<?x384x1024xf32>, tensor<4xi64>) -> tensor<?x384x16x64xf32>
    %1212 = crt.transpose %1211 : (tensor<?x384x16x64xf32>) -> tensor<?x16x384x64xf32>
    %1213 = crt.transpose %1207 : (tensor<?x384x16x64xf32>) -> tensor<?x16x64x384xf32>
    %1214 = crt.matmul %1203, %1213 : (tensor<?x16x384x64xf32>, tensor<?x16x64x384xf32>) -> tensor<?x16x384x384xf32>
    %1215 = crt.div %1214, %207 : (tensor<?x16x384x384xf32>, tensor<f32>) -> tensor<?x16x384x384xf32>
    %1216 = crt.add %1215, %366 : (tensor<?x16x384x384xf32>, tensor<?x1x1x384xf32>) -> tensor<?x16x384x384xf32>
    %1217 = crt.softmax %1216 : (tensor<?x16x384x384xf32>) -> tensor<?x16x384x384xf32>
    %1218 = crt.matmul %1217, %1212 : (tensor<?x16x384x384xf32>, tensor<?x16x384x64xf32>) -> tensor<?x16x384x64xf32>
    %1219 = crt.transpose %1218 : (tensor<?x16x384x64xf32>) -> tensor<?x384x16x64xf32>
    %1220 = crt.dim %1219 : (tensor<?x384x16x64xf32>) -> tensor<1xi64>
    %1221 = crt.constant : () -> tensor<1xi64>
    %1222 = crt.concat %1220, %1221, %208 : (tensor<1xi64>, tensor<1xi64>, tensor<1xi64>) -> tensor<3xi64>
    %1223 = crt.reshape %1219, %1222 : (tensor<?x384x16x64xf32>, tensor<3xi64>) -> tensor<?x384x1024xf32>
    %1224 = crt.matmul %1223, %295 : (tensor<?x384x1024xf32>, tensor<1024x1024xf32>) -> tensor<?x384x1024xf32>
    %1225 = crt.add %1224, %1191 : (tensor<?x384x1024xf32>, tensor<?x384x1024xf32>) -> tensor<?x384x1024xf32>
    %1226 = crt.constant : () -> tensor<1024xf32>
    %1227 = crt.add %1225, %1226 : (tensor<?x384x1024xf32>, tensor<1024xf32>) -> tensor<?x384x1024xf32>
    %1228 = crt.reducemean %1227 : (tensor<?x384x1024xf32>) -> tensor<?x384x1xf32>
    %1229 = crt.sub %1227, %1228 : (tensor<?x384x1024xf32>, tensor<?x384x1xf32>) -> tensor<?x384x1024xf32>
    %1230 = crt.pow %1229 : (tensor<?x384x1024xf32>) -> tensor<?x384x1024xf32>
    %1231 = crt.reducemean %1230 : (tensor<?x384x1024xf32>) -> tensor<?x384x1xf32>
    %1232 = crt.add %1231, %201 : (tensor<?x384x1xf32>, tensor<f32>) -> tensor<?x384x1xf32>
    %1233 = crt.sqrt %1232 : (tensor<?x384x1xf32>) -> tensor<?x384x1xf32>
    %1234 = crt.div %1229, %1233 : (tensor<?x384x1024xf32>, tensor<?x384x1xf32>) -> tensor<?x384x1024xf32>
    %1235 = crt.mul %1234, %54 : (tensor<?x384x1024xf32>, tensor<1024xf32>) -> tensor<?x384x1024xf32>
    %1236 = crt.add %1235, %53 : (tensor<?x384x1024xf32>, tensor<1024xf32>) -> tensor<?x384x1024xf32>
    %1237 = crt.matmul %1236, %296 : (tensor<?x384x1024xf32>, tensor<1024x4096xf32>) -> tensor<?x384x4096xf32>
    %1238 = crt.add %1237, %58 : (tensor<?x384x4096xf32>, tensor<4096xf32>) -> tensor<?x384x4096xf32>
    %1239 = crt.div %1238, %212 : (tensor<?x384x4096xf32>, tensor<f32>) -> tensor<?x384x4096xf32>
    %1240 = crt.erf %1239 : (tensor<?x384x4096xf32>) -> tensor<?x384x4096xf32>
    %1241 = crt.add %1240, %198 : (tensor<?x384x4096xf32>, tensor<f32>) -> tensor<?x384x4096xf32>
    %1242 = crt.mul %1238, %1241 : (tensor<?x384x4096xf32>, tensor<?x384x4096xf32>) -> tensor<?x384x4096xf32>
    %1243 = crt.mul %1242, %211 : (tensor<?x384x4096xf32>, tensor<f32>) -> tensor<?x384x4096xf32>
    %1244 = crt.matmul %1243, %297 : (tensor<?x384x4096xf32>, tensor<4096x1024xf32>) -> tensor<?x384x1024xf32>
    %1245 = crt.add %1244, %1235 : (tensor<?x384x1024xf32>, tensor<?x384x1024xf32>) -> tensor<?x384x1024xf32>
    %1246 = crt.constant : () -> tensor<1024xf32>
    %1247 = crt.add %1245, %1246 : (tensor<?x384x1024xf32>, tensor<1024xf32>) -> tensor<?x384x1024xf32>
    %1248 = crt.reducemean %1247 : (tensor<?x384x1024xf32>) -> tensor<?x384x1xf32>
    %1249 = crt.sub %1247, %1248 : (tensor<?x384x1024xf32>, tensor<?x384x1xf32>) -> tensor<?x384x1024xf32>
    %1250 = crt.pow %1249 : (tensor<?x384x1024xf32>) -> tensor<?x384x1024xf32>
    %1251 = crt.reducemean %1250 : (tensor<?x384x1024xf32>) -> tensor<?x384x1xf32>
    %1252 = crt.add %1251, %201 : (tensor<?x384x1xf32>, tensor<f32>) -> tensor<?x384x1xf32>
    %1253 = crt.sqrt %1252 : (tensor<?x384x1xf32>) -> tensor<?x384x1xf32>
    %1254 = crt.div %1249, %1253 : (tensor<?x384x1024xf32>, tensor<?x384x1xf32>) -> tensor<?x384x1024xf32>
    %1255 = crt.mul %1254, %60 : (tensor<?x384x1024xf32>, tensor<1024xf32>) -> tensor<?x384x1024xf32>
    %1256 = crt.add %1255, %59 : (tensor<?x384x1024xf32>, tensor<1024xf32>) -> tensor<?x384x1024xf32>
    %1257 = crt.matmul %1256, %298 : (tensor<?x384x1024xf32>, tensor<1024x1024xf32>) -> tensor<?x384x1024xf32>
    %1258 = crt.add %1257, %64 : (tensor<?x384x1024xf32>, tensor<1024xf32>) -> tensor<?x384x1024xf32>
    %1259 = crt.matmul %1256, %299 : (tensor<?x384x1024xf32>, tensor<1024x1024xf32>) -> tensor<?x384x1024xf32>
    %1260 = crt.add %1259, %63 : (tensor<?x384x1024xf32>, tensor<1024xf32>) -> tensor<?x384x1024xf32>
    %1261 = crt.matmul %1256, %300 : (tensor<?x384x1024xf32>, tensor<1024x1024xf32>) -> tensor<?x384x1024xf32>
    %1262 = crt.add %1261, %65 : (tensor<?x384x1024xf32>, tensor<1024xf32>) -> tensor<?x384x1024xf32>
    %1263 = crt.dim %1258 : (tensor<?x384x1024xf32>) -> tensor<1xi64>
    %1264 = crt.constant : () -> tensor<1xi64>
    %1265 = crt.concat %1263, %1264, %205, %206 : (tensor<1xi64>, tensor<1xi64>, tensor<1xi64>, tensor<1xi64>) -> tensor<4xi64>
    %1266 = crt.reshape %1258, %1265 : (tensor<?x384x1024xf32>, tensor<4xi64>) -> tensor<?x384x16x64xf32>
    %1267 = crt.transpose %1266 : (tensor<?x384x16x64xf32>) -> tensor<?x16x384x64xf32>
    %1268 = crt.dim %1260 : (tensor<?x384x1024xf32>) -> tensor<1xi64>
    %1269 = crt.constant : () -> tensor<1xi64>
    %1270 = crt.concat %1268, %1269, %205, %206 : (tensor<1xi64>, tensor<1xi64>, tensor<1xi64>, tensor<1xi64>) -> tensor<4xi64>
    %1271 = crt.reshape %1260, %1270 : (tensor<?x384x1024xf32>, tensor<4xi64>) -> tensor<?x384x16x64xf32>
    %1272 = crt.dim %1262 : (tensor<?x384x1024xf32>) -> tensor<1xi64>
    %1273 = crt.constant : () -> tensor<1xi64>
    %1274 = crt.concat %1272, %1273, %205, %206 : (tensor<1xi64>, tensor<1xi64>, tensor<1xi64>, tensor<1xi64>) -> tensor<4xi64>
    %1275 = crt.reshape %1262, %1274 : (tensor<?x384x1024xf32>, tensor<4xi64>) -> tensor<?x384x16x64xf32>
    %1276 = crt.transpose %1275 : (tensor<?x384x16x64xf32>) -> tensor<?x16x384x64xf32>
    %1277 = crt.transpose %1271 : (tensor<?x384x16x64xf32>) -> tensor<?x16x64x384xf32>
    %1278 = crt.matmul %1267, %1277 : (tensor<?x16x384x64xf32>, tensor<?x16x64x384xf32>) -> tensor<?x16x384x384xf32>
    %1279 = crt.div %1278, %207 : (tensor<?x16x384x384xf32>, tensor<f32>) -> tensor<?x16x384x384xf32>
    %1280 = crt.add %1279, %366 : (tensor<?x16x384x384xf32>, tensor<?x1x1x384xf32>) -> tensor<?x16x384x384xf32>
    %1281 = crt.softmax %1280 : (tensor<?x16x384x384xf32>) -> tensor<?x16x384x384xf32>
    %1282 = crt.matmul %1281, %1276 : (tensor<?x16x384x384xf32>, tensor<?x16x384x64xf32>) -> tensor<?x16x384x64xf32>
    %1283 = crt.transpose %1282 : (tensor<?x16x384x64xf32>) -> tensor<?x384x16x64xf32>
    %1284 = crt.dim %1283 : (tensor<?x384x16x64xf32>) -> tensor<1xi64>
    %1285 = crt.constant : () -> tensor<1xi64>
    %1286 = crt.concat %1284, %1285, %208 : (tensor<1xi64>, tensor<1xi64>, tensor<1xi64>) -> tensor<3xi64>
    %1287 = crt.reshape %1283, %1286 : (tensor<?x384x16x64xf32>, tensor<3xi64>) -> tensor<?x384x1024xf32>
    %1288 = crt.matmul %1287, %301 : (tensor<?x384x1024xf32>, tensor<1024x1024xf32>) -> tensor<?x384x1024xf32>
    %1289 = crt.add %1288, %1255 : (tensor<?x384x1024xf32>, tensor<?x384x1024xf32>) -> tensor<?x384x1024xf32>
    %1290 = crt.constant : () -> tensor<1024xf32>
    %1291 = crt.add %1289, %1290 : (tensor<?x384x1024xf32>, tensor<1024xf32>) -> tensor<?x384x1024xf32>
    %1292 = crt.reducemean %1291 : (tensor<?x384x1024xf32>) -> tensor<?x384x1xf32>
    %1293 = crt.sub %1291, %1292 : (tensor<?x384x1024xf32>, tensor<?x384x1xf32>) -> tensor<?x384x1024xf32>
    %1294 = crt.pow %1293 : (tensor<?x384x1024xf32>) -> tensor<?x384x1024xf32>
    %1295 = crt.reducemean %1294 : (tensor<?x384x1024xf32>) -> tensor<?x384x1xf32>
    %1296 = crt.add %1295, %201 : (tensor<?x384x1xf32>, tensor<f32>) -> tensor<?x384x1xf32>
    %1297 = crt.sqrt %1296 : (tensor<?x384x1xf32>) -> tensor<?x384x1xf32>
    %1298 = crt.div %1293, %1297 : (tensor<?x384x1024xf32>, tensor<?x384x1xf32>) -> tensor<?x384x1024xf32>
    %1299 = crt.mul %1298, %62 : (tensor<?x384x1024xf32>, tensor<1024xf32>) -> tensor<?x384x1024xf32>
    %1300 = crt.add %1299, %61 : (tensor<?x384x1024xf32>, tensor<1024xf32>) -> tensor<?x384x1024xf32>
    %1301 = crt.matmul %1300, %302 : (tensor<?x384x1024xf32>, tensor<1024x4096xf32>) -> tensor<?x384x4096xf32>
    %1302 = crt.add %1301, %66 : (tensor<?x384x4096xf32>, tensor<4096xf32>) -> tensor<?x384x4096xf32>
    %1303 = crt.div %1302, %212 : (tensor<?x384x4096xf32>, tensor<f32>) -> tensor<?x384x4096xf32>
    %1304 = crt.erf %1303 : (tensor<?x384x4096xf32>) -> tensor<?x384x4096xf32>
    %1305 = crt.add %1304, %198 : (tensor<?x384x4096xf32>, tensor<f32>) -> tensor<?x384x4096xf32>
    %1306 = crt.mul %1302, %1305 : (tensor<?x384x4096xf32>, tensor<?x384x4096xf32>) -> tensor<?x384x4096xf32>
    %1307 = crt.mul %1306, %211 : (tensor<?x384x4096xf32>, tensor<f32>) -> tensor<?x384x4096xf32>
    %1308 = crt.matmul %1307, %303 : (tensor<?x384x4096xf32>, tensor<4096x1024xf32>) -> tensor<?x384x1024xf32>
    %1309 = crt.add %1308, %1299 : (tensor<?x384x1024xf32>, tensor<?x384x1024xf32>) -> tensor<?x384x1024xf32>
    %1310 = crt.constant : () -> tensor<1024xf32>
    %1311 = crt.add %1309, %1310 : (tensor<?x384x1024xf32>, tensor<1024xf32>) -> tensor<?x384x1024xf32>
    %1312 = crt.reducemean %1311 : (tensor<?x384x1024xf32>) -> tensor<?x384x1xf32>
    %1313 = crt.sub %1311, %1312 : (tensor<?x384x1024xf32>, tensor<?x384x1xf32>) -> tensor<?x384x1024xf32>
    %1314 = crt.pow %1313 : (tensor<?x384x1024xf32>) -> tensor<?x384x1024xf32>
    %1315 = crt.reducemean %1314 : (tensor<?x384x1024xf32>) -> tensor<?x384x1xf32>
    %1316 = crt.add %1315, %201 : (tensor<?x384x1xf32>, tensor<f32>) -> tensor<?x384x1xf32>
    %1317 = crt.sqrt %1316 : (tensor<?x384x1xf32>) -> tensor<?x384x1xf32>
    %1318 = crt.div %1313, %1317 : (tensor<?x384x1024xf32>, tensor<?x384x1xf32>) -> tensor<?x384x1024xf32>
    %1319 = crt.mul %1318, %68 : (tensor<?x384x1024xf32>, tensor<1024xf32>) -> tensor<?x384x1024xf32>
    %1320 = crt.add %1319, %67 : (tensor<?x384x1024xf32>, tensor<1024xf32>) -> tensor<?x384x1024xf32>
    %1321 = crt.matmul %1320, %304 : (tensor<?x384x1024xf32>, tensor<1024x1024xf32>) -> tensor<?x384x1024xf32>
    %1322 = crt.add %1321, %72 : (tensor<?x384x1024xf32>, tensor<1024xf32>) -> tensor<?x384x1024xf32>
    %1323 = crt.matmul %1320, %305 : (tensor<?x384x1024xf32>, tensor<1024x1024xf32>) -> tensor<?x384x1024xf32>
    %1324 = crt.add %1323, %71 : (tensor<?x384x1024xf32>, tensor<1024xf32>) -> tensor<?x384x1024xf32>
    %1325 = crt.matmul %1320, %306 : (tensor<?x384x1024xf32>, tensor<1024x1024xf32>) -> tensor<?x384x1024xf32>
    %1326 = crt.add %1325, %73 : (tensor<?x384x1024xf32>, tensor<1024xf32>) -> tensor<?x384x1024xf32>
    %1327 = crt.dim %1322 : (tensor<?x384x1024xf32>) -> tensor<1xi64>
    %1328 = crt.constant : () -> tensor<1xi64>
    %1329 = crt.concat %1327, %1328, %205, %206 : (tensor<1xi64>, tensor<1xi64>, tensor<1xi64>, tensor<1xi64>) -> tensor<4xi64>
    %1330 = crt.reshape %1322, %1329 : (tensor<?x384x1024xf32>, tensor<4xi64>) -> tensor<?x384x16x64xf32>
    %1331 = crt.transpose %1330 : (tensor<?x384x16x64xf32>) -> tensor<?x16x384x64xf32>
    %1332 = crt.dim %1324 : (tensor<?x384x1024xf32>) -> tensor<1xi64>
    %1333 = crt.constant : () -> tensor<1xi64>
    %1334 = crt.concat %1332, %1333, %205, %206 : (tensor<1xi64>, tensor<1xi64>, tensor<1xi64>, tensor<1xi64>) -> tensor<4xi64>
    %1335 = crt.reshape %1324, %1334 : (tensor<?x384x1024xf32>, tensor<4xi64>) -> tensor<?x384x16x64xf32>
    %1336 = crt.dim %1326 : (tensor<?x384x1024xf32>) -> tensor<1xi64>
    %1337 = crt.constant : () -> tensor<1xi64>
    %1338 = crt.concat %1336, %1337, %205, %206 : (tensor<1xi64>, tensor<1xi64>, tensor<1xi64>, tensor<1xi64>) -> tensor<4xi64>
    %1339 = crt.reshape %1326, %1338 : (tensor<?x384x1024xf32>, tensor<4xi64>) -> tensor<?x384x16x64xf32>
    %1340 = crt.transpose %1339 : (tensor<?x384x16x64xf32>) -> tensor<?x16x384x64xf32>
    %1341 = crt.transpose %1335 : (tensor<?x384x16x64xf32>) -> tensor<?x16x64x384xf32>
    %1342 = crt.matmul %1331, %1341 : (tensor<?x16x384x64xf32>, tensor<?x16x64x384xf32>) -> tensor<?x16x384x384xf32>
    %1343 = crt.div %1342, %207 : (tensor<?x16x384x384xf32>, tensor<f32>) -> tensor<?x16x384x384xf32>
    %1344 = crt.add %1343, %366 : (tensor<?x16x384x384xf32>, tensor<?x1x1x384xf32>) -> tensor<?x16x384x384xf32>
    %1345 = crt.softmax %1344 : (tensor<?x16x384x384xf32>) -> tensor<?x16x384x384xf32>
    %1346 = crt.matmul %1345, %1340 : (tensor<?x16x384x384xf32>, tensor<?x16x384x64xf32>) -> tensor<?x16x384x64xf32>
    %1347 = crt.transpose %1346 : (tensor<?x16x384x64xf32>) -> tensor<?x384x16x64xf32>
    %1348 = crt.dim %1347 : (tensor<?x384x16x64xf32>) -> tensor<1xi64>
    %1349 = crt.constant : () -> tensor<1xi64>
    %1350 = crt.concat %1348, %1349, %208 : (tensor<1xi64>, tensor<1xi64>, tensor<1xi64>) -> tensor<3xi64>
    %1351 = crt.reshape %1347, %1350 : (tensor<?x384x16x64xf32>, tensor<3xi64>) -> tensor<?x384x1024xf32>
    %1352 = crt.matmul %1351, %307 : (tensor<?x384x1024xf32>, tensor<1024x1024xf32>) -> tensor<?x384x1024xf32>
    %1353 = crt.add %1352, %1319 : (tensor<?x384x1024xf32>, tensor<?x384x1024xf32>) -> tensor<?x384x1024xf32>
    %1354 = crt.constant : () -> tensor<1024xf32>
    %1355 = crt.add %1353, %1354 : (tensor<?x384x1024xf32>, tensor<1024xf32>) -> tensor<?x384x1024xf32>
    %1356 = crt.reducemean %1355 : (tensor<?x384x1024xf32>) -> tensor<?x384x1xf32>
    %1357 = crt.sub %1355, %1356 : (tensor<?x384x1024xf32>, tensor<?x384x1xf32>) -> tensor<?x384x1024xf32>
    %1358 = crt.pow %1357 : (tensor<?x384x1024xf32>) -> tensor<?x384x1024xf32>
    %1359 = crt.reducemean %1358 : (tensor<?x384x1024xf32>) -> tensor<?x384x1xf32>
    %1360 = crt.add %1359, %201 : (tensor<?x384x1xf32>, tensor<f32>) -> tensor<?x384x1xf32>
    %1361 = crt.sqrt %1360 : (tensor<?x384x1xf32>) -> tensor<?x384x1xf32>
    %1362 = crt.div %1357, %1361 : (tensor<?x384x1024xf32>, tensor<?x384x1xf32>) -> tensor<?x384x1024xf32>
    %1363 = crt.mul %1362, %70 : (tensor<?x384x1024xf32>, tensor<1024xf32>) -> tensor<?x384x1024xf32>
    %1364 = crt.add %1363, %69 : (tensor<?x384x1024xf32>, tensor<1024xf32>) -> tensor<?x384x1024xf32>
    %1365 = crt.matmul %1364, %308 : (tensor<?x384x1024xf32>, tensor<1024x4096xf32>) -> tensor<?x384x4096xf32>
    %1366 = crt.add %1365, %74 : (tensor<?x384x4096xf32>, tensor<4096xf32>) -> tensor<?x384x4096xf32>
    %1367 = crt.div %1366, %212 : (tensor<?x384x4096xf32>, tensor<f32>) -> tensor<?x384x4096xf32>
    %1368 = crt.erf %1367 : (tensor<?x384x4096xf32>) -> tensor<?x384x4096xf32>
    %1369 = crt.add %1368, %198 : (tensor<?x384x4096xf32>, tensor<f32>) -> tensor<?x384x4096xf32>
    %1370 = crt.mul %1366, %1369 : (tensor<?x384x4096xf32>, tensor<?x384x4096xf32>) -> tensor<?x384x4096xf32>
    %1371 = crt.mul %1370, %211 : (tensor<?x384x4096xf32>, tensor<f32>) -> tensor<?x384x4096xf32>
    %1372 = crt.matmul %1371, %309 : (tensor<?x384x4096xf32>, tensor<4096x1024xf32>) -> tensor<?x384x1024xf32>
    %1373 = crt.add %1372, %1363 : (tensor<?x384x1024xf32>, tensor<?x384x1024xf32>) -> tensor<?x384x1024xf32>
    %1374 = crt.constant : () -> tensor<1024xf32>
    %1375 = crt.add %1373, %1374 : (tensor<?x384x1024xf32>, tensor<1024xf32>) -> tensor<?x384x1024xf32>
    %1376 = crt.reducemean %1375 : (tensor<?x384x1024xf32>) -> tensor<?x384x1xf32>
    %1377 = crt.sub %1375, %1376 : (tensor<?x384x1024xf32>, tensor<?x384x1xf32>) -> tensor<?x384x1024xf32>
    %1378 = crt.pow %1377 : (tensor<?x384x1024xf32>) -> tensor<?x384x1024xf32>
    %1379 = crt.reducemean %1378 : (tensor<?x384x1024xf32>) -> tensor<?x384x1xf32>
    %1380 = crt.add %1379, %201 : (tensor<?x384x1xf32>, tensor<f32>) -> tensor<?x384x1xf32>
    %1381 = crt.sqrt %1380 : (tensor<?x384x1xf32>) -> tensor<?x384x1xf32>
    %1382 = crt.div %1377, %1381 : (tensor<?x384x1024xf32>, tensor<?x384x1xf32>) -> tensor<?x384x1024xf32>
    %1383 = crt.mul %1382, %76 : (tensor<?x384x1024xf32>, tensor<1024xf32>) -> tensor<?x384x1024xf32>
    %1384 = crt.add %1383, %75 : (tensor<?x384x1024xf32>, tensor<1024xf32>) -> tensor<?x384x1024xf32>
    %1385 = crt.matmul %1384, %310 : (tensor<?x384x1024xf32>, tensor<1024x1024xf32>) -> tensor<?x384x1024xf32>
    %1386 = crt.add %1385, %80 : (tensor<?x384x1024xf32>, tensor<1024xf32>) -> tensor<?x384x1024xf32>
    %1387 = crt.matmul %1384, %311 : (tensor<?x384x1024xf32>, tensor<1024x1024xf32>) -> tensor<?x384x1024xf32>
    %1388 = crt.add %1387, %79 : (tensor<?x384x1024xf32>, tensor<1024xf32>) -> tensor<?x384x1024xf32>
    %1389 = crt.matmul %1384, %312 : (tensor<?x384x1024xf32>, tensor<1024x1024xf32>) -> tensor<?x384x1024xf32>
    %1390 = crt.add %1389, %81 : (tensor<?x384x1024xf32>, tensor<1024xf32>) -> tensor<?x384x1024xf32>
    %1391 = crt.dim %1386 : (tensor<?x384x1024xf32>) -> tensor<1xi64>
    %1392 = crt.constant : () -> tensor<1xi64>
    %1393 = crt.concat %1391, %1392, %205, %206 : (tensor<1xi64>, tensor<1xi64>, tensor<1xi64>, tensor<1xi64>) -> tensor<4xi64>
    %1394 = crt.reshape %1386, %1393 : (tensor<?x384x1024xf32>, tensor<4xi64>) -> tensor<?x384x16x64xf32>
    %1395 = crt.transpose %1394 : (tensor<?x384x16x64xf32>) -> tensor<?x16x384x64xf32>
    %1396 = crt.dim %1388 : (tensor<?x384x1024xf32>) -> tensor<1xi64>
    %1397 = crt.constant : () -> tensor<1xi64>
    %1398 = crt.concat %1396, %1397, %205, %206 : (tensor<1xi64>, tensor<1xi64>, tensor<1xi64>, tensor<1xi64>) -> tensor<4xi64>
    %1399 = crt.reshape %1388, %1398 : (tensor<?x384x1024xf32>, tensor<4xi64>) -> tensor<?x384x16x64xf32>
    %1400 = crt.dim %1390 : (tensor<?x384x1024xf32>) -> tensor<1xi64>
    %1401 = crt.constant : () -> tensor<1xi64>
    %1402 = crt.concat %1400, %1401, %205, %206 : (tensor<1xi64>, tensor<1xi64>, tensor<1xi64>, tensor<1xi64>) -> tensor<4xi64>
    %1403 = crt.reshape %1390, %1402 : (tensor<?x384x1024xf32>, tensor<4xi64>) -> tensor<?x384x16x64xf32>
    %1404 = crt.transpose %1403 : (tensor<?x384x16x64xf32>) -> tensor<?x16x384x64xf32>
    %1405 = crt.transpose %1399 : (tensor<?x384x16x64xf32>) -> tensor<?x16x64x384xf32>
    %1406 = crt.matmul %1395, %1405 : (tensor<?x16x384x64xf32>, tensor<?x16x64x384xf32>) -> tensor<?x16x384x384xf32>
    %1407 = crt.div %1406, %207 : (tensor<?x16x384x384xf32>, tensor<f32>) -> tensor<?x16x384x384xf32>
    %1408 = crt.add %1407, %366 : (tensor<?x16x384x384xf32>, tensor<?x1x1x384xf32>) -> tensor<?x16x384x384xf32>
    %1409 = crt.softmax %1408 : (tensor<?x16x384x384xf32>) -> tensor<?x16x384x384xf32>
    %1410 = crt.matmul %1409, %1404 : (tensor<?x16x384x384xf32>, tensor<?x16x384x64xf32>) -> tensor<?x16x384x64xf32>
    %1411 = crt.transpose %1410 : (tensor<?x16x384x64xf32>) -> tensor<?x384x16x64xf32>
    %1412 = crt.dim %1411 : (tensor<?x384x16x64xf32>) -> tensor<1xi64>
    %1413 = crt.constant : () -> tensor<1xi64>
    %1414 = crt.concat %1412, %1413, %208 : (tensor<1xi64>, tensor<1xi64>, tensor<1xi64>) -> tensor<3xi64>
    %1415 = crt.reshape %1411, %1414 : (tensor<?x384x16x64xf32>, tensor<3xi64>) -> tensor<?x384x1024xf32>
    %1416 = crt.matmul %1415, %313 : (tensor<?x384x1024xf32>, tensor<1024x1024xf32>) -> tensor<?x384x1024xf32>
    %1417 = crt.add %1416, %1383 : (tensor<?x384x1024xf32>, tensor<?x384x1024xf32>) -> tensor<?x384x1024xf32>
    %1418 = crt.constant : () -> tensor<1024xf32>
    %1419 = crt.add %1417, %1418 : (tensor<?x384x1024xf32>, tensor<1024xf32>) -> tensor<?x384x1024xf32>
    %1420 = crt.reducemean %1419 : (tensor<?x384x1024xf32>) -> tensor<?x384x1xf32>
    %1421 = crt.sub %1419, %1420 : (tensor<?x384x1024xf32>, tensor<?x384x1xf32>) -> tensor<?x384x1024xf32>
    %1422 = crt.pow %1421 : (tensor<?x384x1024xf32>) -> tensor<?x384x1024xf32>
    %1423 = crt.reducemean %1422 : (tensor<?x384x1024xf32>) -> tensor<?x384x1xf32>
    %1424 = crt.add %1423, %201 : (tensor<?x384x1xf32>, tensor<f32>) -> tensor<?x384x1xf32>
    %1425 = crt.sqrt %1424 : (tensor<?x384x1xf32>) -> tensor<?x384x1xf32>
    %1426 = crt.div %1421, %1425 : (tensor<?x384x1024xf32>, tensor<?x384x1xf32>) -> tensor<?x384x1024xf32>
    %1427 = crt.mul %1426, %78 : (tensor<?x384x1024xf32>, tensor<1024xf32>) -> tensor<?x384x1024xf32>
    %1428 = crt.add %1427, %77 : (tensor<?x384x1024xf32>, tensor<1024xf32>) -> tensor<?x384x1024xf32>
    %1429 = crt.matmul %1428, %314 : (tensor<?x384x1024xf32>, tensor<1024x4096xf32>) -> tensor<?x384x4096xf32>
    %1430 = crt.add %1429, %82 : (tensor<?x384x4096xf32>, tensor<4096xf32>) -> tensor<?x384x4096xf32>
    %1431 = crt.div %1430, %212 : (tensor<?x384x4096xf32>, tensor<f32>) -> tensor<?x384x4096xf32>
    %1432 = crt.erf %1431 : (tensor<?x384x4096xf32>) -> tensor<?x384x4096xf32>
    %1433 = crt.add %1432, %198 : (tensor<?x384x4096xf32>, tensor<f32>) -> tensor<?x384x4096xf32>
    %1434 = crt.mul %1430, %1433 : (tensor<?x384x4096xf32>, tensor<?x384x4096xf32>) -> tensor<?x384x4096xf32>
    %1435 = crt.mul %1434, %211 : (tensor<?x384x4096xf32>, tensor<f32>) -> tensor<?x384x4096xf32>
    %1436 = crt.matmul %1435, %315 : (tensor<?x384x4096xf32>, tensor<4096x1024xf32>) -> tensor<?x384x1024xf32>
    %1437 = crt.add %1436, %1427 : (tensor<?x384x1024xf32>, tensor<?x384x1024xf32>) -> tensor<?x384x1024xf32>
    %1438 = crt.constant : () -> tensor<1024xf32>
    %1439 = crt.add %1437, %1438 : (tensor<?x384x1024xf32>, tensor<1024xf32>) -> tensor<?x384x1024xf32>
    %1440 = crt.reducemean %1439 : (tensor<?x384x1024xf32>) -> tensor<?x384x1xf32>
    %1441 = crt.sub %1439, %1440 : (tensor<?x384x1024xf32>, tensor<?x384x1xf32>) -> tensor<?x384x1024xf32>
    %1442 = crt.pow %1441 : (tensor<?x384x1024xf32>) -> tensor<?x384x1024xf32>
    %1443 = crt.reducemean %1442 : (tensor<?x384x1024xf32>) -> tensor<?x384x1xf32>
    %1444 = crt.add %1443, %201 : (tensor<?x384x1xf32>, tensor<f32>) -> tensor<?x384x1xf32>
    %1445 = crt.sqrt %1444 : (tensor<?x384x1xf32>) -> tensor<?x384x1xf32>
    %1446 = crt.div %1441, %1445 : (tensor<?x384x1024xf32>, tensor<?x384x1xf32>) -> tensor<?x384x1024xf32>
    %1447 = crt.mul %1446, %84 : (tensor<?x384x1024xf32>, tensor<1024xf32>) -> tensor<?x384x1024xf32>
    %1448 = crt.add %1447, %83 : (tensor<?x384x1024xf32>, tensor<1024xf32>) -> tensor<?x384x1024xf32>
    %1449 = crt.matmul %1448, %316 : (tensor<?x384x1024xf32>, tensor<1024x1024xf32>) -> tensor<?x384x1024xf32>
    %1450 = crt.add %1449, %88 : (tensor<?x384x1024xf32>, tensor<1024xf32>) -> tensor<?x384x1024xf32>
    %1451 = crt.matmul %1448, %317 : (tensor<?x384x1024xf32>, tensor<1024x1024xf32>) -> tensor<?x384x1024xf32>
    %1452 = crt.add %1451, %87 : (tensor<?x384x1024xf32>, tensor<1024xf32>) -> tensor<?x384x1024xf32>
    %1453 = crt.matmul %1448, %318 : (tensor<?x384x1024xf32>, tensor<1024x1024xf32>) -> tensor<?x384x1024xf32>
    %1454 = crt.add %1453, %89 : (tensor<?x384x1024xf32>, tensor<1024xf32>) -> tensor<?x384x1024xf32>
    %1455 = crt.dim %1450 : (tensor<?x384x1024xf32>) -> tensor<1xi64>
    %1456 = crt.constant : () -> tensor<1xi64>
    %1457 = crt.concat %1455, %1456, %205, %206 : (tensor<1xi64>, tensor<1xi64>, tensor<1xi64>, tensor<1xi64>) -> tensor<4xi64>
    %1458 = crt.reshape %1450, %1457 : (tensor<?x384x1024xf32>, tensor<4xi64>) -> tensor<?x384x16x64xf32>
    %1459 = crt.transpose %1458 : (tensor<?x384x16x64xf32>) -> tensor<?x16x384x64xf32>
    %1460 = crt.dim %1452 : (tensor<?x384x1024xf32>) -> tensor<1xi64>
    %1461 = crt.constant : () -> tensor<1xi64>
    %1462 = crt.concat %1460, %1461, %205, %206 : (tensor<1xi64>, tensor<1xi64>, tensor<1xi64>, tensor<1xi64>) -> tensor<4xi64>
    %1463 = crt.reshape %1452, %1462 : (tensor<?x384x1024xf32>, tensor<4xi64>) -> tensor<?x384x16x64xf32>
    %1464 = crt.dim %1454 : (tensor<?x384x1024xf32>) -> tensor<1xi64>
    %1465 = crt.constant : () -> tensor<1xi64>
    %1466 = crt.concat %1464, %1465, %205, %206 : (tensor<1xi64>, tensor<1xi64>, tensor<1xi64>, tensor<1xi64>) -> tensor<4xi64>
    %1467 = crt.reshape %1454, %1466 : (tensor<?x384x1024xf32>, tensor<4xi64>) -> tensor<?x384x16x64xf32>
    %1468 = crt.transpose %1467 : (tensor<?x384x16x64xf32>) -> tensor<?x16x384x64xf32>
    %1469 = crt.transpose %1463 : (tensor<?x384x16x64xf32>) -> tensor<?x16x64x384xf32>
    %1470 = crt.matmul %1459, %1469 : (tensor<?x16x384x64xf32>, tensor<?x16x64x384xf32>) -> tensor<?x16x384x384xf32>
    %1471 = crt.div %1470, %207 : (tensor<?x16x384x384xf32>, tensor<f32>) -> tensor<?x16x384x384xf32>
    %1472 = crt.add %1471, %366 : (tensor<?x16x384x384xf32>, tensor<?x1x1x384xf32>) -> tensor<?x16x384x384xf32>
    %1473 = crt.softmax %1472 : (tensor<?x16x384x384xf32>) -> tensor<?x16x384x384xf32>
    %1474 = crt.matmul %1473, %1468 : (tensor<?x16x384x384xf32>, tensor<?x16x384x64xf32>) -> tensor<?x16x384x64xf32>
    %1475 = crt.transpose %1474 : (tensor<?x16x384x64xf32>) -> tensor<?x384x16x64xf32>
    %1476 = crt.dim %1475 : (tensor<?x384x16x64xf32>) -> tensor<1xi64>
    %1477 = crt.constant : () -> tensor<1xi64>
    %1478 = crt.concat %1476, %1477, %208 : (tensor<1xi64>, tensor<1xi64>, tensor<1xi64>) -> tensor<3xi64>
    %1479 = crt.reshape %1475, %1478 : (tensor<?x384x16x64xf32>, tensor<3xi64>) -> tensor<?x384x1024xf32>
    %1480 = crt.matmul %1479, %319 : (tensor<?x384x1024xf32>, tensor<1024x1024xf32>) -> tensor<?x384x1024xf32>
    %1481 = crt.add %1480, %1447 : (tensor<?x384x1024xf32>, tensor<?x384x1024xf32>) -> tensor<?x384x1024xf32>
    %1482 = crt.constant : () -> tensor<1024xf32>
    %1483 = crt.add %1481, %1482 : (tensor<?x384x1024xf32>, tensor<1024xf32>) -> tensor<?x384x1024xf32>
    %1484 = crt.reducemean %1483 : (tensor<?x384x1024xf32>) -> tensor<?x384x1xf32>
    %1485 = crt.sub %1483, %1484 : (tensor<?x384x1024xf32>, tensor<?x384x1xf32>) -> tensor<?x384x1024xf32>
    %1486 = crt.pow %1485 : (tensor<?x384x1024xf32>) -> tensor<?x384x1024xf32>
    %1487 = crt.reducemean %1486 : (tensor<?x384x1024xf32>) -> tensor<?x384x1xf32>
    %1488 = crt.add %1487, %201 : (tensor<?x384x1xf32>, tensor<f32>) -> tensor<?x384x1xf32>
    %1489 = crt.sqrt %1488 : (tensor<?x384x1xf32>) -> tensor<?x384x1xf32>
    %1490 = crt.div %1485, %1489 : (tensor<?x384x1024xf32>, tensor<?x384x1xf32>) -> tensor<?x384x1024xf32>
    %1491 = crt.mul %1490, %86 : (tensor<?x384x1024xf32>, tensor<1024xf32>) -> tensor<?x384x1024xf32>
    %1492 = crt.add %1491, %85 : (tensor<?x384x1024xf32>, tensor<1024xf32>) -> tensor<?x384x1024xf32>
    %1493 = crt.matmul %1492, %320 : (tensor<?x384x1024xf32>, tensor<1024x4096xf32>) -> tensor<?x384x4096xf32>
    %1494 = crt.add %1493, %90 : (tensor<?x384x4096xf32>, tensor<4096xf32>) -> tensor<?x384x4096xf32>
    %1495 = crt.div %1494, %212 : (tensor<?x384x4096xf32>, tensor<f32>) -> tensor<?x384x4096xf32>
    %1496 = crt.erf %1495 : (tensor<?x384x4096xf32>) -> tensor<?x384x4096xf32>
    %1497 = crt.add %1496, %198 : (tensor<?x384x4096xf32>, tensor<f32>) -> tensor<?x384x4096xf32>
    %1498 = crt.mul %1494, %1497 : (tensor<?x384x4096xf32>, tensor<?x384x4096xf32>) -> tensor<?x384x4096xf32>
    %1499 = crt.mul %1498, %211 : (tensor<?x384x4096xf32>, tensor<f32>) -> tensor<?x384x4096xf32>
    %1500 = crt.matmul %1499, %321 : (tensor<?x384x4096xf32>, tensor<4096x1024xf32>) -> tensor<?x384x1024xf32>
    %1501 = crt.add %1500, %1491 : (tensor<?x384x1024xf32>, tensor<?x384x1024xf32>) -> tensor<?x384x1024xf32>
    %1502 = crt.constant : () -> tensor<1024xf32>
    %1503 = crt.add %1501, %1502 : (tensor<?x384x1024xf32>, tensor<1024xf32>) -> tensor<?x384x1024xf32>
    %1504 = crt.reducemean %1503 : (tensor<?x384x1024xf32>) -> tensor<?x384x1xf32>
    %1505 = crt.sub %1503, %1504 : (tensor<?x384x1024xf32>, tensor<?x384x1xf32>) -> tensor<?x384x1024xf32>
    %1506 = crt.pow %1505 : (tensor<?x384x1024xf32>) -> tensor<?x384x1024xf32>
    %1507 = crt.reducemean %1506 : (tensor<?x384x1024xf32>) -> tensor<?x384x1xf32>
    %1508 = crt.add %1507, %201 : (tensor<?x384x1xf32>, tensor<f32>) -> tensor<?x384x1xf32>
    %1509 = crt.sqrt %1508 : (tensor<?x384x1xf32>) -> tensor<?x384x1xf32>
    %1510 = crt.div %1505, %1509 : (tensor<?x384x1024xf32>, tensor<?x384x1xf32>) -> tensor<?x384x1024xf32>
    %1511 = crt.mul %1510, %92 : (tensor<?x384x1024xf32>, tensor<1024xf32>) -> tensor<?x384x1024xf32>
    %1512 = crt.add %1511, %91 : (tensor<?x384x1024xf32>, tensor<1024xf32>) -> tensor<?x384x1024xf32>
    %1513 = crt.matmul %1512, %322 : (tensor<?x384x1024xf32>, tensor<1024x1024xf32>) -> tensor<?x384x1024xf32>
    %1514 = crt.add %1513, %96 : (tensor<?x384x1024xf32>, tensor<1024xf32>) -> tensor<?x384x1024xf32>
    %1515 = crt.matmul %1512, %323 : (tensor<?x384x1024xf32>, tensor<1024x1024xf32>) -> tensor<?x384x1024xf32>
    %1516 = crt.add %1515, %95 : (tensor<?x384x1024xf32>, tensor<1024xf32>) -> tensor<?x384x1024xf32>
    %1517 = crt.matmul %1512, %324 : (tensor<?x384x1024xf32>, tensor<1024x1024xf32>) -> tensor<?x384x1024xf32>
    %1518 = crt.add %1517, %97 : (tensor<?x384x1024xf32>, tensor<1024xf32>) -> tensor<?x384x1024xf32>
    %1519 = crt.dim %1514 : (tensor<?x384x1024xf32>) -> tensor<1xi64>
    %1520 = crt.constant : () -> tensor<1xi64>
    %1521 = crt.concat %1519, %1520, %205, %206 : (tensor<1xi64>, tensor<1xi64>, tensor<1xi64>, tensor<1xi64>) -> tensor<4xi64>
    %1522 = crt.reshape %1514, %1521 : (tensor<?x384x1024xf32>, tensor<4xi64>) -> tensor<?x384x16x64xf32>
    %1523 = crt.transpose %1522 : (tensor<?x384x16x64xf32>) -> tensor<?x16x384x64xf32>
    %1524 = crt.dim %1516 : (tensor<?x384x1024xf32>) -> tensor<1xi64>
    %1525 = crt.constant : () -> tensor<1xi64>
    %1526 = crt.concat %1524, %1525, %205, %206 : (tensor<1xi64>, tensor<1xi64>, tensor<1xi64>, tensor<1xi64>) -> tensor<4xi64>
    %1527 = crt.reshape %1516, %1526 : (tensor<?x384x1024xf32>, tensor<4xi64>) -> tensor<?x384x16x64xf32>
    %1528 = crt.dim %1518 : (tensor<?x384x1024xf32>) -> tensor<1xi64>
    %1529 = crt.constant : () -> tensor<1xi64>
    %1530 = crt.concat %1528, %1529, %205, %206 : (tensor<1xi64>, tensor<1xi64>, tensor<1xi64>, tensor<1xi64>) -> tensor<4xi64>
    %1531 = crt.reshape %1518, %1530 : (tensor<?x384x1024xf32>, tensor<4xi64>) -> tensor<?x384x16x64xf32>
    %1532 = crt.transpose %1531 : (tensor<?x384x16x64xf32>) -> tensor<?x16x384x64xf32>
    %1533 = crt.transpose %1527 : (tensor<?x384x16x64xf32>) -> tensor<?x16x64x384xf32>
    %1534 = crt.matmul %1523, %1533 : (tensor<?x16x384x64xf32>, tensor<?x16x64x384xf32>) -> tensor<?x16x384x384xf32>
    %1535 = crt.div %1534, %207 : (tensor<?x16x384x384xf32>, tensor<f32>) -> tensor<?x16x384x384xf32>
    %1536 = crt.add %1535, %366 : (tensor<?x16x384x384xf32>, tensor<?x1x1x384xf32>) -> tensor<?x16x384x384xf32>
    %1537 = crt.softmax %1536 : (tensor<?x16x384x384xf32>) -> tensor<?x16x384x384xf32>
    %1538 = crt.matmul %1537, %1532 : (tensor<?x16x384x384xf32>, tensor<?x16x384x64xf32>) -> tensor<?x16x384x64xf32>
    %1539 = crt.transpose %1538 : (tensor<?x16x384x64xf32>) -> tensor<?x384x16x64xf32>
    %1540 = crt.dim %1539 : (tensor<?x384x16x64xf32>) -> tensor<1xi64>
    %1541 = crt.constant : () -> tensor<1xi64>
    %1542 = crt.concat %1540, %1541, %208 : (tensor<1xi64>, tensor<1xi64>, tensor<1xi64>) -> tensor<3xi64>
    %1543 = crt.reshape %1539, %1542 : (tensor<?x384x16x64xf32>, tensor<3xi64>) -> tensor<?x384x1024xf32>
    %1544 = crt.matmul %1543, %325 : (tensor<?x384x1024xf32>, tensor<1024x1024xf32>) -> tensor<?x384x1024xf32>
    %1545 = crt.add %1544, %1511 : (tensor<?x384x1024xf32>, tensor<?x384x1024xf32>) -> tensor<?x384x1024xf32>
    %1546 = crt.constant : () -> tensor<1024xf32>
    %1547 = crt.add %1545, %1546 : (tensor<?x384x1024xf32>, tensor<1024xf32>) -> tensor<?x384x1024xf32>
    %1548 = crt.reducemean %1547 : (tensor<?x384x1024xf32>) -> tensor<?x384x1xf32>
    %1549 = crt.sub %1547, %1548 : (tensor<?x384x1024xf32>, tensor<?x384x1xf32>) -> tensor<?x384x1024xf32>
    %1550 = crt.pow %1549 : (tensor<?x384x1024xf32>) -> tensor<?x384x1024xf32>
    %1551 = crt.reducemean %1550 : (tensor<?x384x1024xf32>) -> tensor<?x384x1xf32>
    %1552 = crt.add %1551, %201 : (tensor<?x384x1xf32>, tensor<f32>) -> tensor<?x384x1xf32>
    %1553 = crt.sqrt %1552 : (tensor<?x384x1xf32>) -> tensor<?x384x1xf32>
    %1554 = crt.div %1549, %1553 : (tensor<?x384x1024xf32>, tensor<?x384x1xf32>) -> tensor<?x384x1024xf32>
    %1555 = crt.mul %1554, %94 : (tensor<?x384x1024xf32>, tensor<1024xf32>) -> tensor<?x384x1024xf32>
    %1556 = crt.add %1555, %93 : (tensor<?x384x1024xf32>, tensor<1024xf32>) -> tensor<?x384x1024xf32>
    %1557 = crt.matmul %1556, %326 : (tensor<?x384x1024xf32>, tensor<1024x4096xf32>) -> tensor<?x384x4096xf32>
    %1558 = crt.add %1557, %98 : (tensor<?x384x4096xf32>, tensor<4096xf32>) -> tensor<?x384x4096xf32>
    %1559 = crt.div %1558, %212 : (tensor<?x384x4096xf32>, tensor<f32>) -> tensor<?x384x4096xf32>
    %1560 = crt.erf %1559 : (tensor<?x384x4096xf32>) -> tensor<?x384x4096xf32>
    %1561 = crt.add %1560, %198 : (tensor<?x384x4096xf32>, tensor<f32>) -> tensor<?x384x4096xf32>
    %1562 = crt.mul %1558, %1561 : (tensor<?x384x4096xf32>, tensor<?x384x4096xf32>) -> tensor<?x384x4096xf32>
    %1563 = crt.mul %1562, %211 : (tensor<?x384x4096xf32>, tensor<f32>) -> tensor<?x384x4096xf32>
    %1564 = crt.matmul %1563, %327 : (tensor<?x384x4096xf32>, tensor<4096x1024xf32>) -> tensor<?x384x1024xf32>
    %1565 = crt.add %1564, %1555 : (tensor<?x384x1024xf32>, tensor<?x384x1024xf32>) -> tensor<?x384x1024xf32>
    %1566 = crt.constant : () -> tensor<1024xf32>
    %1567 = crt.add %1565, %1566 : (tensor<?x384x1024xf32>, tensor<1024xf32>) -> tensor<?x384x1024xf32>
    %1568 = crt.reducemean %1567 : (tensor<?x384x1024xf32>) -> tensor<?x384x1xf32>
    %1569 = crt.sub %1567, %1568 : (tensor<?x384x1024xf32>, tensor<?x384x1xf32>) -> tensor<?x384x1024xf32>
    %1570 = crt.pow %1569 : (tensor<?x384x1024xf32>) -> tensor<?x384x1024xf32>
    %1571 = crt.reducemean %1570 : (tensor<?x384x1024xf32>) -> tensor<?x384x1xf32>
    %1572 = crt.add %1571, %201 : (tensor<?x384x1xf32>, tensor<f32>) -> tensor<?x384x1xf32>
    %1573 = crt.sqrt %1572 : (tensor<?x384x1xf32>) -> tensor<?x384x1xf32>
    %1574 = crt.div %1569, %1573 : (tensor<?x384x1024xf32>, tensor<?x384x1xf32>) -> tensor<?x384x1024xf32>
    %1575 = crt.mul %1574, %100 : (tensor<?x384x1024xf32>, tensor<1024xf32>) -> tensor<?x384x1024xf32>
    %1576 = crt.add %1575, %99 : (tensor<?x384x1024xf32>, tensor<1024xf32>) -> tensor<?x384x1024xf32>
    %1577 = crt.matmul %1576, %328 : (tensor<?x384x1024xf32>, tensor<1024x1024xf32>) -> tensor<?x384x1024xf32>
    %1578 = crt.add %1577, %112 : (tensor<?x384x1024xf32>, tensor<1024xf32>) -> tensor<?x384x1024xf32>
    %1579 = crt.matmul %1576, %329 : (tensor<?x384x1024xf32>, tensor<1024x1024xf32>) -> tensor<?x384x1024xf32>
    %1580 = crt.add %1579, %111 : (tensor<?x384x1024xf32>, tensor<1024xf32>) -> tensor<?x384x1024xf32>
    %1581 = crt.matmul %1576, %330 : (tensor<?x384x1024xf32>, tensor<1024x1024xf32>) -> tensor<?x384x1024xf32>
    %1582 = crt.add %1581, %113 : (tensor<?x384x1024xf32>, tensor<1024xf32>) -> tensor<?x384x1024xf32>
    %1583 = crt.dim %1578 : (tensor<?x384x1024xf32>) -> tensor<1xi64>
    %1584 = crt.constant : () -> tensor<1xi64>
    %1585 = crt.concat %1583, %1584, %205, %206 : (tensor<1xi64>, tensor<1xi64>, tensor<1xi64>, tensor<1xi64>) -> tensor<4xi64>
    %1586 = crt.reshape %1578, %1585 : (tensor<?x384x1024xf32>, tensor<4xi64>) -> tensor<?x384x16x64xf32>
    %1587 = crt.transpose %1586 : (tensor<?x384x16x64xf32>) -> tensor<?x16x384x64xf32>
    %1588 = crt.dim %1580 : (tensor<?x384x1024xf32>) -> tensor<1xi64>
    %1589 = crt.constant : () -> tensor<1xi64>
    %1590 = crt.concat %1588, %1589, %205, %206 : (tensor<1xi64>, tensor<1xi64>, tensor<1xi64>, tensor<1xi64>) -> tensor<4xi64>
    %1591 = crt.reshape %1580, %1590 : (tensor<?x384x1024xf32>, tensor<4xi64>) -> tensor<?x384x16x64xf32>
    %1592 = crt.dim %1582 : (tensor<?x384x1024xf32>) -> tensor<1xi64>
    %1593 = crt.constant : () -> tensor<1xi64>
    %1594 = crt.concat %1592, %1593, %205, %206 : (tensor<1xi64>, tensor<1xi64>, tensor<1xi64>, tensor<1xi64>) -> tensor<4xi64>
    %1595 = crt.reshape %1582, %1594 : (tensor<?x384x1024xf32>, tensor<4xi64>) -> tensor<?x384x16x64xf32>
    %1596 = crt.transpose %1595 : (tensor<?x384x16x64xf32>) -> tensor<?x16x384x64xf32>
    %1597 = crt.transpose %1591 : (tensor<?x384x16x64xf32>) -> tensor<?x16x64x384xf32>
    %1598 = crt.matmul %1587, %1597 : (tensor<?x16x384x64xf32>, tensor<?x16x64x384xf32>) -> tensor<?x16x384x384xf32>
    %1599 = crt.div %1598, %207 : (tensor<?x16x384x384xf32>, tensor<f32>) -> tensor<?x16x384x384xf32>
    %1600 = crt.add %1599, %366 : (tensor<?x16x384x384xf32>, tensor<?x1x1x384xf32>) -> tensor<?x16x384x384xf32>
    %1601 = crt.softmax %1600 : (tensor<?x16x384x384xf32>) -> tensor<?x16x384x384xf32>
    %1602 = crt.matmul %1601, %1596 : (tensor<?x16x384x384xf32>, tensor<?x16x384x64xf32>) -> tensor<?x16x384x64xf32>
    %1603 = crt.transpose %1602 : (tensor<?x16x384x64xf32>) -> tensor<?x384x16x64xf32>
    %1604 = crt.dim %1603 : (tensor<?x384x16x64xf32>) -> tensor<1xi64>
    %1605 = crt.constant : () -> tensor<1xi64>
    %1606 = crt.concat %1604, %1605, %208 : (tensor<1xi64>, tensor<1xi64>, tensor<1xi64>) -> tensor<3xi64>
    %1607 = crt.reshape %1603, %1606 : (tensor<?x384x16x64xf32>, tensor<3xi64>) -> tensor<?x384x1024xf32>
    %1608 = crt.matmul %1607, %331 : (tensor<?x384x1024xf32>, tensor<1024x1024xf32>) -> tensor<?x384x1024xf32>
    %1609 = crt.add %1608, %1575 : (tensor<?x384x1024xf32>, tensor<?x384x1024xf32>) -> tensor<?x384x1024xf32>
    %1610 = crt.constant : () -> tensor<1024xf32>
    %1611 = crt.add %1609, %1610 : (tensor<?x384x1024xf32>, tensor<1024xf32>) -> tensor<?x384x1024xf32>
    %1612 = crt.reducemean %1611 : (tensor<?x384x1024xf32>) -> tensor<?x384x1xf32>
    %1613 = crt.sub %1611, %1612 : (tensor<?x384x1024xf32>, tensor<?x384x1xf32>) -> tensor<?x384x1024xf32>
    %1614 = crt.pow %1613 : (tensor<?x384x1024xf32>) -> tensor<?x384x1024xf32>
    %1615 = crt.reducemean %1614 : (tensor<?x384x1024xf32>) -> tensor<?x384x1xf32>
    %1616 = crt.add %1615, %201 : (tensor<?x384x1xf32>, tensor<f32>) -> tensor<?x384x1xf32>
    %1617 = crt.sqrt %1616 : (tensor<?x384x1xf32>) -> tensor<?x384x1xf32>
    %1618 = crt.div %1613, %1617 : (tensor<?x384x1024xf32>, tensor<?x384x1xf32>) -> tensor<?x384x1024xf32>
    %1619 = crt.mul %1618, %110 : (tensor<?x384x1024xf32>, tensor<1024xf32>) -> tensor<?x384x1024xf32>
    %1620 = crt.add %1619, %109 : (tensor<?x384x1024xf32>, tensor<1024xf32>) -> tensor<?x384x1024xf32>
    %1621 = crt.matmul %1620, %332 : (tensor<?x384x1024xf32>, tensor<1024x4096xf32>) -> tensor<?x384x4096xf32>
    %1622 = crt.add %1621, %114 : (tensor<?x384x4096xf32>, tensor<4096xf32>) -> tensor<?x384x4096xf32>
    %1623 = crt.div %1622, %212 : (tensor<?x384x4096xf32>, tensor<f32>) -> tensor<?x384x4096xf32>
    %1624 = crt.erf %1623 : (tensor<?x384x4096xf32>) -> tensor<?x384x4096xf32>
    %1625 = crt.add %1624, %198 : (tensor<?x384x4096xf32>, tensor<f32>) -> tensor<?x384x4096xf32>
    %1626 = crt.mul %1622, %1625 : (tensor<?x384x4096xf32>, tensor<?x384x4096xf32>) -> tensor<?x384x4096xf32>
    %1627 = crt.mul %1626, %211 : (tensor<?x384x4096xf32>, tensor<f32>) -> tensor<?x384x4096xf32>
    %1628 = crt.matmul %1627, %333 : (tensor<?x384x4096xf32>, tensor<4096x1024xf32>) -> tensor<?x384x1024xf32>
    %1629 = crt.add %1628, %1619 : (tensor<?x384x1024xf32>, tensor<?x384x1024xf32>) -> tensor<?x384x1024xf32>
    %1630 = crt.constant : () -> tensor<1024xf32>
    %1631 = crt.add %1629, %1630 : (tensor<?x384x1024xf32>, tensor<1024xf32>) -> tensor<?x384x1024xf32>
    %1632 = crt.reducemean %1631 : (tensor<?x384x1024xf32>) -> tensor<?x384x1xf32>
    %1633 = crt.sub %1631, %1632 : (tensor<?x384x1024xf32>, tensor<?x384x1xf32>) -> tensor<?x384x1024xf32>
    %1634 = crt.pow %1633 : (tensor<?x384x1024xf32>) -> tensor<?x384x1024xf32>
    %1635 = crt.reducemean %1634 : (tensor<?x384x1024xf32>) -> tensor<?x384x1xf32>
    %1636 = crt.add %1635, %201 : (tensor<?x384x1xf32>, tensor<f32>) -> tensor<?x384x1xf32>
    %1637 = crt.sqrt %1636 : (tensor<?x384x1xf32>) -> tensor<?x384x1xf32>
    %1638 = crt.div %1633, %1637 : (tensor<?x384x1024xf32>, tensor<?x384x1xf32>) -> tensor<?x384x1024xf32>
    %1639 = crt.mul %1638, %116 : (tensor<?x384x1024xf32>, tensor<1024xf32>) -> tensor<?x384x1024xf32>
    %1640 = crt.add %1639, %115 : (tensor<?x384x1024xf32>, tensor<1024xf32>) -> tensor<?x384x1024xf32>
    %1641 = crt.matmul %1640, %334 : (tensor<?x384x1024xf32>, tensor<1024x1024xf32>) -> tensor<?x384x1024xf32>
    %1642 = crt.add %1641, %120 : (tensor<?x384x1024xf32>, tensor<1024xf32>) -> tensor<?x384x1024xf32>
    %1643 = crt.matmul %1640, %335 : (tensor<?x384x1024xf32>, tensor<1024x1024xf32>) -> tensor<?x384x1024xf32>
    %1644 = crt.add %1643, %119 : (tensor<?x384x1024xf32>, tensor<1024xf32>) -> tensor<?x384x1024xf32>
    %1645 = crt.matmul %1640, %336 : (tensor<?x384x1024xf32>, tensor<1024x1024xf32>) -> tensor<?x384x1024xf32>
    %1646 = crt.add %1645, %121 : (tensor<?x384x1024xf32>, tensor<1024xf32>) -> tensor<?x384x1024xf32>
    %1647 = crt.dim %1642 : (tensor<?x384x1024xf32>) -> tensor<1xi64>
    %1648 = crt.constant : () -> tensor<1xi64>
    %1649 = crt.concat %1647, %1648, %205, %206 : (tensor<1xi64>, tensor<1xi64>, tensor<1xi64>, tensor<1xi64>) -> tensor<4xi64>
    %1650 = crt.reshape %1642, %1649 : (tensor<?x384x1024xf32>, tensor<4xi64>) -> tensor<?x384x16x64xf32>
    %1651 = crt.transpose %1650 : (tensor<?x384x16x64xf32>) -> tensor<?x16x384x64xf32>
    %1652 = crt.dim %1644 : (tensor<?x384x1024xf32>) -> tensor<1xi64>
    %1653 = crt.constant : () -> tensor<1xi64>
    %1654 = crt.concat %1652, %1653, %205, %206 : (tensor<1xi64>, tensor<1xi64>, tensor<1xi64>, tensor<1xi64>) -> tensor<4xi64>
    %1655 = crt.reshape %1644, %1654 : (tensor<?x384x1024xf32>, tensor<4xi64>) -> tensor<?x384x16x64xf32>
    %1656 = crt.dim %1646 : (tensor<?x384x1024xf32>) -> tensor<1xi64>
    %1657 = crt.constant : () -> tensor<1xi64>
    %1658 = crt.concat %1656, %1657, %205, %206 : (tensor<1xi64>, tensor<1xi64>, tensor<1xi64>, tensor<1xi64>) -> tensor<4xi64>
    %1659 = crt.reshape %1646, %1658 : (tensor<?x384x1024xf32>, tensor<4xi64>) -> tensor<?x384x16x64xf32>
    %1660 = crt.transpose %1659 : (tensor<?x384x16x64xf32>) -> tensor<?x16x384x64xf32>
    %1661 = crt.transpose %1655 : (tensor<?x384x16x64xf32>) -> tensor<?x16x64x384xf32>
    %1662 = crt.matmul %1651, %1661 : (tensor<?x16x384x64xf32>, tensor<?x16x64x384xf32>) -> tensor<?x16x384x384xf32>
    %1663 = crt.div %1662, %207 : (tensor<?x16x384x384xf32>, tensor<f32>) -> tensor<?x16x384x384xf32>
    %1664 = crt.add %1663, %366 : (tensor<?x16x384x384xf32>, tensor<?x1x1x384xf32>) -> tensor<?x16x384x384xf32>
    %1665 = crt.softmax %1664 : (tensor<?x16x384x384xf32>) -> tensor<?x16x384x384xf32>
    %1666 = crt.matmul %1665, %1660 : (tensor<?x16x384x384xf32>, tensor<?x16x384x64xf32>) -> tensor<?x16x384x64xf32>
    %1667 = crt.transpose %1666 : (tensor<?x16x384x64xf32>) -> tensor<?x384x16x64xf32>
    %1668 = crt.dim %1667 : (tensor<?x384x16x64xf32>) -> tensor<1xi64>
    %1669 = crt.constant : () -> tensor<1xi64>
    %1670 = crt.concat %1668, %1669, %208 : (tensor<1xi64>, tensor<1xi64>, tensor<1xi64>) -> tensor<3xi64>
    %1671 = crt.reshape %1667, %1670 : (tensor<?x384x16x64xf32>, tensor<3xi64>) -> tensor<?x384x1024xf32>
    %1672 = crt.matmul %1671, %337 : (tensor<?x384x1024xf32>, tensor<1024x1024xf32>) -> tensor<?x384x1024xf32>
    %1673 = crt.add %1672, %1639 : (tensor<?x384x1024xf32>, tensor<?x384x1024xf32>) -> tensor<?x384x1024xf32>
    %1674 = crt.constant : () -> tensor<1024xf32>
    %1675 = crt.add %1673, %1674 : (tensor<?x384x1024xf32>, tensor<1024xf32>) -> tensor<?x384x1024xf32>
    %1676 = crt.reducemean %1675 : (tensor<?x384x1024xf32>) -> tensor<?x384x1xf32>
    %1677 = crt.sub %1675, %1676 : (tensor<?x384x1024xf32>, tensor<?x384x1xf32>) -> tensor<?x384x1024xf32>
    %1678 = crt.pow %1677 : (tensor<?x384x1024xf32>) -> tensor<?x384x1024xf32>
    %1679 = crt.reducemean %1678 : (tensor<?x384x1024xf32>) -> tensor<?x384x1xf32>
    %1680 = crt.add %1679, %201 : (tensor<?x384x1xf32>, tensor<f32>) -> tensor<?x384x1xf32>
    %1681 = crt.sqrt %1680 : (tensor<?x384x1xf32>) -> tensor<?x384x1xf32>
    %1682 = crt.div %1677, %1681 : (tensor<?x384x1024xf32>, tensor<?x384x1xf32>) -> tensor<?x384x1024xf32>
    %1683 = crt.mul %1682, %118 : (tensor<?x384x1024xf32>, tensor<1024xf32>) -> tensor<?x384x1024xf32>
    %1684 = crt.add %1683, %117 : (tensor<?x384x1024xf32>, tensor<1024xf32>) -> tensor<?x384x1024xf32>
    %1685 = crt.matmul %1684, %338 : (tensor<?x384x1024xf32>, tensor<1024x4096xf32>) -> tensor<?x384x4096xf32>
    %1686 = crt.add %1685, %122 : (tensor<?x384x4096xf32>, tensor<4096xf32>) -> tensor<?x384x4096xf32>
    %1687 = crt.div %1686, %212 : (tensor<?x384x4096xf32>, tensor<f32>) -> tensor<?x384x4096xf32>
    %1688 = crt.erf %1687 : (tensor<?x384x4096xf32>) -> tensor<?x384x4096xf32>
    %1689 = crt.add %1688, %198 : (tensor<?x384x4096xf32>, tensor<f32>) -> tensor<?x384x4096xf32>
    %1690 = crt.mul %1686, %1689 : (tensor<?x384x4096xf32>, tensor<?x384x4096xf32>) -> tensor<?x384x4096xf32>
    %1691 = crt.mul %1690, %211 : (tensor<?x384x4096xf32>, tensor<f32>) -> tensor<?x384x4096xf32>
    %1692 = crt.matmul %1691, %339 : (tensor<?x384x4096xf32>, tensor<4096x1024xf32>) -> tensor<?x384x1024xf32>
    %1693 = crt.add %1692, %1683 : (tensor<?x384x1024xf32>, tensor<?x384x1024xf32>) -> tensor<?x384x1024xf32>
    %1694 = crt.constant : () -> tensor<1024xf32>
    %1695 = crt.add %1693, %1694 : (tensor<?x384x1024xf32>, tensor<1024xf32>) -> tensor<?x384x1024xf32>
    %1696 = crt.reducemean %1695 : (tensor<?x384x1024xf32>) -> tensor<?x384x1xf32>
    %1697 = crt.sub %1695, %1696 : (tensor<?x384x1024xf32>, tensor<?x384x1xf32>) -> tensor<?x384x1024xf32>
    %1698 = crt.pow %1697 : (tensor<?x384x1024xf32>) -> tensor<?x384x1024xf32>
    %1699 = crt.reducemean %1698 : (tensor<?x384x1024xf32>) -> tensor<?x384x1xf32>
    %1700 = crt.add %1699, %201 : (tensor<?x384x1xf32>, tensor<f32>) -> tensor<?x384x1xf32>
    %1701 = crt.sqrt %1700 : (tensor<?x384x1xf32>) -> tensor<?x384x1xf32>
    %1702 = crt.div %1697, %1701 : (tensor<?x384x1024xf32>, tensor<?x384x1xf32>) -> tensor<?x384x1024xf32>
    %1703 = crt.mul %1702, %124 : (tensor<?x384x1024xf32>, tensor<1024xf32>) -> tensor<?x384x1024xf32>
    %1704 = crt.add %1703, %123 : (tensor<?x384x1024xf32>, tensor<1024xf32>) -> tensor<?x384x1024xf32>
    %1705 = crt.matmul %1704, %340 : (tensor<?x384x1024xf32>, tensor<1024x1024xf32>) -> tensor<?x384x1024xf32>
    %1706 = crt.add %1705, %128 : (tensor<?x384x1024xf32>, tensor<1024xf32>) -> tensor<?x384x1024xf32>
    %1707 = crt.matmul %1704, %341 : (tensor<?x384x1024xf32>, tensor<1024x1024xf32>) -> tensor<?x384x1024xf32>
    %1708 = crt.add %1707, %127 : (tensor<?x384x1024xf32>, tensor<1024xf32>) -> tensor<?x384x1024xf32>
    %1709 = crt.matmul %1704, %342 : (tensor<?x384x1024xf32>, tensor<1024x1024xf32>) -> tensor<?x384x1024xf32>
    %1710 = crt.add %1709, %129 : (tensor<?x384x1024xf32>, tensor<1024xf32>) -> tensor<?x384x1024xf32>
    %1711 = crt.dim %1706 : (tensor<?x384x1024xf32>) -> tensor<1xi64>
    %1712 = crt.constant : () -> tensor<1xi64>
    %1713 = crt.concat %1711, %1712, %205, %206 : (tensor<1xi64>, tensor<1xi64>, tensor<1xi64>, tensor<1xi64>) -> tensor<4xi64>
    %1714 = crt.reshape %1706, %1713 : (tensor<?x384x1024xf32>, tensor<4xi64>) -> tensor<?x384x16x64xf32>
    %1715 = crt.transpose %1714 : (tensor<?x384x16x64xf32>) -> tensor<?x16x384x64xf32>
    %1716 = crt.dim %1708 : (tensor<?x384x1024xf32>) -> tensor<1xi64>
    %1717 = crt.constant : () -> tensor<1xi64>
    %1718 = crt.concat %1716, %1717, %205, %206 : (tensor<1xi64>, tensor<1xi64>, tensor<1xi64>, tensor<1xi64>) -> tensor<4xi64>
    %1719 = crt.reshape %1708, %1718 : (tensor<?x384x1024xf32>, tensor<4xi64>) -> tensor<?x384x16x64xf32>
    %1720 = crt.dim %1710 : (tensor<?x384x1024xf32>) -> tensor<1xi64>
    %1721 = crt.constant : () -> tensor<1xi64>
    %1722 = crt.concat %1720, %1721, %205, %206 : (tensor<1xi64>, tensor<1xi64>, tensor<1xi64>, tensor<1xi64>) -> tensor<4xi64>
    %1723 = crt.reshape %1710, %1722 : (tensor<?x384x1024xf32>, tensor<4xi64>) -> tensor<?x384x16x64xf32>
    %1724 = crt.transpose %1723 : (tensor<?x384x16x64xf32>) -> tensor<?x16x384x64xf32>
    %1725 = crt.transpose %1719 : (tensor<?x384x16x64xf32>) -> tensor<?x16x64x384xf32>
    %1726 = crt.matmul %1715, %1725 : (tensor<?x16x384x64xf32>, tensor<?x16x64x384xf32>) -> tensor<?x16x384x384xf32>
    %1727 = crt.div %1726, %207 : (tensor<?x16x384x384xf32>, tensor<f32>) -> tensor<?x16x384x384xf32>
    %1728 = crt.add %1727, %366 : (tensor<?x16x384x384xf32>, tensor<?x1x1x384xf32>) -> tensor<?x16x384x384xf32>
    %1729 = crt.softmax %1728 : (tensor<?x16x384x384xf32>) -> tensor<?x16x384x384xf32>
    %1730 = crt.matmul %1729, %1724 : (tensor<?x16x384x384xf32>, tensor<?x16x384x64xf32>) -> tensor<?x16x384x64xf32>
    %1731 = crt.transpose %1730 : (tensor<?x16x384x64xf32>) -> tensor<?x384x16x64xf32>
    %1732 = crt.dim %1731 : (tensor<?x384x16x64xf32>) -> tensor<1xi64>
    %1733 = crt.constant : () -> tensor<1xi64>
    %1734 = crt.concat %1732, %1733, %208 : (tensor<1xi64>, tensor<1xi64>, tensor<1xi64>) -> tensor<3xi64>
    %1735 = crt.reshape %1731, %1734 : (tensor<?x384x16x64xf32>, tensor<3xi64>) -> tensor<?x384x1024xf32>
    %1736 = crt.matmul %1735, %343 : (tensor<?x384x1024xf32>, tensor<1024x1024xf32>) -> tensor<?x384x1024xf32>
    %1737 = crt.add %1736, %1703 : (tensor<?x384x1024xf32>, tensor<?x384x1024xf32>) -> tensor<?x384x1024xf32>
    %1738 = crt.constant : () -> tensor<1024xf32>
    %1739 = crt.add %1737, %1738 : (tensor<?x384x1024xf32>, tensor<1024xf32>) -> tensor<?x384x1024xf32>
    %1740 = crt.reducemean %1739 : (tensor<?x384x1024xf32>) -> tensor<?x384x1xf32>
    %1741 = crt.sub %1739, %1740 : (tensor<?x384x1024xf32>, tensor<?x384x1xf32>) -> tensor<?x384x1024xf32>
    %1742 = crt.pow %1741 : (tensor<?x384x1024xf32>) -> tensor<?x384x1024xf32>
    %1743 = crt.reducemean %1742 : (tensor<?x384x1024xf32>) -> tensor<?x384x1xf32>
    %1744 = crt.add %1743, %201 : (tensor<?x384x1xf32>, tensor<f32>) -> tensor<?x384x1xf32>
    %1745 = crt.sqrt %1744 : (tensor<?x384x1xf32>) -> tensor<?x384x1xf32>
    %1746 = crt.div %1741, %1745 : (tensor<?x384x1024xf32>, tensor<?x384x1xf32>) -> tensor<?x384x1024xf32>
    %1747 = crt.mul %1746, %126 : (tensor<?x384x1024xf32>, tensor<1024xf32>) -> tensor<?x384x1024xf32>
    %1748 = crt.add %1747, %125 : (tensor<?x384x1024xf32>, tensor<1024xf32>) -> tensor<?x384x1024xf32>
    %1749 = crt.matmul %1748, %344 : (tensor<?x384x1024xf32>, tensor<1024x4096xf32>) -> tensor<?x384x4096xf32>
    %1750 = crt.add %1749, %130 : (tensor<?x384x4096xf32>, tensor<4096xf32>) -> tensor<?x384x4096xf32>
    %1751 = crt.div %1750, %212 : (tensor<?x384x4096xf32>, tensor<f32>) -> tensor<?x384x4096xf32>
    %1752 = crt.erf %1751 : (tensor<?x384x4096xf32>) -> tensor<?x384x4096xf32>
    %1753 = crt.add %1752, %198 : (tensor<?x384x4096xf32>, tensor<f32>) -> tensor<?x384x4096xf32>
    %1754 = crt.mul %1750, %1753 : (tensor<?x384x4096xf32>, tensor<?x384x4096xf32>) -> tensor<?x384x4096xf32>
    %1755 = crt.mul %1754, %211 : (tensor<?x384x4096xf32>, tensor<f32>) -> tensor<?x384x4096xf32>
    %1756 = crt.matmul %1755, %345 : (tensor<?x384x4096xf32>, tensor<4096x1024xf32>) -> tensor<?x384x1024xf32>
    %1757 = crt.add %1756, %1747 : (tensor<?x384x1024xf32>, tensor<?x384x1024xf32>) -> tensor<?x384x1024xf32>
    %1758 = crt.constant : () -> tensor<1024xf32>
    %1759 = crt.add %1757, %1758 : (tensor<?x384x1024xf32>, tensor<1024xf32>) -> tensor<?x384x1024xf32>
    %1760 = crt.reducemean %1759 : (tensor<?x384x1024xf32>) -> tensor<?x384x1xf32>
    %1761 = crt.sub %1759, %1760 : (tensor<?x384x1024xf32>, tensor<?x384x1xf32>) -> tensor<?x384x1024xf32>
    %1762 = crt.pow %1761 : (tensor<?x384x1024xf32>) -> tensor<?x384x1024xf32>
    %1763 = crt.reducemean %1762 : (tensor<?x384x1024xf32>) -> tensor<?x384x1xf32>
    %1764 = crt.add %1763, %201 : (tensor<?x384x1xf32>, tensor<f32>) -> tensor<?x384x1xf32>
    %1765 = crt.sqrt %1764 : (tensor<?x384x1xf32>) -> tensor<?x384x1xf32>
    %1766 = crt.div %1761, %1765 : (tensor<?x384x1024xf32>, tensor<?x384x1xf32>) -> tensor<?x384x1024xf32>
    %1767 = crt.mul %1766, %132 : (tensor<?x384x1024xf32>, tensor<1024xf32>) -> tensor<?x384x1024xf32>
    %1768 = crt.add %1767, %131 : (tensor<?x384x1024xf32>, tensor<1024xf32>) -> tensor<?x384x1024xf32>
    %1769 = crt.matmul %1768, %346 : (tensor<?x384x1024xf32>, tensor<1024x1024xf32>) -> tensor<?x384x1024xf32>
    %1770 = crt.add %1769, %136 : (tensor<?x384x1024xf32>, tensor<1024xf32>) -> tensor<?x384x1024xf32>
    %1771 = crt.matmul %1768, %347 : (tensor<?x384x1024xf32>, tensor<1024x1024xf32>) -> tensor<?x384x1024xf32>
    %1772 = crt.add %1771, %135 : (tensor<?x384x1024xf32>, tensor<1024xf32>) -> tensor<?x384x1024xf32>
    %1773 = crt.matmul %1768, %348 : (tensor<?x384x1024xf32>, tensor<1024x1024xf32>) -> tensor<?x384x1024xf32>
    %1774 = crt.add %1773, %137 : (tensor<?x384x1024xf32>, tensor<1024xf32>) -> tensor<?x384x1024xf32>
    %1775 = crt.dim %1770 : (tensor<?x384x1024xf32>) -> tensor<1xi64>
    %1776 = crt.constant : () -> tensor<1xi64>
    %1777 = crt.concat %1775, %1776, %205, %206 : (tensor<1xi64>, tensor<1xi64>, tensor<1xi64>, tensor<1xi64>) -> tensor<4xi64>
    %1778 = crt.reshape %1770, %1777 : (tensor<?x384x1024xf32>, tensor<4xi64>) -> tensor<?x384x16x64xf32>
    %1779 = crt.transpose %1778 : (tensor<?x384x16x64xf32>) -> tensor<?x16x384x64xf32>
    %1780 = crt.dim %1772 : (tensor<?x384x1024xf32>) -> tensor<1xi64>
    %1781 = crt.constant : () -> tensor<1xi64>
    %1782 = crt.concat %1780, %1781, %205, %206 : (tensor<1xi64>, tensor<1xi64>, tensor<1xi64>, tensor<1xi64>) -> tensor<4xi64>
    %1783 = crt.reshape %1772, %1782 : (tensor<?x384x1024xf32>, tensor<4xi64>) -> tensor<?x384x16x64xf32>
    %1784 = crt.dim %1774 : (tensor<?x384x1024xf32>) -> tensor<1xi64>
    %1785 = crt.constant : () -> tensor<1xi64>
    %1786 = crt.concat %1784, %1785, %205, %206 : (tensor<1xi64>, tensor<1xi64>, tensor<1xi64>, tensor<1xi64>) -> tensor<4xi64>
    %1787 = crt.reshape %1774, %1786 : (tensor<?x384x1024xf32>, tensor<4xi64>) -> tensor<?x384x16x64xf32>
    %1788 = crt.transpose %1787 : (tensor<?x384x16x64xf32>) -> tensor<?x16x384x64xf32>
    %1789 = crt.transpose %1783 : (tensor<?x384x16x64xf32>) -> tensor<?x16x64x384xf32>
    %1790 = crt.matmul %1779, %1789 : (tensor<?x16x384x64xf32>, tensor<?x16x64x384xf32>) -> tensor<?x16x384x384xf32>
    %1791 = crt.div %1790, %207 : (tensor<?x16x384x384xf32>, tensor<f32>) -> tensor<?x16x384x384xf32>
    %1792 = crt.add %1791, %366 : (tensor<?x16x384x384xf32>, tensor<?x1x1x384xf32>) -> tensor<?x16x384x384xf32>
    %1793 = crt.softmax %1792 : (tensor<?x16x384x384xf32>) -> tensor<?x16x384x384xf32>
    %1794 = crt.matmul %1793, %1788 : (tensor<?x16x384x384xf32>, tensor<?x16x384x64xf32>) -> tensor<?x16x384x64xf32>
    %1795 = crt.transpose %1794 : (tensor<?x16x384x64xf32>) -> tensor<?x384x16x64xf32>
    %1796 = crt.dim %1795 : (tensor<?x384x16x64xf32>) -> tensor<1xi64>
    %1797 = crt.constant : () -> tensor<1xi64>
    %1798 = crt.concat %1796, %1797, %208 : (tensor<1xi64>, tensor<1xi64>, tensor<1xi64>) -> tensor<3xi64>
    %1799 = crt.reshape %1795, %1798 : (tensor<?x384x16x64xf32>, tensor<3xi64>) -> tensor<?x384x1024xf32>
    %1800 = crt.matmul %1799, %349 : (tensor<?x384x1024xf32>, tensor<1024x1024xf32>) -> tensor<?x384x1024xf32>
    %1801 = crt.add %1800, %1767 : (tensor<?x384x1024xf32>, tensor<?x384x1024xf32>) -> tensor<?x384x1024xf32>
    %1802 = crt.constant : () -> tensor<1024xf32>
    %1803 = crt.add %1801, %1802 : (tensor<?x384x1024xf32>, tensor<1024xf32>) -> tensor<?x384x1024xf32>
    %1804 = crt.reducemean %1803 : (tensor<?x384x1024xf32>) -> tensor<?x384x1xf32>
    %1805 = crt.sub %1803, %1804 : (tensor<?x384x1024xf32>, tensor<?x384x1xf32>) -> tensor<?x384x1024xf32>
    %1806 = crt.pow %1805 : (tensor<?x384x1024xf32>) -> tensor<?x384x1024xf32>
    %1807 = crt.reducemean %1806 : (tensor<?x384x1024xf32>) -> tensor<?x384x1xf32>
    %1808 = crt.add %1807, %201 : (tensor<?x384x1xf32>, tensor<f32>) -> tensor<?x384x1xf32>
    %1809 = crt.sqrt %1808 : (tensor<?x384x1xf32>) -> tensor<?x384x1xf32>
    %1810 = crt.div %1805, %1809 : (tensor<?x384x1024xf32>, tensor<?x384x1xf32>) -> tensor<?x384x1024xf32>
    %1811 = crt.mul %1810, %134 : (tensor<?x384x1024xf32>, tensor<1024xf32>) -> tensor<?x384x1024xf32>
    %1812 = crt.add %1811, %133 : (tensor<?x384x1024xf32>, tensor<1024xf32>) -> tensor<?x384x1024xf32>
    %1813 = crt.matmul %1812, %350 : (tensor<?x384x1024xf32>, tensor<1024x4096xf32>) -> tensor<?x384x4096xf32>
    %1814 = crt.add %1813, %138 : (tensor<?x384x4096xf32>, tensor<4096xf32>) -> tensor<?x384x4096xf32>
    %1815 = crt.div %1814, %212 : (tensor<?x384x4096xf32>, tensor<f32>) -> tensor<?x384x4096xf32>
    %1816 = crt.erf %1815 : (tensor<?x384x4096xf32>) -> tensor<?x384x4096xf32>
    %1817 = crt.add %1816, %198 : (tensor<?x384x4096xf32>, tensor<f32>) -> tensor<?x384x4096xf32>
    %1818 = crt.mul %1814, %1817 : (tensor<?x384x4096xf32>, tensor<?x384x4096xf32>) -> tensor<?x384x4096xf32>
    %1819 = crt.mul %1818, %211 : (tensor<?x384x4096xf32>, tensor<f32>) -> tensor<?x384x4096xf32>
    %1820 = crt.matmul %1819, %351 : (tensor<?x384x4096xf32>, tensor<4096x1024xf32>) -> tensor<?x384x1024xf32>
    %1821 = crt.add %1820, %1811 : (tensor<?x384x1024xf32>, tensor<?x384x1024xf32>) -> tensor<?x384x1024xf32>
    %1822 = crt.constant : () -> tensor<1024xf32>
    %1823 = crt.add %1821, %1822 : (tensor<?x384x1024xf32>, tensor<1024xf32>) -> tensor<?x384x1024xf32>
    %1824 = crt.reducemean %1823 : (tensor<?x384x1024xf32>) -> tensor<?x384x1xf32>
    %1825 = crt.sub %1823, %1824 : (tensor<?x384x1024xf32>, tensor<?x384x1xf32>) -> tensor<?x384x1024xf32>
    %1826 = crt.pow %1825 : (tensor<?x384x1024xf32>) -> tensor<?x384x1024xf32>
    %1827 = crt.reducemean %1826 : (tensor<?x384x1024xf32>) -> tensor<?x384x1xf32>
    %1828 = crt.add %1827, %201 : (tensor<?x384x1xf32>, tensor<f32>) -> tensor<?x384x1xf32>
    %1829 = crt.sqrt %1828 : (tensor<?x384x1xf32>) -> tensor<?x384x1xf32>
    %1830 = crt.div %1825, %1829 : (tensor<?x384x1024xf32>, tensor<?x384x1xf32>) -> tensor<?x384x1024xf32>
    %1831 = crt.mul %1830, %140 : (tensor<?x384x1024xf32>, tensor<1024xf32>) -> tensor<?x384x1024xf32>
    %1832 = crt.add %1831, %139 : (tensor<?x384x1024xf32>, tensor<1024xf32>) -> tensor<?x384x1024xf32>
    %1833 = crt.matmul %1832, %352 : (tensor<?x384x1024xf32>, tensor<1024x2xf32>) -> tensor<?x384x2xf32>
    %1834 = crt.add %1833, %197 : (tensor<?x384x2xf32>, tensor<2xf32>) -> tensor<?x384x2xf32>
    %1835 = crt.constant : () -> tensor<2xi64>
    %1836:2 = crt.split %1834, %1835 : (tensor<?x384x2xf32>, tensor<2xi64>) -> (tensor<?x384x1xf32>, tensor<?x384x1xf32>)
    %1837 = crt.constant : () -> tensor<1xi64>
    %1838 = crt.squeeze %1836#0, %1837 : (tensor<?x384x1xf32>, tensor<1xi64>) -> tensor<?x384xf32>
    %1839 = crt.constant : () -> tensor<1xi64>
    %1840 = crt.squeeze %1836#1, %1839 : (tensor<?x384x1xf32>, tensor<1xi64>) -> tensor<?x384xf32>
    return %1838, %1840 : tensor<?x384xf32>, tensor<?x384xf32>
  }
  "onnx.EntryPoint"() {func = @main_graph} : () -> ()
}
