module attributes {llvm.data_layout = "e-m:e-p270:32:32-p271:32:32-p272:64:64-i64:64-f80:128-n8:16:32:64-S128", llvm.target_triple = "x86_64-unknown-linux-gnu"} {
  func.func @main_graph(%arg0: tensor<1x3x224x224xf32>) -> tensor<1x1000xf32> attributes {input_names = ["input"], output_names = ["output"]} {
    %0 = crt.constant : () -> tensor<32xf32>
    %1 = crt.constant : () -> tensor<32x128x3x3xf32>
    %2 = crt.constant : () -> tensor<32x128x3x3xf32>
    %3 = crt.constant : () -> tensor<32x128x3x3xf32>
    %4 = crt.constant : () -> tensor<32x128x3x3xf32>
    %5 = crt.constant : () -> tensor<32x128x3x3xf32>
    %6 = crt.constant : () -> tensor<32x128x3x3xf32>
    %7 = crt.constant : () -> tensor<128x256x1x1xf32>
    %8 = crt.constant : () -> tensor<32x128x3x3xf32>
    %9 = crt.constant : () -> tensor<32x128x3x3xf32>
    %10 = crt.constant : () -> tensor<32x128x3x3xf32>
    %11 = crt.constant : () -> tensor<32x128x3x3xf32>
    %12 = crt.constant : () -> tensor<32x128x3x3xf32>
    %13 = crt.constant : () -> tensor<32x128x3x3xf32>
    %14 = crt.constant : () -> tensor<32x128x3x3xf32>
    %15 = crt.constant : () -> tensor<32x128x3x3xf32>
    %16 = crt.constant : () -> tensor<32x128x3x3xf32>
    %17 = crt.constant : () -> tensor<32x128x3x3xf32>
    %18 = crt.constant : () -> tensor<32x128x3x3xf32>
    %19 = crt.constant : () -> tensor<32x128x3x3xf32>
    %20 = crt.constant : () -> tensor<256x512x1x1xf32>
    %21 = crt.constant : () -> tensor<32x128x3x3xf32>
    %22 = crt.constant : () -> tensor<32x128x3x3xf32>
    %23 = crt.constant : () -> tensor<32x128x3x3xf32>
    %24 = crt.constant : () -> tensor<32x128x3x3xf32>
    %25 = crt.constant : () -> tensor<32x128x3x3xf32>
    %26 = crt.constant : () -> tensor<32x128x3x3xf32>
    %27 = crt.constant : () -> tensor<32x128x3x3xf32>
    %28 = crt.constant : () -> tensor<32x128x3x3xf32>
    %29 = crt.constant : () -> tensor<32x128x3x3xf32>
    %30 = crt.constant : () -> tensor<32x128x3x3xf32>
    %31 = crt.constant : () -> tensor<32x128x3x3xf32>
    %32 = crt.constant : () -> tensor<32x128x3x3xf32>
    %33 = crt.constant : () -> tensor<32x128x3x3xf32>
    %34 = crt.constant : () -> tensor<32x128x3x3xf32>
    %35 = crt.constant : () -> tensor<32x128x3x3xf32>
    %36 = crt.constant : () -> tensor<32x128x3x3xf32>
    %37 = crt.constant : () -> tensor<32x128x3x3xf32>
    %38 = crt.constant : () -> tensor<32x128x3x3xf32>
    %39 = crt.constant : () -> tensor<32x128x3x3xf32>
    %40 = crt.constant : () -> tensor<32x128x3x3xf32>
    %41 = crt.constant : () -> tensor<32x128x3x3xf32>
    %42 = crt.constant : () -> tensor<32x128x3x3xf32>
    %43 = crt.constant : () -> tensor<32x128x3x3xf32>
    %44 = crt.constant : () -> tensor<32x128x3x3xf32>
    %45 = crt.constant : () -> tensor<512x1024x1x1xf32>
    %46 = crt.constant : () -> tensor<32x128x3x3xf32>
    %47 = crt.constant : () -> tensor<32x128x3x3xf32>
    %48 = crt.constant : () -> tensor<32x128x3x3xf32>
    %49 = crt.constant : () -> tensor<32x128x3x3xf32>
    %50 = crt.constant : () -> tensor<32x128x3x3xf32>
    %51 = crt.constant : () -> tensor<32x128x3x3xf32>
    %52 = crt.constant : () -> tensor<32x128x3x3xf32>
    %53 = crt.constant : () -> tensor<32x128x3x3xf32>
    %54 = crt.constant : () -> tensor<32x128x3x3xf32>
    %55 = crt.constant : () -> tensor<32x128x3x3xf32>
    %56 = crt.constant : () -> tensor<32x128x3x3xf32>
    %57 = crt.constant : () -> tensor<32x128x3x3xf32>
    %58 = crt.constant : () -> tensor<32x128x3x3xf32>
    %59 = crt.constant : () -> tensor<32x128x3x3xf32>
    %60 = crt.constant : () -> tensor<32x128x3x3xf32>
    %61 = crt.constant : () -> tensor<32x128x3x3xf32>
    %62 = crt.constant : () -> tensor<1000x1024xf32>
    %63 = crt.constant : () -> tensor<1000xf32>
    %64 = crt.constant : () -> tensor<64x3x7x7xf32>
    %65 = crt.constant : () -> tensor<64xf32>
    %66 = crt.constant : () -> tensor<128x64x1x1xf32>
    %67 = crt.constant : () -> tensor<128x96x1x1xf32>
    %68 = crt.constant : () -> tensor<128x128x1x1xf32>
    %69 = crt.constant : () -> tensor<128x160x1x1xf32>
    %70 = crt.constant : () -> tensor<128x192x1x1xf32>
    %71 = crt.constant : () -> tensor<128x224x1x1xf32>
    %72 = crt.constant : () -> tensor<128x128x1x1xf32>
    %73 = crt.constant : () -> tensor<128x160x1x1xf32>
    %74 = crt.constant : () -> tensor<128x192x1x1xf32>
    %75 = crt.constant : () -> tensor<128x224x1x1xf32>
    %76 = crt.constant : () -> tensor<128x256x1x1xf32>
    %77 = crt.constant : () -> tensor<128x288x1x1xf32>
    %78 = crt.constant : () -> tensor<128x320x1x1xf32>
    %79 = crt.constant : () -> tensor<128x352x1x1xf32>
    %80 = crt.constant : () -> tensor<128x384x1x1xf32>
    %81 = crt.constant : () -> tensor<128x416x1x1xf32>
    %82 = crt.constant : () -> tensor<128x448x1x1xf32>
    %83 = crt.constant : () -> tensor<128x480x1x1xf32>
    %84 = crt.constant : () -> tensor<128x256x1x1xf32>
    %85 = crt.constant : () -> tensor<128x288x1x1xf32>
    %86 = crt.constant : () -> tensor<128x320x1x1xf32>
    %87 = crt.constant : () -> tensor<128x352x1x1xf32>
    %88 = crt.constant : () -> tensor<128x384x1x1xf32>
    %89 = crt.constant : () -> tensor<128x416x1x1xf32>
    %90 = crt.constant : () -> tensor<128x448x1x1xf32>
    %91 = crt.constant : () -> tensor<128x480x1x1xf32>
    %92 = crt.constant : () -> tensor<128x512x1x1xf32>
    %93 = crt.constant : () -> tensor<128x544x1x1xf32>
    %94 = crt.constant : () -> tensor<128x576x1x1xf32>
    %95 = crt.constant : () -> tensor<128x608x1x1xf32>
    %96 = crt.constant : () -> tensor<128x640x1x1xf32>
    %97 = crt.constant : () -> tensor<128x672x1x1xf32>
    %98 = crt.constant : () -> tensor<128x704x1x1xf32>
    %99 = crt.constant : () -> tensor<128x736x1x1xf32>
    %100 = crt.constant : () -> tensor<128x768x1x1xf32>
    %101 = crt.constant : () -> tensor<128x800x1x1xf32>
    %102 = crt.constant : () -> tensor<128x832x1x1xf32>
    %103 = crt.constant : () -> tensor<128x864x1x1xf32>
    %104 = crt.constant : () -> tensor<128x896x1x1xf32>
    %105 = crt.constant : () -> tensor<128x928x1x1xf32>
    %106 = crt.constant : () -> tensor<128x960x1x1xf32>
    %107 = crt.constant : () -> tensor<128x992x1x1xf32>
    %108 = crt.constant : () -> tensor<128x512x1x1xf32>
    %109 = crt.constant : () -> tensor<128x544x1x1xf32>
    %110 = crt.constant : () -> tensor<128x576x1x1xf32>
    %111 = crt.constant : () -> tensor<128x608x1x1xf32>
    %112 = crt.constant : () -> tensor<128x640x1x1xf32>
    %113 = crt.constant : () -> tensor<128x672x1x1xf32>
    %114 = crt.constant : () -> tensor<128x704x1x1xf32>
    %115 = crt.constant : () -> tensor<128x736x1x1xf32>
    %116 = crt.constant : () -> tensor<128x768x1x1xf32>
    %117 = crt.constant : () -> tensor<128x800x1x1xf32>
    %118 = crt.constant : () -> tensor<128x832x1x1xf32>
    %119 = crt.constant : () -> tensor<128x864x1x1xf32>
    %120 = crt.constant : () -> tensor<128x896x1x1xf32>
    %121 = crt.constant : () -> tensor<128x928x1x1xf32>
    %122 = crt.constant : () -> tensor<128x960x1x1xf32>
    %123 = crt.constant : () -> tensor<128x992x1x1xf32>
    %124 = crt.convadd %arg0, %64, %65 : (tensor<1x3x224x224xf32>, tensor<64x3x7x7xf32>, tensor<64xf32>) -> tensor<1x64x112x112xf32>
    %125 = crt.relu %124 : (tensor<1x64x112x112xf32>) -> tensor<1x64x112x112xf32>
    %126 = crt.maxpool %125 : (tensor<1x64x112x112xf32>) -> tensor<1x64x56x56xf32>
    %127 = crt.concat %126 : (tensor<1x64x56x56xf32>) -> tensor<1x64x56x56xf32>
    %128 = crt.constant : () -> tensor<64x1x1xf32>
    %129 = crt.mul %127, %128 : (tensor<1x64x56x56xf32>, tensor<64x1x1xf32>) -> tensor<1x64x56x56xf32>
    %130 = crt.constant : () -> tensor<64x1x1xf32>
    %131 = crt.add %129, %130 : (tensor<1x64x56x56xf32>, tensor<64x1x1xf32>) -> tensor<1x64x56x56xf32>
    %132 = crt.relu %131 : (tensor<1x64x56x56xf32>) -> tensor<1x64x56x56xf32>
    %133 = crt.constant : () -> tensor<3xi64>
    %134 = crt.reshape %132, %133 : (tensor<1x64x56x56xf32>, tensor<3xi64>) -> tensor<1x64x3136xf32>
    %135 = crt.constant : () -> tensor<2xi64>
    %136 = crt.reshape %66, %135 : (tensor<128x64x1x1xf32>, tensor<2xi64>) -> tensor<128x64xf32>
    %137 = crt.matmul %136, %134 : (tensor<128x64xf32>, tensor<1x64x3136xf32>) -> tensor<1x128x3136xf32>
    %138 = crt.constant : () -> tensor<1x128x1xf32>
    %139 = crt.add %137, %138 : (tensor<1x128x3136xf32>, tensor<1x128x1xf32>) -> tensor<1x128x3136xf32>
    %140 = crt.constant : () -> tensor<4xi64>
    %141 = crt.reshape %139, %140 : (tensor<1x128x3136xf32>, tensor<4xi64>) -> tensor<1x128x56x56xf32>
    %142 = crt.relu %141 : (tensor<1x128x56x56xf32>) -> tensor<1x128x56x56xf32>
    %143 = "onnx.Conv"(%142, %1, %0) {auto_pad = "NOTSET", dilations = [1, 1], group = 1 : si64, kernel_shape = [3, 3], onnx_node_name = "Conv_8", pads = [1, 1, 1, 1], strides = [1, 1]} : (tensor<1x128x56x56xf32>, tensor<32x128x3x3xf32>, tensor<32xf32>) -> tensor<1x32x56x56xf32>
    %144 = crt.concat %126, %143 : (tensor<1x64x56x56xf32>, tensor<1x32x56x56xf32>) -> tensor<1x96x56x56xf32>
    %145 = crt.constant : () -> tensor<96x1x1xf32>
    %146 = crt.mul %144, %145 : (tensor<1x96x56x56xf32>, tensor<96x1x1xf32>) -> tensor<1x96x56x56xf32>
    %147 = crt.constant : () -> tensor<96x1x1xf32>
    %148 = crt.add %146, %147 : (tensor<1x96x56x56xf32>, tensor<96x1x1xf32>) -> tensor<1x96x56x56xf32>
    %149 = crt.relu %148 : (tensor<1x96x56x56xf32>) -> tensor<1x96x56x56xf32>
    %150 = crt.constant : () -> tensor<3xi64>
    %151 = crt.reshape %149, %150 : (tensor<1x96x56x56xf32>, tensor<3xi64>) -> tensor<1x96x3136xf32>
    %152 = crt.constant : () -> tensor<2xi64>
    %153 = crt.reshape %67, %152 : (tensor<128x96x1x1xf32>, tensor<2xi64>) -> tensor<128x96xf32>
    %154 = crt.matmul %153, %151 : (tensor<128x96xf32>, tensor<1x96x3136xf32>) -> tensor<1x128x3136xf32>
    %155 = crt.constant : () -> tensor<1x128x1xf32>
    %156 = crt.add %154, %155 : (tensor<1x128x3136xf32>, tensor<1x128x1xf32>) -> tensor<1x128x3136xf32>
    %157 = crt.constant : () -> tensor<4xi64>
    %158 = crt.reshape %156, %157 : (tensor<1x128x3136xf32>, tensor<4xi64>) -> tensor<1x128x56x56xf32>
    %159 = crt.relu %158 : (tensor<1x128x56x56xf32>) -> tensor<1x128x56x56xf32>
    %160 = "onnx.Conv"(%159, %2, %0) {auto_pad = "NOTSET", dilations = [1, 1], group = 1 : si64, kernel_shape = [3, 3], onnx_node_name = "Conv_14", pads = [1, 1, 1, 1], strides = [1, 1]} : (tensor<1x128x56x56xf32>, tensor<32x128x3x3xf32>, tensor<32xf32>) -> tensor<1x32x56x56xf32>
    %161 = crt.concat %126, %143, %160 : (tensor<1x64x56x56xf32>, tensor<1x32x56x56xf32>, tensor<1x32x56x56xf32>) -> tensor<1x128x56x56xf32>
    %162 = crt.constant : () -> tensor<128x1x1xf32>
    %163 = crt.mul %161, %162 : (tensor<1x128x56x56xf32>, tensor<128x1x1xf32>) -> tensor<1x128x56x56xf32>
    %164 = crt.constant : () -> tensor<128x1x1xf32>
    %165 = crt.add %163, %164 : (tensor<1x128x56x56xf32>, tensor<128x1x1xf32>) -> tensor<1x128x56x56xf32>
    %166 = crt.relu %165 : (tensor<1x128x56x56xf32>) -> tensor<1x128x56x56xf32>
    %167 = crt.constant : () -> tensor<3xi64>
    %168 = crt.reshape %166, %167 : (tensor<1x128x56x56xf32>, tensor<3xi64>) -> tensor<1x128x3136xf32>
    %169 = crt.constant : () -> tensor<2xi64>
    %170 = crt.reshape %68, %169 : (tensor<128x128x1x1xf32>, tensor<2xi64>) -> tensor<128x128xf32>
    %171 = crt.matmul %170, %168 : (tensor<128x128xf32>, tensor<1x128x3136xf32>) -> tensor<1x128x3136xf32>
    %172 = crt.constant : () -> tensor<1x128x1xf32>
    %173 = crt.add %171, %172 : (tensor<1x128x3136xf32>, tensor<1x128x1xf32>) -> tensor<1x128x3136xf32>
    %174 = crt.constant : () -> tensor<4xi64>
    %175 = crt.reshape %173, %174 : (tensor<1x128x3136xf32>, tensor<4xi64>) -> tensor<1x128x56x56xf32>
    %176 = crt.relu %175 : (tensor<1x128x56x56xf32>) -> tensor<1x128x56x56xf32>
    %177 = "onnx.Conv"(%176, %3, %0) {auto_pad = "NOTSET", dilations = [1, 1], group = 1 : si64, kernel_shape = [3, 3], onnx_node_name = "Conv_20", pads = [1, 1, 1, 1], strides = [1, 1]} : (tensor<1x128x56x56xf32>, tensor<32x128x3x3xf32>, tensor<32xf32>) -> tensor<1x32x56x56xf32>
    %178 = crt.concat %126, %143, %160, %177 : (tensor<1x64x56x56xf32>, tensor<1x32x56x56xf32>, tensor<1x32x56x56xf32>, tensor<1x32x56x56xf32>) -> tensor<1x160x56x56xf32>
    %179 = crt.constant : () -> tensor<160x1x1xf32>
    %180 = crt.mul %178, %179 : (tensor<1x160x56x56xf32>, tensor<160x1x1xf32>) -> tensor<1x160x56x56xf32>
    %181 = crt.constant : () -> tensor<160x1x1xf32>
    %182 = crt.add %180, %181 : (tensor<1x160x56x56xf32>, tensor<160x1x1xf32>) -> tensor<1x160x56x56xf32>
    %183 = crt.relu %182 : (tensor<1x160x56x56xf32>) -> tensor<1x160x56x56xf32>
    %184 = crt.constant : () -> tensor<3xi64>
    %185 = crt.reshape %183, %184 : (tensor<1x160x56x56xf32>, tensor<3xi64>) -> tensor<1x160x3136xf32>
    %186 = crt.constant : () -> tensor<2xi64>
    %187 = crt.reshape %69, %186 : (tensor<128x160x1x1xf32>, tensor<2xi64>) -> tensor<128x160xf32>
    %188 = crt.matmul %187, %185 : (tensor<128x160xf32>, tensor<1x160x3136xf32>) -> tensor<1x128x3136xf32>
    %189 = crt.constant : () -> tensor<1x128x1xf32>
    %190 = crt.add %188, %189 : (tensor<1x128x3136xf32>, tensor<1x128x1xf32>) -> tensor<1x128x3136xf32>
    %191 = crt.constant : () -> tensor<4xi64>
    %192 = crt.reshape %190, %191 : (tensor<1x128x3136xf32>, tensor<4xi64>) -> tensor<1x128x56x56xf32>
    %193 = crt.relu %192 : (tensor<1x128x56x56xf32>) -> tensor<1x128x56x56xf32>
    %194 = "onnx.Conv"(%193, %4, %0) {auto_pad = "NOTSET", dilations = [1, 1], group = 1 : si64, kernel_shape = [3, 3], onnx_node_name = "Conv_26", pads = [1, 1, 1, 1], strides = [1, 1]} : (tensor<1x128x56x56xf32>, tensor<32x128x3x3xf32>, tensor<32xf32>) -> tensor<1x32x56x56xf32>
    %195 = crt.concat %126, %143, %160, %177, %194 : (tensor<1x64x56x56xf32>, tensor<1x32x56x56xf32>, tensor<1x32x56x56xf32>, tensor<1x32x56x56xf32>, tensor<1x32x56x56xf32>) -> tensor<1x192x56x56xf32>
    %196 = crt.constant : () -> tensor<192x1x1xf32>
    %197 = crt.mul %195, %196 : (tensor<1x192x56x56xf32>, tensor<192x1x1xf32>) -> tensor<1x192x56x56xf32>
    %198 = crt.constant : () -> tensor<192x1x1xf32>
    %199 = crt.add %197, %198 : (tensor<1x192x56x56xf32>, tensor<192x1x1xf32>) -> tensor<1x192x56x56xf32>
    %200 = crt.relu %199 : (tensor<1x192x56x56xf32>) -> tensor<1x192x56x56xf32>
    %201 = crt.constant : () -> tensor<3xi64>
    %202 = crt.reshape %200, %201 : (tensor<1x192x56x56xf32>, tensor<3xi64>) -> tensor<1x192x3136xf32>
    %203 = crt.constant : () -> tensor<2xi64>
    %204 = crt.reshape %70, %203 : (tensor<128x192x1x1xf32>, tensor<2xi64>) -> tensor<128x192xf32>
    %205 = crt.matmul %204, %202 : (tensor<128x192xf32>, tensor<1x192x3136xf32>) -> tensor<1x128x3136xf32>
    %206 = crt.constant : () -> tensor<1x128x1xf32>
    %207 = crt.add %205, %206 : (tensor<1x128x3136xf32>, tensor<1x128x1xf32>) -> tensor<1x128x3136xf32>
    %208 = crt.constant : () -> tensor<4xi64>
    %209 = crt.reshape %207, %208 : (tensor<1x128x3136xf32>, tensor<4xi64>) -> tensor<1x128x56x56xf32>
    %210 = crt.relu %209 : (tensor<1x128x56x56xf32>) -> tensor<1x128x56x56xf32>
    %211 = "onnx.Conv"(%210, %5, %0) {auto_pad = "NOTSET", dilations = [1, 1], group = 1 : si64, kernel_shape = [3, 3], onnx_node_name = "Conv_32", pads = [1, 1, 1, 1], strides = [1, 1]} : (tensor<1x128x56x56xf32>, tensor<32x128x3x3xf32>, tensor<32xf32>) -> tensor<1x32x56x56xf32>
    %212 = crt.concat %126, %143, %160, %177, %194, %211 : (tensor<1x64x56x56xf32>, tensor<1x32x56x56xf32>, tensor<1x32x56x56xf32>, tensor<1x32x56x56xf32>, tensor<1x32x56x56xf32>, tensor<1x32x56x56xf32>) -> tensor<1x224x56x56xf32>
    %213 = crt.constant : () -> tensor<224x1x1xf32>
    %214 = crt.mul %212, %213 : (tensor<1x224x56x56xf32>, tensor<224x1x1xf32>) -> tensor<1x224x56x56xf32>
    %215 = crt.constant : () -> tensor<224x1x1xf32>
    %216 = crt.add %214, %215 : (tensor<1x224x56x56xf32>, tensor<224x1x1xf32>) -> tensor<1x224x56x56xf32>
    %217 = crt.relu %216 : (tensor<1x224x56x56xf32>) -> tensor<1x224x56x56xf32>
    %218 = crt.constant : () -> tensor<3xi64>
    %219 = crt.reshape %217, %218 : (tensor<1x224x56x56xf32>, tensor<3xi64>) -> tensor<1x224x3136xf32>
    %220 = crt.constant : () -> tensor<2xi64>
    %221 = crt.reshape %71, %220 : (tensor<128x224x1x1xf32>, tensor<2xi64>) -> tensor<128x224xf32>
    %222 = crt.matmul %221, %219 : (tensor<128x224xf32>, tensor<1x224x3136xf32>) -> tensor<1x128x3136xf32>
    %223 = crt.constant : () -> tensor<1x128x1xf32>
    %224 = crt.add %222, %223 : (tensor<1x128x3136xf32>, tensor<1x128x1xf32>) -> tensor<1x128x3136xf32>
    %225 = crt.constant : () -> tensor<4xi64>
    %226 = crt.reshape %224, %225 : (tensor<1x128x3136xf32>, tensor<4xi64>) -> tensor<1x128x56x56xf32>
    %227 = crt.relu %226 : (tensor<1x128x56x56xf32>) -> tensor<1x128x56x56xf32>
    %228 = "onnx.Conv"(%227, %6, %0) {auto_pad = "NOTSET", dilations = [1, 1], group = 1 : si64, kernel_shape = [3, 3], onnx_node_name = "Conv_38", pads = [1, 1, 1, 1], strides = [1, 1]} : (tensor<1x128x56x56xf32>, tensor<32x128x3x3xf32>, tensor<32xf32>) -> tensor<1x32x56x56xf32>
    %229 = crt.concat %126, %143, %160, %177, %194, %211, %228 : (tensor<1x64x56x56xf32>, tensor<1x32x56x56xf32>, tensor<1x32x56x56xf32>, tensor<1x32x56x56xf32>, tensor<1x32x56x56xf32>, tensor<1x32x56x56xf32>, tensor<1x32x56x56xf32>) -> tensor<1x256x56x56xf32>
    %230 = crt.constant : () -> tensor<256x1x1xf32>
    %231 = crt.mul %229, %230 : (tensor<1x256x56x56xf32>, tensor<256x1x1xf32>) -> tensor<1x256x56x56xf32>
    %232 = crt.constant : () -> tensor<256x1x1xf32>
    %233 = crt.add %231, %232 : (tensor<1x256x56x56xf32>, tensor<256x1x1xf32>) -> tensor<1x256x56x56xf32>
    %234 = crt.relu %233 : (tensor<1x256x56x56xf32>) -> tensor<1x256x56x56xf32>
    %235 = crt.constant : () -> tensor<3xi64>
    %236 = crt.reshape %234, %235 : (tensor<1x256x56x56xf32>, tensor<3xi64>) -> tensor<1x256x3136xf32>
    %237 = crt.constant : () -> tensor<2xi64>
    %238 = crt.reshape %7, %237 : (tensor<128x256x1x1xf32>, tensor<2xi64>) -> tensor<128x256xf32>
    %239 = crt.matmul %238, %236 : (tensor<128x256xf32>, tensor<1x256x3136xf32>) -> tensor<1x128x3136xf32>
    %240 = crt.constant : () -> tensor<4xi64>
    %241 = crt.reshape %239, %240 : (tensor<1x128x3136xf32>, tensor<4xi64>) -> tensor<1x128x56x56xf32>
    %242 = crt.avgpool %241 : (tensor<1x128x56x56xf32>) -> tensor<1x128x28x28xf32>
    %243 = crt.concat %242 : (tensor<1x128x28x28xf32>) -> tensor<1x128x28x28xf32>
    %244 = crt.constant : () -> tensor<128x1x1xf32>
    %245 = crt.mul %243, %244 : (tensor<1x128x28x28xf32>, tensor<128x1x1xf32>) -> tensor<1x128x28x28xf32>
    %246 = crt.constant : () -> tensor<128x1x1xf32>
    %247 = crt.add %245, %246 : (tensor<1x128x28x28xf32>, tensor<128x1x1xf32>) -> tensor<1x128x28x28xf32>
    %248 = crt.relu %247 : (tensor<1x128x28x28xf32>) -> tensor<1x128x28x28xf32>
    %249 = crt.constant : () -> tensor<3xi64>
    %250 = crt.reshape %248, %249 : (tensor<1x128x28x28xf32>, tensor<3xi64>) -> tensor<1x128x784xf32>
    %251 = crt.constant : () -> tensor<2xi64>
    %252 = crt.reshape %72, %251 : (tensor<128x128x1x1xf32>, tensor<2xi64>) -> tensor<128x128xf32>
    %253 = crt.matmul %252, %250 : (tensor<128x128xf32>, tensor<1x128x784xf32>) -> tensor<1x128x784xf32>
    %254 = crt.constant : () -> tensor<1x128x1xf32>
    %255 = crt.add %253, %254 : (tensor<1x128x784xf32>, tensor<1x128x1xf32>) -> tensor<1x128x784xf32>
    %256 = crt.constant : () -> tensor<4xi64>
    %257 = crt.reshape %255, %256 : (tensor<1x128x784xf32>, tensor<4xi64>) -> tensor<1x128x28x28xf32>
    %258 = crt.relu %257 : (tensor<1x128x28x28xf32>) -> tensor<1x128x28x28xf32>
    %259 = "onnx.Conv"(%258, %8, %0) {auto_pad = "NOTSET", dilations = [1, 1], group = 1 : si64, kernel_shape = [3, 3], onnx_node_name = "Conv_51", pads = [1, 1, 1, 1], strides = [1, 1]} : (tensor<1x128x28x28xf32>, tensor<32x128x3x3xf32>, tensor<32xf32>) -> tensor<1x32x28x28xf32>
    %260 = crt.concat %242, %259 : (tensor<1x128x28x28xf32>, tensor<1x32x28x28xf32>) -> tensor<1x160x28x28xf32>
    %261 = crt.constant : () -> tensor<160x1x1xf32>
    %262 = crt.mul %260, %261 : (tensor<1x160x28x28xf32>, tensor<160x1x1xf32>) -> tensor<1x160x28x28xf32>
    %263 = crt.constant : () -> tensor<160x1x1xf32>
    %264 = crt.add %262, %263 : (tensor<1x160x28x28xf32>, tensor<160x1x1xf32>) -> tensor<1x160x28x28xf32>
    %265 = crt.relu %264 : (tensor<1x160x28x28xf32>) -> tensor<1x160x28x28xf32>
    %266 = crt.constant : () -> tensor<3xi64>
    %267 = crt.reshape %265, %266 : (tensor<1x160x28x28xf32>, tensor<3xi64>) -> tensor<1x160x784xf32>
    %268 = crt.constant : () -> tensor<2xi64>
    %269 = crt.reshape %73, %268 : (tensor<128x160x1x1xf32>, tensor<2xi64>) -> tensor<128x160xf32>
    %270 = crt.matmul %269, %267 : (tensor<128x160xf32>, tensor<1x160x784xf32>) -> tensor<1x128x784xf32>
    %271 = crt.constant : () -> tensor<1x128x1xf32>
    %272 = crt.add %270, %271 : (tensor<1x128x784xf32>, tensor<1x128x1xf32>) -> tensor<1x128x784xf32>
    %273 = crt.constant : () -> tensor<4xi64>
    %274 = crt.reshape %272, %273 : (tensor<1x128x784xf32>, tensor<4xi64>) -> tensor<1x128x28x28xf32>
    %275 = crt.relu %274 : (tensor<1x128x28x28xf32>) -> tensor<1x128x28x28xf32>
    %276 = "onnx.Conv"(%275, %9, %0) {auto_pad = "NOTSET", dilations = [1, 1], group = 1 : si64, kernel_shape = [3, 3], onnx_node_name = "Conv_57", pads = [1, 1, 1, 1], strides = [1, 1]} : (tensor<1x128x28x28xf32>, tensor<32x128x3x3xf32>, tensor<32xf32>) -> tensor<1x32x28x28xf32>
    %277 = crt.concat %242, %259, %276 : (tensor<1x128x28x28xf32>, tensor<1x32x28x28xf32>, tensor<1x32x28x28xf32>) -> tensor<1x192x28x28xf32>
    %278 = crt.constant : () -> tensor<192x1x1xf32>
    %279 = crt.mul %277, %278 : (tensor<1x192x28x28xf32>, tensor<192x1x1xf32>) -> tensor<1x192x28x28xf32>
    %280 = crt.constant : () -> tensor<192x1x1xf32>
    %281 = crt.add %279, %280 : (tensor<1x192x28x28xf32>, tensor<192x1x1xf32>) -> tensor<1x192x28x28xf32>
    %282 = crt.relu %281 : (tensor<1x192x28x28xf32>) -> tensor<1x192x28x28xf32>
    %283 = crt.constant : () -> tensor<3xi64>
    %284 = crt.reshape %282, %283 : (tensor<1x192x28x28xf32>, tensor<3xi64>) -> tensor<1x192x784xf32>
    %285 = crt.constant : () -> tensor<2xi64>
    %286 = crt.reshape %74, %285 : (tensor<128x192x1x1xf32>, tensor<2xi64>) -> tensor<128x192xf32>
    %287 = crt.matmul %286, %284 : (tensor<128x192xf32>, tensor<1x192x784xf32>) -> tensor<1x128x784xf32>
    %288 = crt.constant : () -> tensor<1x128x1xf32>
    %289 = crt.add %287, %288 : (tensor<1x128x784xf32>, tensor<1x128x1xf32>) -> tensor<1x128x784xf32>
    %290 = crt.constant : () -> tensor<4xi64>
    %291 = crt.reshape %289, %290 : (tensor<1x128x784xf32>, tensor<4xi64>) -> tensor<1x128x28x28xf32>
    %292 = crt.relu %291 : (tensor<1x128x28x28xf32>) -> tensor<1x128x28x28xf32>
    %293 = "onnx.Conv"(%292, %10, %0) {auto_pad = "NOTSET", dilations = [1, 1], group = 1 : si64, kernel_shape = [3, 3], onnx_node_name = "Conv_63", pads = [1, 1, 1, 1], strides = [1, 1]} : (tensor<1x128x28x28xf32>, tensor<32x128x3x3xf32>, tensor<32xf32>) -> tensor<1x32x28x28xf32>
    %294 = crt.concat %242, %259, %276, %293 : (tensor<1x128x28x28xf32>, tensor<1x32x28x28xf32>, tensor<1x32x28x28xf32>, tensor<1x32x28x28xf32>) -> tensor<1x224x28x28xf32>
    %295 = crt.constant : () -> tensor<224x1x1xf32>
    %296 = crt.mul %294, %295 : (tensor<1x224x28x28xf32>, tensor<224x1x1xf32>) -> tensor<1x224x28x28xf32>
    %297 = crt.constant : () -> tensor<224x1x1xf32>
    %298 = crt.add %296, %297 : (tensor<1x224x28x28xf32>, tensor<224x1x1xf32>) -> tensor<1x224x28x28xf32>
    %299 = crt.relu %298 : (tensor<1x224x28x28xf32>) -> tensor<1x224x28x28xf32>
    %300 = crt.constant : () -> tensor<3xi64>
    %301 = crt.reshape %299, %300 : (tensor<1x224x28x28xf32>, tensor<3xi64>) -> tensor<1x224x784xf32>
    %302 = crt.constant : () -> tensor<2xi64>
    %303 = crt.reshape %75, %302 : (tensor<128x224x1x1xf32>, tensor<2xi64>) -> tensor<128x224xf32>
    %304 = crt.matmul %303, %301 : (tensor<128x224xf32>, tensor<1x224x784xf32>) -> tensor<1x128x784xf32>
    %305 = crt.constant : () -> tensor<1x128x1xf32>
    %306 = crt.add %304, %305 : (tensor<1x128x784xf32>, tensor<1x128x1xf32>) -> tensor<1x128x784xf32>
    %307 = crt.constant : () -> tensor<4xi64>
    %308 = crt.reshape %306, %307 : (tensor<1x128x784xf32>, tensor<4xi64>) -> tensor<1x128x28x28xf32>
    %309 = crt.relu %308 : (tensor<1x128x28x28xf32>) -> tensor<1x128x28x28xf32>
    %310 = "onnx.Conv"(%309, %11, %0) {auto_pad = "NOTSET", dilations = [1, 1], group = 1 : si64, kernel_shape = [3, 3], onnx_node_name = "Conv_69", pads = [1, 1, 1, 1], strides = [1, 1]} : (tensor<1x128x28x28xf32>, tensor<32x128x3x3xf32>, tensor<32xf32>) -> tensor<1x32x28x28xf32>
    %311 = crt.concat %242, %259, %276, %293, %310 : (tensor<1x128x28x28xf32>, tensor<1x32x28x28xf32>, tensor<1x32x28x28xf32>, tensor<1x32x28x28xf32>, tensor<1x32x28x28xf32>) -> tensor<1x256x28x28xf32>
    %312 = crt.constant : () -> tensor<256x1x1xf32>
    %313 = crt.mul %311, %312 : (tensor<1x256x28x28xf32>, tensor<256x1x1xf32>) -> tensor<1x256x28x28xf32>
    %314 = crt.constant : () -> tensor<256x1x1xf32>
    %315 = crt.add %313, %314 : (tensor<1x256x28x28xf32>, tensor<256x1x1xf32>) -> tensor<1x256x28x28xf32>
    %316 = crt.relu %315 : (tensor<1x256x28x28xf32>) -> tensor<1x256x28x28xf32>
    %317 = crt.constant : () -> tensor<3xi64>
    %318 = crt.reshape %316, %317 : (tensor<1x256x28x28xf32>, tensor<3xi64>) -> tensor<1x256x784xf32>
    %319 = crt.constant : () -> tensor<2xi64>
    %320 = crt.reshape %76, %319 : (tensor<128x256x1x1xf32>, tensor<2xi64>) -> tensor<128x256xf32>
    %321 = crt.matmul %320, %318 : (tensor<128x256xf32>, tensor<1x256x784xf32>) -> tensor<1x128x784xf32>
    %322 = crt.constant : () -> tensor<1x128x1xf32>
    %323 = crt.add %321, %322 : (tensor<1x128x784xf32>, tensor<1x128x1xf32>) -> tensor<1x128x784xf32>
    %324 = crt.constant : () -> tensor<4xi64>
    %325 = crt.reshape %323, %324 : (tensor<1x128x784xf32>, tensor<4xi64>) -> tensor<1x128x28x28xf32>
    %326 = crt.relu %325 : (tensor<1x128x28x28xf32>) -> tensor<1x128x28x28xf32>
    %327 = "onnx.Conv"(%326, %12, %0) {auto_pad = "NOTSET", dilations = [1, 1], group = 1 : si64, kernel_shape = [3, 3], onnx_node_name = "Conv_75", pads = [1, 1, 1, 1], strides = [1, 1]} : (tensor<1x128x28x28xf32>, tensor<32x128x3x3xf32>, tensor<32xf32>) -> tensor<1x32x28x28xf32>
    %328 = crt.concat %242, %259, %276, %293, %310, %327 : (tensor<1x128x28x28xf32>, tensor<1x32x28x28xf32>, tensor<1x32x28x28xf32>, tensor<1x32x28x28xf32>, tensor<1x32x28x28xf32>, tensor<1x32x28x28xf32>) -> tensor<1x288x28x28xf32>
    %329 = crt.constant : () -> tensor<288x1x1xf32>
    %330 = crt.mul %328, %329 : (tensor<1x288x28x28xf32>, tensor<288x1x1xf32>) -> tensor<1x288x28x28xf32>
    %331 = crt.constant : () -> tensor<288x1x1xf32>
    %332 = crt.add %330, %331 : (tensor<1x288x28x28xf32>, tensor<288x1x1xf32>) -> tensor<1x288x28x28xf32>
    %333 = crt.relu %332 : (tensor<1x288x28x28xf32>) -> tensor<1x288x28x28xf32>
    %334 = crt.constant : () -> tensor<3xi64>
    %335 = crt.reshape %333, %334 : (tensor<1x288x28x28xf32>, tensor<3xi64>) -> tensor<1x288x784xf32>
    %336 = crt.constant : () -> tensor<2xi64>
    %337 = crt.reshape %77, %336 : (tensor<128x288x1x1xf32>, tensor<2xi64>) -> tensor<128x288xf32>
    %338 = crt.matmul %337, %335 : (tensor<128x288xf32>, tensor<1x288x784xf32>) -> tensor<1x128x784xf32>
    %339 = crt.constant : () -> tensor<1x128x1xf32>
    %340 = crt.add %338, %339 : (tensor<1x128x784xf32>, tensor<1x128x1xf32>) -> tensor<1x128x784xf32>
    %341 = crt.constant : () -> tensor<4xi64>
    %342 = crt.reshape %340, %341 : (tensor<1x128x784xf32>, tensor<4xi64>) -> tensor<1x128x28x28xf32>
    %343 = crt.relu %342 : (tensor<1x128x28x28xf32>) -> tensor<1x128x28x28xf32>
    %344 = "onnx.Conv"(%343, %13, %0) {auto_pad = "NOTSET", dilations = [1, 1], group = 1 : si64, kernel_shape = [3, 3], onnx_node_name = "Conv_81", pads = [1, 1, 1, 1], strides = [1, 1]} : (tensor<1x128x28x28xf32>, tensor<32x128x3x3xf32>, tensor<32xf32>) -> tensor<1x32x28x28xf32>
    %345 = crt.concat %242, %259, %276, %293, %310, %327, %344 : (tensor<1x128x28x28xf32>, tensor<1x32x28x28xf32>, tensor<1x32x28x28xf32>, tensor<1x32x28x28xf32>, tensor<1x32x28x28xf32>, tensor<1x32x28x28xf32>, tensor<1x32x28x28xf32>) -> tensor<1x320x28x28xf32>
    %346 = crt.constant : () -> tensor<320x1x1xf32>
    %347 = crt.mul %345, %346 : (tensor<1x320x28x28xf32>, tensor<320x1x1xf32>) -> tensor<1x320x28x28xf32>
    %348 = crt.constant : () -> tensor<320x1x1xf32>
    %349 = crt.add %347, %348 : (tensor<1x320x28x28xf32>, tensor<320x1x1xf32>) -> tensor<1x320x28x28xf32>
    %350 = crt.relu %349 : (tensor<1x320x28x28xf32>) -> tensor<1x320x28x28xf32>
    %351 = crt.constant : () -> tensor<3xi64>
    %352 = crt.reshape %350, %351 : (tensor<1x320x28x28xf32>, tensor<3xi64>) -> tensor<1x320x784xf32>
    %353 = crt.constant : () -> tensor<2xi64>
    %354 = crt.reshape %78, %353 : (tensor<128x320x1x1xf32>, tensor<2xi64>) -> tensor<128x320xf32>
    %355 = crt.matmul %354, %352 : (tensor<128x320xf32>, tensor<1x320x784xf32>) -> tensor<1x128x784xf32>
    %356 = crt.constant : () -> tensor<1x128x1xf32>
    %357 = crt.add %355, %356 : (tensor<1x128x784xf32>, tensor<1x128x1xf32>) -> tensor<1x128x784xf32>
    %358 = crt.constant : () -> tensor<4xi64>
    %359 = crt.reshape %357, %358 : (tensor<1x128x784xf32>, tensor<4xi64>) -> tensor<1x128x28x28xf32>
    %360 = crt.relu %359 : (tensor<1x128x28x28xf32>) -> tensor<1x128x28x28xf32>
    %361 = "onnx.Conv"(%360, %14, %0) {auto_pad = "NOTSET", dilations = [1, 1], group = 1 : si64, kernel_shape = [3, 3], onnx_node_name = "Conv_87", pads = [1, 1, 1, 1], strides = [1, 1]} : (tensor<1x128x28x28xf32>, tensor<32x128x3x3xf32>, tensor<32xf32>) -> tensor<1x32x28x28xf32>
    %362 = crt.concat %242, %259, %276, %293, %310, %327, %344, %361 : (tensor<1x128x28x28xf32>, tensor<1x32x28x28xf32>, tensor<1x32x28x28xf32>, tensor<1x32x28x28xf32>, tensor<1x32x28x28xf32>, tensor<1x32x28x28xf32>, tensor<1x32x28x28xf32>, tensor<1x32x28x28xf32>) -> tensor<1x352x28x28xf32>
    %363 = crt.constant : () -> tensor<352x1x1xf32>
    %364 = crt.mul %362, %363 : (tensor<1x352x28x28xf32>, tensor<352x1x1xf32>) -> tensor<1x352x28x28xf32>
    %365 = crt.constant : () -> tensor<352x1x1xf32>
    %366 = crt.add %364, %365 : (tensor<1x352x28x28xf32>, tensor<352x1x1xf32>) -> tensor<1x352x28x28xf32>
    %367 = crt.relu %366 : (tensor<1x352x28x28xf32>) -> tensor<1x352x28x28xf32>
    %368 = crt.constant : () -> tensor<3xi64>
    %369 = crt.reshape %367, %368 : (tensor<1x352x28x28xf32>, tensor<3xi64>) -> tensor<1x352x784xf32>
    %370 = crt.constant : () -> tensor<2xi64>
    %371 = crt.reshape %79, %370 : (tensor<128x352x1x1xf32>, tensor<2xi64>) -> tensor<128x352xf32>
    %372 = crt.matmul %371, %369 : (tensor<128x352xf32>, tensor<1x352x784xf32>) -> tensor<1x128x784xf32>
    %373 = crt.constant : () -> tensor<1x128x1xf32>
    %374 = crt.add %372, %373 : (tensor<1x128x784xf32>, tensor<1x128x1xf32>) -> tensor<1x128x784xf32>
    %375 = crt.constant : () -> tensor<4xi64>
    %376 = crt.reshape %374, %375 : (tensor<1x128x784xf32>, tensor<4xi64>) -> tensor<1x128x28x28xf32>
    %377 = crt.relu %376 : (tensor<1x128x28x28xf32>) -> tensor<1x128x28x28xf32>
    %378 = "onnx.Conv"(%377, %15, %0) {auto_pad = "NOTSET", dilations = [1, 1], group = 1 : si64, kernel_shape = [3, 3], onnx_node_name = "Conv_93", pads = [1, 1, 1, 1], strides = [1, 1]} : (tensor<1x128x28x28xf32>, tensor<32x128x3x3xf32>, tensor<32xf32>) -> tensor<1x32x28x28xf32>
    %379 = crt.concat %242, %259, %276, %293, %310, %327, %344, %361, %378 : (tensor<1x128x28x28xf32>, tensor<1x32x28x28xf32>, tensor<1x32x28x28xf32>, tensor<1x32x28x28xf32>, tensor<1x32x28x28xf32>, tensor<1x32x28x28xf32>, tensor<1x32x28x28xf32>, tensor<1x32x28x28xf32>, tensor<1x32x28x28xf32>) -> tensor<1x384x28x28xf32>
    %380 = crt.constant : () -> tensor<384x1x1xf32>
    %381 = crt.mul %379, %380 : (tensor<1x384x28x28xf32>, tensor<384x1x1xf32>) -> tensor<1x384x28x28xf32>
    %382 = crt.constant : () -> tensor<384x1x1xf32>
    %383 = crt.add %381, %382 : (tensor<1x384x28x28xf32>, tensor<384x1x1xf32>) -> tensor<1x384x28x28xf32>
    %384 = crt.relu %383 : (tensor<1x384x28x28xf32>) -> tensor<1x384x28x28xf32>
    %385 = crt.constant : () -> tensor<3xi64>
    %386 = crt.reshape %384, %385 : (tensor<1x384x28x28xf32>, tensor<3xi64>) -> tensor<1x384x784xf32>
    %387 = crt.constant : () -> tensor<2xi64>
    %388 = crt.reshape %80, %387 : (tensor<128x384x1x1xf32>, tensor<2xi64>) -> tensor<128x384xf32>
    %389 = crt.matmul %388, %386 : (tensor<128x384xf32>, tensor<1x384x784xf32>) -> tensor<1x128x784xf32>
    %390 = crt.constant : () -> tensor<1x128x1xf32>
    %391 = crt.add %389, %390 : (tensor<1x128x784xf32>, tensor<1x128x1xf32>) -> tensor<1x128x784xf32>
    %392 = crt.constant : () -> tensor<4xi64>
    %393 = crt.reshape %391, %392 : (tensor<1x128x784xf32>, tensor<4xi64>) -> tensor<1x128x28x28xf32>
    %394 = crt.relu %393 : (tensor<1x128x28x28xf32>) -> tensor<1x128x28x28xf32>
    %395 = "onnx.Conv"(%394, %16, %0) {auto_pad = "NOTSET", dilations = [1, 1], group = 1 : si64, kernel_shape = [3, 3], onnx_node_name = "Conv_99", pads = [1, 1, 1, 1], strides = [1, 1]} : (tensor<1x128x28x28xf32>, tensor<32x128x3x3xf32>, tensor<32xf32>) -> tensor<1x32x28x28xf32>
    %396 = crt.concat %242, %259, %276, %293, %310, %327, %344, %361, %378, %395 : (tensor<1x128x28x28xf32>, tensor<1x32x28x28xf32>, tensor<1x32x28x28xf32>, tensor<1x32x28x28xf32>, tensor<1x32x28x28xf32>, tensor<1x32x28x28xf32>, tensor<1x32x28x28xf32>, tensor<1x32x28x28xf32>, tensor<1x32x28x28xf32>, tensor<1x32x28x28xf32>) -> tensor<1x416x28x28xf32>
    %397 = crt.constant : () -> tensor<416x1x1xf32>
    %398 = crt.mul %396, %397 : (tensor<1x416x28x28xf32>, tensor<416x1x1xf32>) -> tensor<1x416x28x28xf32>
    %399 = crt.constant : () -> tensor<416x1x1xf32>
    %400 = crt.add %398, %399 : (tensor<1x416x28x28xf32>, tensor<416x1x1xf32>) -> tensor<1x416x28x28xf32>
    %401 = crt.relu %400 : (tensor<1x416x28x28xf32>) -> tensor<1x416x28x28xf32>
    %402 = crt.constant : () -> tensor<3xi64>
    %403 = crt.reshape %401, %402 : (tensor<1x416x28x28xf32>, tensor<3xi64>) -> tensor<1x416x784xf32>
    %404 = crt.constant : () -> tensor<2xi64>
    %405 = crt.reshape %81, %404 : (tensor<128x416x1x1xf32>, tensor<2xi64>) -> tensor<128x416xf32>
    %406 = crt.matmul %405, %403 : (tensor<128x416xf32>, tensor<1x416x784xf32>) -> tensor<1x128x784xf32>
    %407 = crt.constant : () -> tensor<1x128x1xf32>
    %408 = crt.add %406, %407 : (tensor<1x128x784xf32>, tensor<1x128x1xf32>) -> tensor<1x128x784xf32>
    %409 = crt.constant : () -> tensor<4xi64>
    %410 = crt.reshape %408, %409 : (tensor<1x128x784xf32>, tensor<4xi64>) -> tensor<1x128x28x28xf32>
    %411 = crt.relu %410 : (tensor<1x128x28x28xf32>) -> tensor<1x128x28x28xf32>
    %412 = "onnx.Conv"(%411, %17, %0) {auto_pad = "NOTSET", dilations = [1, 1], group = 1 : si64, kernel_shape = [3, 3], onnx_node_name = "Conv_105", pads = [1, 1, 1, 1], strides = [1, 1]} : (tensor<1x128x28x28xf32>, tensor<32x128x3x3xf32>, tensor<32xf32>) -> tensor<1x32x28x28xf32>
    %413 = crt.concat %242, %259, %276, %293, %310, %327, %344, %361, %378, %395, %412 : (tensor<1x128x28x28xf32>, tensor<1x32x28x28xf32>, tensor<1x32x28x28xf32>, tensor<1x32x28x28xf32>, tensor<1x32x28x28xf32>, tensor<1x32x28x28xf32>, tensor<1x32x28x28xf32>, tensor<1x32x28x28xf32>, tensor<1x32x28x28xf32>, tensor<1x32x28x28xf32>, tensor<1x32x28x28xf32>) -> tensor<1x448x28x28xf32>
    %414 = crt.constant : () -> tensor<448x1x1xf32>
    %415 = crt.mul %413, %414 : (tensor<1x448x28x28xf32>, tensor<448x1x1xf32>) -> tensor<1x448x28x28xf32>
    %416 = crt.constant : () -> tensor<448x1x1xf32>
    %417 = crt.add %415, %416 : (tensor<1x448x28x28xf32>, tensor<448x1x1xf32>) -> tensor<1x448x28x28xf32>
    %418 = crt.relu %417 : (tensor<1x448x28x28xf32>) -> tensor<1x448x28x28xf32>
    %419 = crt.constant : () -> tensor<3xi64>
    %420 = crt.reshape %418, %419 : (tensor<1x448x28x28xf32>, tensor<3xi64>) -> tensor<1x448x784xf32>
    %421 = crt.constant : () -> tensor<2xi64>
    %422 = crt.reshape %82, %421 : (tensor<128x448x1x1xf32>, tensor<2xi64>) -> tensor<128x448xf32>
    %423 = crt.matmul %422, %420 : (tensor<128x448xf32>, tensor<1x448x784xf32>) -> tensor<1x128x784xf32>
    %424 = crt.constant : () -> tensor<1x128x1xf32>
    %425 = crt.add %423, %424 : (tensor<1x128x784xf32>, tensor<1x128x1xf32>) -> tensor<1x128x784xf32>
    %426 = crt.constant : () -> tensor<4xi64>
    %427 = crt.reshape %425, %426 : (tensor<1x128x784xf32>, tensor<4xi64>) -> tensor<1x128x28x28xf32>
    %428 = crt.relu %427 : (tensor<1x128x28x28xf32>) -> tensor<1x128x28x28xf32>
    %429 = "onnx.Conv"(%428, %18, %0) {auto_pad = "NOTSET", dilations = [1, 1], group = 1 : si64, kernel_shape = [3, 3], onnx_node_name = "Conv_111", pads = [1, 1, 1, 1], strides = [1, 1]} : (tensor<1x128x28x28xf32>, tensor<32x128x3x3xf32>, tensor<32xf32>) -> tensor<1x32x28x28xf32>
    %430 = crt.concat %242, %259, %276, %293, %310, %327, %344, %361, %378, %395, %412, %429 : (tensor<1x128x28x28xf32>, tensor<1x32x28x28xf32>, tensor<1x32x28x28xf32>, tensor<1x32x28x28xf32>, tensor<1x32x28x28xf32>, tensor<1x32x28x28xf32>, tensor<1x32x28x28xf32>, tensor<1x32x28x28xf32>, tensor<1x32x28x28xf32>, tensor<1x32x28x28xf32>, tensor<1x32x28x28xf32>, tensor<1x32x28x28xf32>) -> tensor<1x480x28x28xf32>
    %431 = crt.constant : () -> tensor<480x1x1xf32>
    %432 = crt.mul %430, %431 : (tensor<1x480x28x28xf32>, tensor<480x1x1xf32>) -> tensor<1x480x28x28xf32>
    %433 = crt.constant : () -> tensor<480x1x1xf32>
    %434 = crt.add %432, %433 : (tensor<1x480x28x28xf32>, tensor<480x1x1xf32>) -> tensor<1x480x28x28xf32>
    %435 = crt.relu %434 : (tensor<1x480x28x28xf32>) -> tensor<1x480x28x28xf32>
    %436 = crt.constant : () -> tensor<3xi64>
    %437 = crt.reshape %435, %436 : (tensor<1x480x28x28xf32>, tensor<3xi64>) -> tensor<1x480x784xf32>
    %438 = crt.constant : () -> tensor<2xi64>
    %439 = crt.reshape %83, %438 : (tensor<128x480x1x1xf32>, tensor<2xi64>) -> tensor<128x480xf32>
    %440 = crt.matmul %439, %437 : (tensor<128x480xf32>, tensor<1x480x784xf32>) -> tensor<1x128x784xf32>
    %441 = crt.constant : () -> tensor<1x128x1xf32>
    %442 = crt.add %440, %441 : (tensor<1x128x784xf32>, tensor<1x128x1xf32>) -> tensor<1x128x784xf32>
    %443 = crt.constant : () -> tensor<4xi64>
    %444 = crt.reshape %442, %443 : (tensor<1x128x784xf32>, tensor<4xi64>) -> tensor<1x128x28x28xf32>
    %445 = crt.relu %444 : (tensor<1x128x28x28xf32>) -> tensor<1x128x28x28xf32>
    %446 = "onnx.Conv"(%445, %19, %0) {auto_pad = "NOTSET", dilations = [1, 1], group = 1 : si64, kernel_shape = [3, 3], onnx_node_name = "Conv_117", pads = [1, 1, 1, 1], strides = [1, 1]} : (tensor<1x128x28x28xf32>, tensor<32x128x3x3xf32>, tensor<32xf32>) -> tensor<1x32x28x28xf32>
    %447 = crt.concat %242, %259, %276, %293, %310, %327, %344, %361, %378, %395, %412, %429, %446 : (tensor<1x128x28x28xf32>, tensor<1x32x28x28xf32>, tensor<1x32x28x28xf32>, tensor<1x32x28x28xf32>, tensor<1x32x28x28xf32>, tensor<1x32x28x28xf32>, tensor<1x32x28x28xf32>, tensor<1x32x28x28xf32>, tensor<1x32x28x28xf32>, tensor<1x32x28x28xf32>, tensor<1x32x28x28xf32>, tensor<1x32x28x28xf32>, tensor<1x32x28x28xf32>) -> tensor<1x512x28x28xf32>
    %448 = crt.constant : () -> tensor<512x1x1xf32>
    %449 = crt.mul %447, %448 : (tensor<1x512x28x28xf32>, tensor<512x1x1xf32>) -> tensor<1x512x28x28xf32>
    %450 = crt.constant : () -> tensor<512x1x1xf32>
    %451 = crt.add %449, %450 : (tensor<1x512x28x28xf32>, tensor<512x1x1xf32>) -> tensor<1x512x28x28xf32>
    %452 = crt.relu %451 : (tensor<1x512x28x28xf32>) -> tensor<1x512x28x28xf32>
    %453 = crt.constant : () -> tensor<3xi64>
    %454 = crt.reshape %452, %453 : (tensor<1x512x28x28xf32>, tensor<3xi64>) -> tensor<1x512x784xf32>
    %455 = crt.constant : () -> tensor<2xi64>
    %456 = crt.reshape %20, %455 : (tensor<256x512x1x1xf32>, tensor<2xi64>) -> tensor<256x512xf32>
    %457 = crt.matmul %456, %454 : (tensor<256x512xf32>, tensor<1x512x784xf32>) -> tensor<1x256x784xf32>
    %458 = crt.constant : () -> tensor<4xi64>
    %459 = crt.reshape %457, %458 : (tensor<1x256x784xf32>, tensor<4xi64>) -> tensor<1x256x28x28xf32>
    %460 = crt.avgpool %459 : (tensor<1x256x28x28xf32>) -> tensor<1x256x14x14xf32>
    %461 = crt.concat %460 : (tensor<1x256x14x14xf32>) -> tensor<1x256x14x14xf32>
    %462 = crt.constant : () -> tensor<256x1x1xf32>
    %463 = crt.mul %461, %462 : (tensor<1x256x14x14xf32>, tensor<256x1x1xf32>) -> tensor<1x256x14x14xf32>
    %464 = crt.constant : () -> tensor<256x1x1xf32>
    %465 = crt.add %463, %464 : (tensor<1x256x14x14xf32>, tensor<256x1x1xf32>) -> tensor<1x256x14x14xf32>
    %466 = crt.relu %465 : (tensor<1x256x14x14xf32>) -> tensor<1x256x14x14xf32>
    %467 = crt.constant : () -> tensor<3xi64>
    %468 = crt.reshape %466, %467 : (tensor<1x256x14x14xf32>, tensor<3xi64>) -> tensor<1x256x196xf32>
    %469 = crt.constant : () -> tensor<2xi64>
    %470 = crt.reshape %84, %469 : (tensor<128x256x1x1xf32>, tensor<2xi64>) -> tensor<128x256xf32>
    %471 = crt.matmul %470, %468 : (tensor<128x256xf32>, tensor<1x256x196xf32>) -> tensor<1x128x196xf32>
    %472 = crt.constant : () -> tensor<1x128x1xf32>
    %473 = crt.add %471, %472 : (tensor<1x128x196xf32>, tensor<1x128x1xf32>) -> tensor<1x128x196xf32>
    %474 = crt.constant : () -> tensor<4xi64>
    %475 = crt.reshape %473, %474 : (tensor<1x128x196xf32>, tensor<4xi64>) -> tensor<1x128x14x14xf32>
    %476 = crt.relu %475 : (tensor<1x128x14x14xf32>) -> tensor<1x128x14x14xf32>
    %477 = "onnx.Conv"(%476, %21, %0) {auto_pad = "NOTSET", dilations = [1, 1], group = 1 : si64, kernel_shape = [3, 3], onnx_node_name = "Conv_130", pads = [1, 1, 1, 1], strides = [1, 1]} : (tensor<1x128x14x14xf32>, tensor<32x128x3x3xf32>, tensor<32xf32>) -> tensor<1x32x14x14xf32>
    %478 = crt.concat %460, %477 : (tensor<1x256x14x14xf32>, tensor<1x32x14x14xf32>) -> tensor<1x288x14x14xf32>
    %479 = crt.constant : () -> tensor<288x1x1xf32>
    %480 = crt.mul %478, %479 : (tensor<1x288x14x14xf32>, tensor<288x1x1xf32>) -> tensor<1x288x14x14xf32>
    %481 = crt.constant : () -> tensor<288x1x1xf32>
    %482 = crt.add %480, %481 : (tensor<1x288x14x14xf32>, tensor<288x1x1xf32>) -> tensor<1x288x14x14xf32>
    %483 = crt.relu %482 : (tensor<1x288x14x14xf32>) -> tensor<1x288x14x14xf32>
    %484 = crt.constant : () -> tensor<3xi64>
    %485 = crt.reshape %483, %484 : (tensor<1x288x14x14xf32>, tensor<3xi64>) -> tensor<1x288x196xf32>
    %486 = crt.constant : () -> tensor<2xi64>
    %487 = crt.reshape %85, %486 : (tensor<128x288x1x1xf32>, tensor<2xi64>) -> tensor<128x288xf32>
    %488 = crt.matmul %487, %485 : (tensor<128x288xf32>, tensor<1x288x196xf32>) -> tensor<1x128x196xf32>
    %489 = crt.constant : () -> tensor<1x128x1xf32>
    %490 = crt.add %488, %489 : (tensor<1x128x196xf32>, tensor<1x128x1xf32>) -> tensor<1x128x196xf32>
    %491 = crt.constant : () -> tensor<4xi64>
    %492 = crt.reshape %490, %491 : (tensor<1x128x196xf32>, tensor<4xi64>) -> tensor<1x128x14x14xf32>
    %493 = crt.relu %492 : (tensor<1x128x14x14xf32>) -> tensor<1x128x14x14xf32>
    %494 = "onnx.Conv"(%493, %22, %0) {auto_pad = "NOTSET", dilations = [1, 1], group = 1 : si64, kernel_shape = [3, 3], onnx_node_name = "Conv_136", pads = [1, 1, 1, 1], strides = [1, 1]} : (tensor<1x128x14x14xf32>, tensor<32x128x3x3xf32>, tensor<32xf32>) -> tensor<1x32x14x14xf32>
    %495 = crt.concat %460, %477, %494 : (tensor<1x256x14x14xf32>, tensor<1x32x14x14xf32>, tensor<1x32x14x14xf32>) -> tensor<1x320x14x14xf32>
    %496 = crt.constant : () -> tensor<320x1x1xf32>
    %497 = crt.mul %495, %496 : (tensor<1x320x14x14xf32>, tensor<320x1x1xf32>) -> tensor<1x320x14x14xf32>
    %498 = crt.constant : () -> tensor<320x1x1xf32>
    %499 = crt.add %497, %498 : (tensor<1x320x14x14xf32>, tensor<320x1x1xf32>) -> tensor<1x320x14x14xf32>
    %500 = crt.relu %499 : (tensor<1x320x14x14xf32>) -> tensor<1x320x14x14xf32>
    %501 = crt.constant : () -> tensor<3xi64>
    %502 = crt.reshape %500, %501 : (tensor<1x320x14x14xf32>, tensor<3xi64>) -> tensor<1x320x196xf32>
    %503 = crt.constant : () -> tensor<2xi64>
    %504 = crt.reshape %86, %503 : (tensor<128x320x1x1xf32>, tensor<2xi64>) -> tensor<128x320xf32>
    %505 = crt.matmul %504, %502 : (tensor<128x320xf32>, tensor<1x320x196xf32>) -> tensor<1x128x196xf32>
    %506 = crt.constant : () -> tensor<1x128x1xf32>
    %507 = crt.add %505, %506 : (tensor<1x128x196xf32>, tensor<1x128x1xf32>) -> tensor<1x128x196xf32>
    %508 = crt.constant : () -> tensor<4xi64>
    %509 = crt.reshape %507, %508 : (tensor<1x128x196xf32>, tensor<4xi64>) -> tensor<1x128x14x14xf32>
    %510 = crt.relu %509 : (tensor<1x128x14x14xf32>) -> tensor<1x128x14x14xf32>
    %511 = "onnx.Conv"(%510, %23, %0) {auto_pad = "NOTSET", dilations = [1, 1], group = 1 : si64, kernel_shape = [3, 3], onnx_node_name = "Conv_142", pads = [1, 1, 1, 1], strides = [1, 1]} : (tensor<1x128x14x14xf32>, tensor<32x128x3x3xf32>, tensor<32xf32>) -> tensor<1x32x14x14xf32>
    %512 = crt.concat %460, %477, %494, %511 : (tensor<1x256x14x14xf32>, tensor<1x32x14x14xf32>, tensor<1x32x14x14xf32>, tensor<1x32x14x14xf32>) -> tensor<1x352x14x14xf32>
    %513 = crt.constant : () -> tensor<352x1x1xf32>
    %514 = crt.mul %512, %513 : (tensor<1x352x14x14xf32>, tensor<352x1x1xf32>) -> tensor<1x352x14x14xf32>
    %515 = crt.constant : () -> tensor<352x1x1xf32>
    %516 = crt.add %514, %515 : (tensor<1x352x14x14xf32>, tensor<352x1x1xf32>) -> tensor<1x352x14x14xf32>
    %517 = crt.relu %516 : (tensor<1x352x14x14xf32>) -> tensor<1x352x14x14xf32>
    %518 = crt.constant : () -> tensor<3xi64>
    %519 = crt.reshape %517, %518 : (tensor<1x352x14x14xf32>, tensor<3xi64>) -> tensor<1x352x196xf32>
    %520 = crt.constant : () -> tensor<2xi64>
    %521 = crt.reshape %87, %520 : (tensor<128x352x1x1xf32>, tensor<2xi64>) -> tensor<128x352xf32>
    %522 = crt.matmul %521, %519 : (tensor<128x352xf32>, tensor<1x352x196xf32>) -> tensor<1x128x196xf32>
    %523 = crt.constant : () -> tensor<1x128x1xf32>
    %524 = crt.add %522, %523 : (tensor<1x128x196xf32>, tensor<1x128x1xf32>) -> tensor<1x128x196xf32>
    %525 = crt.constant : () -> tensor<4xi64>
    %526 = crt.reshape %524, %525 : (tensor<1x128x196xf32>, tensor<4xi64>) -> tensor<1x128x14x14xf32>
    %527 = crt.relu %526 : (tensor<1x128x14x14xf32>) -> tensor<1x128x14x14xf32>
    %528 = "onnx.Conv"(%527, %24, %0) {auto_pad = "NOTSET", dilations = [1, 1], group = 1 : si64, kernel_shape = [3, 3], onnx_node_name = "Conv_148", pads = [1, 1, 1, 1], strides = [1, 1]} : (tensor<1x128x14x14xf32>, tensor<32x128x3x3xf32>, tensor<32xf32>) -> tensor<1x32x14x14xf32>
    %529 = crt.concat %460, %477, %494, %511, %528 : (tensor<1x256x14x14xf32>, tensor<1x32x14x14xf32>, tensor<1x32x14x14xf32>, tensor<1x32x14x14xf32>, tensor<1x32x14x14xf32>) -> tensor<1x384x14x14xf32>
    %530 = crt.constant : () -> tensor<384x1x1xf32>
    %531 = crt.mul %529, %530 : (tensor<1x384x14x14xf32>, tensor<384x1x1xf32>) -> tensor<1x384x14x14xf32>
    %532 = crt.constant : () -> tensor<384x1x1xf32>
    %533 = crt.add %531, %532 : (tensor<1x384x14x14xf32>, tensor<384x1x1xf32>) -> tensor<1x384x14x14xf32>
    %534 = crt.relu %533 : (tensor<1x384x14x14xf32>) -> tensor<1x384x14x14xf32>
    %535 = crt.constant : () -> tensor<3xi64>
    %536 = crt.reshape %534, %535 : (tensor<1x384x14x14xf32>, tensor<3xi64>) -> tensor<1x384x196xf32>
    %537 = crt.constant : () -> tensor<2xi64>
    %538 = crt.reshape %88, %537 : (tensor<128x384x1x1xf32>, tensor<2xi64>) -> tensor<128x384xf32>
    %539 = crt.matmul %538, %536 : (tensor<128x384xf32>, tensor<1x384x196xf32>) -> tensor<1x128x196xf32>
    %540 = crt.constant : () -> tensor<1x128x1xf32>
    %541 = crt.add %539, %540 : (tensor<1x128x196xf32>, tensor<1x128x1xf32>) -> tensor<1x128x196xf32>
    %542 = crt.constant : () -> tensor<4xi64>
    %543 = crt.reshape %541, %542 : (tensor<1x128x196xf32>, tensor<4xi64>) -> tensor<1x128x14x14xf32>
    %544 = crt.relu %543 : (tensor<1x128x14x14xf32>) -> tensor<1x128x14x14xf32>
    %545 = "onnx.Conv"(%544, %25, %0) {auto_pad = "NOTSET", dilations = [1, 1], group = 1 : si64, kernel_shape = [3, 3], onnx_node_name = "Conv_154", pads = [1, 1, 1, 1], strides = [1, 1]} : (tensor<1x128x14x14xf32>, tensor<32x128x3x3xf32>, tensor<32xf32>) -> tensor<1x32x14x14xf32>
    %546 = crt.concat %460, %477, %494, %511, %528, %545 : (tensor<1x256x14x14xf32>, tensor<1x32x14x14xf32>, tensor<1x32x14x14xf32>, tensor<1x32x14x14xf32>, tensor<1x32x14x14xf32>, tensor<1x32x14x14xf32>) -> tensor<1x416x14x14xf32>
    %547 = crt.constant : () -> tensor<416x1x1xf32>
    %548 = crt.mul %546, %547 : (tensor<1x416x14x14xf32>, tensor<416x1x1xf32>) -> tensor<1x416x14x14xf32>
    %549 = crt.constant : () -> tensor<416x1x1xf32>
    %550 = crt.add %548, %549 : (tensor<1x416x14x14xf32>, tensor<416x1x1xf32>) -> tensor<1x416x14x14xf32>
    %551 = crt.relu %550 : (tensor<1x416x14x14xf32>) -> tensor<1x416x14x14xf32>
    %552 = crt.constant : () -> tensor<3xi64>
    %553 = crt.reshape %551, %552 : (tensor<1x416x14x14xf32>, tensor<3xi64>) -> tensor<1x416x196xf32>
    %554 = crt.constant : () -> tensor<2xi64>
    %555 = crt.reshape %89, %554 : (tensor<128x416x1x1xf32>, tensor<2xi64>) -> tensor<128x416xf32>
    %556 = crt.matmul %555, %553 : (tensor<128x416xf32>, tensor<1x416x196xf32>) -> tensor<1x128x196xf32>
    %557 = crt.constant : () -> tensor<1x128x1xf32>
    %558 = crt.add %556, %557 : (tensor<1x128x196xf32>, tensor<1x128x1xf32>) -> tensor<1x128x196xf32>
    %559 = crt.constant : () -> tensor<4xi64>
    %560 = crt.reshape %558, %559 : (tensor<1x128x196xf32>, tensor<4xi64>) -> tensor<1x128x14x14xf32>
    %561 = crt.relu %560 : (tensor<1x128x14x14xf32>) -> tensor<1x128x14x14xf32>
    %562 = "onnx.Conv"(%561, %26, %0) {auto_pad = "NOTSET", dilations = [1, 1], group = 1 : si64, kernel_shape = [3, 3], onnx_node_name = "Conv_160", pads = [1, 1, 1, 1], strides = [1, 1]} : (tensor<1x128x14x14xf32>, tensor<32x128x3x3xf32>, tensor<32xf32>) -> tensor<1x32x14x14xf32>
    %563 = crt.concat %460, %477, %494, %511, %528, %545, %562 : (tensor<1x256x14x14xf32>, tensor<1x32x14x14xf32>, tensor<1x32x14x14xf32>, tensor<1x32x14x14xf32>, tensor<1x32x14x14xf32>, tensor<1x32x14x14xf32>, tensor<1x32x14x14xf32>) -> tensor<1x448x14x14xf32>
    %564 = crt.constant : () -> tensor<448x1x1xf32>
    %565 = crt.mul %563, %564 : (tensor<1x448x14x14xf32>, tensor<448x1x1xf32>) -> tensor<1x448x14x14xf32>
    %566 = crt.constant : () -> tensor<448x1x1xf32>
    %567 = crt.add %565, %566 : (tensor<1x448x14x14xf32>, tensor<448x1x1xf32>) -> tensor<1x448x14x14xf32>
    %568 = crt.relu %567 : (tensor<1x448x14x14xf32>) -> tensor<1x448x14x14xf32>
    %569 = crt.constant : () -> tensor<3xi64>
    %570 = crt.reshape %568, %569 : (tensor<1x448x14x14xf32>, tensor<3xi64>) -> tensor<1x448x196xf32>
    %571 = crt.constant : () -> tensor<2xi64>
    %572 = crt.reshape %90, %571 : (tensor<128x448x1x1xf32>, tensor<2xi64>) -> tensor<128x448xf32>
    %573 = crt.matmul %572, %570 : (tensor<128x448xf32>, tensor<1x448x196xf32>) -> tensor<1x128x196xf32>
    %574 = crt.constant : () -> tensor<1x128x1xf32>
    %575 = crt.add %573, %574 : (tensor<1x128x196xf32>, tensor<1x128x1xf32>) -> tensor<1x128x196xf32>
    %576 = crt.constant : () -> tensor<4xi64>
    %577 = crt.reshape %575, %576 : (tensor<1x128x196xf32>, tensor<4xi64>) -> tensor<1x128x14x14xf32>
    %578 = crt.relu %577 : (tensor<1x128x14x14xf32>) -> tensor<1x128x14x14xf32>
    %579 = "onnx.Conv"(%578, %27, %0) {auto_pad = "NOTSET", dilations = [1, 1], group = 1 : si64, kernel_shape = [3, 3], onnx_node_name = "Conv_166", pads = [1, 1, 1, 1], strides = [1, 1]} : (tensor<1x128x14x14xf32>, tensor<32x128x3x3xf32>, tensor<32xf32>) -> tensor<1x32x14x14xf32>
    %580 = crt.concat %460, %477, %494, %511, %528, %545, %562, %579 : (tensor<1x256x14x14xf32>, tensor<1x32x14x14xf32>, tensor<1x32x14x14xf32>, tensor<1x32x14x14xf32>, tensor<1x32x14x14xf32>, tensor<1x32x14x14xf32>, tensor<1x32x14x14xf32>, tensor<1x32x14x14xf32>) -> tensor<1x480x14x14xf32>
    %581 = crt.constant : () -> tensor<480x1x1xf32>
    %582 = crt.mul %580, %581 : (tensor<1x480x14x14xf32>, tensor<480x1x1xf32>) -> tensor<1x480x14x14xf32>
    %583 = crt.constant : () -> tensor<480x1x1xf32>
    %584 = crt.add %582, %583 : (tensor<1x480x14x14xf32>, tensor<480x1x1xf32>) -> tensor<1x480x14x14xf32>
    %585 = crt.relu %584 : (tensor<1x480x14x14xf32>) -> tensor<1x480x14x14xf32>
    %586 = crt.constant : () -> tensor<3xi64>
    %587 = crt.reshape %585, %586 : (tensor<1x480x14x14xf32>, tensor<3xi64>) -> tensor<1x480x196xf32>
    %588 = crt.constant : () -> tensor<2xi64>
    %589 = crt.reshape %91, %588 : (tensor<128x480x1x1xf32>, tensor<2xi64>) -> tensor<128x480xf32>
    %590 = crt.matmul %589, %587 : (tensor<128x480xf32>, tensor<1x480x196xf32>) -> tensor<1x128x196xf32>
    %591 = crt.constant : () -> tensor<1x128x1xf32>
    %592 = crt.add %590, %591 : (tensor<1x128x196xf32>, tensor<1x128x1xf32>) -> tensor<1x128x196xf32>
    %593 = crt.constant : () -> tensor<4xi64>
    %594 = crt.reshape %592, %593 : (tensor<1x128x196xf32>, tensor<4xi64>) -> tensor<1x128x14x14xf32>
    %595 = crt.relu %594 : (tensor<1x128x14x14xf32>) -> tensor<1x128x14x14xf32>
    %596 = "onnx.Conv"(%595, %28, %0) {auto_pad = "NOTSET", dilations = [1, 1], group = 1 : si64, kernel_shape = [3, 3], onnx_node_name = "Conv_172", pads = [1, 1, 1, 1], strides = [1, 1]} : (tensor<1x128x14x14xf32>, tensor<32x128x3x3xf32>, tensor<32xf32>) -> tensor<1x32x14x14xf32>
    %597 = crt.concat %460, %477, %494, %511, %528, %545, %562, %579, %596 : (tensor<1x256x14x14xf32>, tensor<1x32x14x14xf32>, tensor<1x32x14x14xf32>, tensor<1x32x14x14xf32>, tensor<1x32x14x14xf32>, tensor<1x32x14x14xf32>, tensor<1x32x14x14xf32>, tensor<1x32x14x14xf32>, tensor<1x32x14x14xf32>) -> tensor<1x512x14x14xf32>
    %598 = crt.constant : () -> tensor<512x1x1xf32>
    %599 = crt.mul %597, %598 : (tensor<1x512x14x14xf32>, tensor<512x1x1xf32>) -> tensor<1x512x14x14xf32>
    %600 = crt.constant : () -> tensor<512x1x1xf32>
    %601 = crt.add %599, %600 : (tensor<1x512x14x14xf32>, tensor<512x1x1xf32>) -> tensor<1x512x14x14xf32>
    %602 = crt.relu %601 : (tensor<1x512x14x14xf32>) -> tensor<1x512x14x14xf32>
    %603 = crt.constant : () -> tensor<3xi64>
    %604 = crt.reshape %602, %603 : (tensor<1x512x14x14xf32>, tensor<3xi64>) -> tensor<1x512x196xf32>
    %605 = crt.constant : () -> tensor<2xi64>
    %606 = crt.reshape %92, %605 : (tensor<128x512x1x1xf32>, tensor<2xi64>) -> tensor<128x512xf32>
    %607 = crt.matmul %606, %604 : (tensor<128x512xf32>, tensor<1x512x196xf32>) -> tensor<1x128x196xf32>
    %608 = crt.constant : () -> tensor<1x128x1xf32>
    %609 = crt.add %607, %608 : (tensor<1x128x196xf32>, tensor<1x128x1xf32>) -> tensor<1x128x196xf32>
    %610 = crt.constant : () -> tensor<4xi64>
    %611 = crt.reshape %609, %610 : (tensor<1x128x196xf32>, tensor<4xi64>) -> tensor<1x128x14x14xf32>
    %612 = crt.relu %611 : (tensor<1x128x14x14xf32>) -> tensor<1x128x14x14xf32>
    %613 = "onnx.Conv"(%612, %29, %0) {auto_pad = "NOTSET", dilations = [1, 1], group = 1 : si64, kernel_shape = [3, 3], onnx_node_name = "Conv_178", pads = [1, 1, 1, 1], strides = [1, 1]} : (tensor<1x128x14x14xf32>, tensor<32x128x3x3xf32>, tensor<32xf32>) -> tensor<1x32x14x14xf32>
    %614 = crt.concat %460, %477, %494, %511, %528, %545, %562, %579, %596, %613 : (tensor<1x256x14x14xf32>, tensor<1x32x14x14xf32>, tensor<1x32x14x14xf32>, tensor<1x32x14x14xf32>, tensor<1x32x14x14xf32>, tensor<1x32x14x14xf32>, tensor<1x32x14x14xf32>, tensor<1x32x14x14xf32>, tensor<1x32x14x14xf32>, tensor<1x32x14x14xf32>) -> tensor<1x544x14x14xf32>
    %615 = crt.constant : () -> tensor<544x1x1xf32>
    %616 = crt.mul %614, %615 : (tensor<1x544x14x14xf32>, tensor<544x1x1xf32>) -> tensor<1x544x14x14xf32>
    %617 = crt.constant : () -> tensor<544x1x1xf32>
    %618 = crt.add %616, %617 : (tensor<1x544x14x14xf32>, tensor<544x1x1xf32>) -> tensor<1x544x14x14xf32>
    %619 = crt.relu %618 : (tensor<1x544x14x14xf32>) -> tensor<1x544x14x14xf32>
    %620 = crt.constant : () -> tensor<3xi64>
    %621 = crt.reshape %619, %620 : (tensor<1x544x14x14xf32>, tensor<3xi64>) -> tensor<1x544x196xf32>
    %622 = crt.constant : () -> tensor<2xi64>
    %623 = crt.reshape %93, %622 : (tensor<128x544x1x1xf32>, tensor<2xi64>) -> tensor<128x544xf32>
    %624 = crt.matmul %623, %621 : (tensor<128x544xf32>, tensor<1x544x196xf32>) -> tensor<1x128x196xf32>
    %625 = crt.constant : () -> tensor<1x128x1xf32>
    %626 = crt.add %624, %625 : (tensor<1x128x196xf32>, tensor<1x128x1xf32>) -> tensor<1x128x196xf32>
    %627 = crt.constant : () -> tensor<4xi64>
    %628 = crt.reshape %626, %627 : (tensor<1x128x196xf32>, tensor<4xi64>) -> tensor<1x128x14x14xf32>
    %629 = crt.relu %628 : (tensor<1x128x14x14xf32>) -> tensor<1x128x14x14xf32>
    %630 = "onnx.Conv"(%629, %30, %0) {auto_pad = "NOTSET", dilations = [1, 1], group = 1 : si64, kernel_shape = [3, 3], onnx_node_name = "Conv_184", pads = [1, 1, 1, 1], strides = [1, 1]} : (tensor<1x128x14x14xf32>, tensor<32x128x3x3xf32>, tensor<32xf32>) -> tensor<1x32x14x14xf32>
    %631 = crt.concat %460, %477, %494, %511, %528, %545, %562, %579, %596, %613, %630 : (tensor<1x256x14x14xf32>, tensor<1x32x14x14xf32>, tensor<1x32x14x14xf32>, tensor<1x32x14x14xf32>, tensor<1x32x14x14xf32>, tensor<1x32x14x14xf32>, tensor<1x32x14x14xf32>, tensor<1x32x14x14xf32>, tensor<1x32x14x14xf32>, tensor<1x32x14x14xf32>, tensor<1x32x14x14xf32>) -> tensor<1x576x14x14xf32>
    %632 = crt.constant : () -> tensor<576x1x1xf32>
    %633 = crt.mul %631, %632 : (tensor<1x576x14x14xf32>, tensor<576x1x1xf32>) -> tensor<1x576x14x14xf32>
    %634 = crt.constant : () -> tensor<576x1x1xf32>
    %635 = crt.add %633, %634 : (tensor<1x576x14x14xf32>, tensor<576x1x1xf32>) -> tensor<1x576x14x14xf32>
    %636 = crt.relu %635 : (tensor<1x576x14x14xf32>) -> tensor<1x576x14x14xf32>
    %637 = crt.constant : () -> tensor<3xi64>
    %638 = crt.reshape %636, %637 : (tensor<1x576x14x14xf32>, tensor<3xi64>) -> tensor<1x576x196xf32>
    %639 = crt.constant : () -> tensor<2xi64>
    %640 = crt.reshape %94, %639 : (tensor<128x576x1x1xf32>, tensor<2xi64>) -> tensor<128x576xf32>
    %641 = crt.matmul %640, %638 : (tensor<128x576xf32>, tensor<1x576x196xf32>) -> tensor<1x128x196xf32>
    %642 = crt.constant : () -> tensor<1x128x1xf32>
    %643 = crt.add %641, %642 : (tensor<1x128x196xf32>, tensor<1x128x1xf32>) -> tensor<1x128x196xf32>
    %644 = crt.constant : () -> tensor<4xi64>
    %645 = crt.reshape %643, %644 : (tensor<1x128x196xf32>, tensor<4xi64>) -> tensor<1x128x14x14xf32>
    %646 = crt.relu %645 : (tensor<1x128x14x14xf32>) -> tensor<1x128x14x14xf32>
    %647 = "onnx.Conv"(%646, %31, %0) {auto_pad = "NOTSET", dilations = [1, 1], group = 1 : si64, kernel_shape = [3, 3], onnx_node_name = "Conv_190", pads = [1, 1, 1, 1], strides = [1, 1]} : (tensor<1x128x14x14xf32>, tensor<32x128x3x3xf32>, tensor<32xf32>) -> tensor<1x32x14x14xf32>
    %648 = crt.concat %460, %477, %494, %511, %528, %545, %562, %579, %596, %613, %630, %647 : (tensor<1x256x14x14xf32>, tensor<1x32x14x14xf32>, tensor<1x32x14x14xf32>, tensor<1x32x14x14xf32>, tensor<1x32x14x14xf32>, tensor<1x32x14x14xf32>, tensor<1x32x14x14xf32>, tensor<1x32x14x14xf32>, tensor<1x32x14x14xf32>, tensor<1x32x14x14xf32>, tensor<1x32x14x14xf32>, tensor<1x32x14x14xf32>) -> tensor<1x608x14x14xf32>
    %649 = crt.constant : () -> tensor<608x1x1xf32>
    %650 = crt.mul %648, %649 : (tensor<1x608x14x14xf32>, tensor<608x1x1xf32>) -> tensor<1x608x14x14xf32>
    %651 = crt.constant : () -> tensor<608x1x1xf32>
    %652 = crt.add %650, %651 : (tensor<1x608x14x14xf32>, tensor<608x1x1xf32>) -> tensor<1x608x14x14xf32>
    %653 = crt.relu %652 : (tensor<1x608x14x14xf32>) -> tensor<1x608x14x14xf32>
    %654 = crt.constant : () -> tensor<3xi64>
    %655 = crt.reshape %653, %654 : (tensor<1x608x14x14xf32>, tensor<3xi64>) -> tensor<1x608x196xf32>
    %656 = crt.constant : () -> tensor<2xi64>
    %657 = crt.reshape %95, %656 : (tensor<128x608x1x1xf32>, tensor<2xi64>) -> tensor<128x608xf32>
    %658 = crt.matmul %657, %655 : (tensor<128x608xf32>, tensor<1x608x196xf32>) -> tensor<1x128x196xf32>
    %659 = crt.constant : () -> tensor<1x128x1xf32>
    %660 = crt.add %658, %659 : (tensor<1x128x196xf32>, tensor<1x128x1xf32>) -> tensor<1x128x196xf32>
    %661 = crt.constant : () -> tensor<4xi64>
    %662 = crt.reshape %660, %661 : (tensor<1x128x196xf32>, tensor<4xi64>) -> tensor<1x128x14x14xf32>
    %663 = crt.relu %662 : (tensor<1x128x14x14xf32>) -> tensor<1x128x14x14xf32>
    %664 = "onnx.Conv"(%663, %32, %0) {auto_pad = "NOTSET", dilations = [1, 1], group = 1 : si64, kernel_shape = [3, 3], onnx_node_name = "Conv_196", pads = [1, 1, 1, 1], strides = [1, 1]} : (tensor<1x128x14x14xf32>, tensor<32x128x3x3xf32>, tensor<32xf32>) -> tensor<1x32x14x14xf32>
    %665 = crt.concat %460, %477, %494, %511, %528, %545, %562, %579, %596, %613, %630, %647, %664 : (tensor<1x256x14x14xf32>, tensor<1x32x14x14xf32>, tensor<1x32x14x14xf32>, tensor<1x32x14x14xf32>, tensor<1x32x14x14xf32>, tensor<1x32x14x14xf32>, tensor<1x32x14x14xf32>, tensor<1x32x14x14xf32>, tensor<1x32x14x14xf32>, tensor<1x32x14x14xf32>, tensor<1x32x14x14xf32>, tensor<1x32x14x14xf32>, tensor<1x32x14x14xf32>) -> tensor<1x640x14x14xf32>
    %666 = crt.constant : () -> tensor<640x1x1xf32>
    %667 = crt.mul %665, %666 : (tensor<1x640x14x14xf32>, tensor<640x1x1xf32>) -> tensor<1x640x14x14xf32>
    %668 = crt.constant : () -> tensor<640x1x1xf32>
    %669 = crt.add %667, %668 : (tensor<1x640x14x14xf32>, tensor<640x1x1xf32>) -> tensor<1x640x14x14xf32>
    %670 = crt.relu %669 : (tensor<1x640x14x14xf32>) -> tensor<1x640x14x14xf32>
    %671 = crt.constant : () -> tensor<3xi64>
    %672 = crt.reshape %670, %671 : (tensor<1x640x14x14xf32>, tensor<3xi64>) -> tensor<1x640x196xf32>
    %673 = crt.constant : () -> tensor<2xi64>
    %674 = crt.reshape %96, %673 : (tensor<128x640x1x1xf32>, tensor<2xi64>) -> tensor<128x640xf32>
    %675 = crt.matmul %674, %672 : (tensor<128x640xf32>, tensor<1x640x196xf32>) -> tensor<1x128x196xf32>
    %676 = crt.constant : () -> tensor<1x128x1xf32>
    %677 = crt.add %675, %676 : (tensor<1x128x196xf32>, tensor<1x128x1xf32>) -> tensor<1x128x196xf32>
    %678 = crt.constant : () -> tensor<4xi64>
    %679 = crt.reshape %677, %678 : (tensor<1x128x196xf32>, tensor<4xi64>) -> tensor<1x128x14x14xf32>
    %680 = crt.relu %679 : (tensor<1x128x14x14xf32>) -> tensor<1x128x14x14xf32>
    %681 = "onnx.Conv"(%680, %33, %0) {auto_pad = "NOTSET", dilations = [1, 1], group = 1 : si64, kernel_shape = [3, 3], onnx_node_name = "Conv_202", pads = [1, 1, 1, 1], strides = [1, 1]} : (tensor<1x128x14x14xf32>, tensor<32x128x3x3xf32>, tensor<32xf32>) -> tensor<1x32x14x14xf32>
    %682 = crt.concat %460, %477, %494, %511, %528, %545, %562, %579, %596, %613, %630, %647, %664, %681 : (tensor<1x256x14x14xf32>, tensor<1x32x14x14xf32>, tensor<1x32x14x14xf32>, tensor<1x32x14x14xf32>, tensor<1x32x14x14xf32>, tensor<1x32x14x14xf32>, tensor<1x32x14x14xf32>, tensor<1x32x14x14xf32>, tensor<1x32x14x14xf32>, tensor<1x32x14x14xf32>, tensor<1x32x14x14xf32>, tensor<1x32x14x14xf32>, tensor<1x32x14x14xf32>, tensor<1x32x14x14xf32>) -> tensor<1x672x14x14xf32>
    %683 = crt.constant : () -> tensor<672x1x1xf32>
    %684 = crt.mul %682, %683 : (tensor<1x672x14x14xf32>, tensor<672x1x1xf32>) -> tensor<1x672x14x14xf32>
    %685 = crt.constant : () -> tensor<672x1x1xf32>
    %686 = crt.add %684, %685 : (tensor<1x672x14x14xf32>, tensor<672x1x1xf32>) -> tensor<1x672x14x14xf32>
    %687 = crt.relu %686 : (tensor<1x672x14x14xf32>) -> tensor<1x672x14x14xf32>
    %688 = crt.constant : () -> tensor<3xi64>
    %689 = crt.reshape %687, %688 : (tensor<1x672x14x14xf32>, tensor<3xi64>) -> tensor<1x672x196xf32>
    %690 = crt.constant : () -> tensor<2xi64>
    %691 = crt.reshape %97, %690 : (tensor<128x672x1x1xf32>, tensor<2xi64>) -> tensor<128x672xf32>
    %692 = crt.matmul %691, %689 : (tensor<128x672xf32>, tensor<1x672x196xf32>) -> tensor<1x128x196xf32>
    %693 = crt.constant : () -> tensor<1x128x1xf32>
    %694 = crt.add %692, %693 : (tensor<1x128x196xf32>, tensor<1x128x1xf32>) -> tensor<1x128x196xf32>
    %695 = crt.constant : () -> tensor<4xi64>
    %696 = crt.reshape %694, %695 : (tensor<1x128x196xf32>, tensor<4xi64>) -> tensor<1x128x14x14xf32>
    %697 = crt.relu %696 : (tensor<1x128x14x14xf32>) -> tensor<1x128x14x14xf32>
    %698 = "onnx.Conv"(%697, %34, %0) {auto_pad = "NOTSET", dilations = [1, 1], group = 1 : si64, kernel_shape = [3, 3], onnx_node_name = "Conv_208", pads = [1, 1, 1, 1], strides = [1, 1]} : (tensor<1x128x14x14xf32>, tensor<32x128x3x3xf32>, tensor<32xf32>) -> tensor<1x32x14x14xf32>
    %699 = crt.concat %460, %477, %494, %511, %528, %545, %562, %579, %596, %613, %630, %647, %664, %681, %698 : (tensor<1x256x14x14xf32>, tensor<1x32x14x14xf32>, tensor<1x32x14x14xf32>, tensor<1x32x14x14xf32>, tensor<1x32x14x14xf32>, tensor<1x32x14x14xf32>, tensor<1x32x14x14xf32>, tensor<1x32x14x14xf32>, tensor<1x32x14x14xf32>, tensor<1x32x14x14xf32>, tensor<1x32x14x14xf32>, tensor<1x32x14x14xf32>, tensor<1x32x14x14xf32>, tensor<1x32x14x14xf32>, tensor<1x32x14x14xf32>) -> tensor<1x704x14x14xf32>
    %700 = crt.constant : () -> tensor<704x1x1xf32>
    %701 = crt.mul %699, %700 : (tensor<1x704x14x14xf32>, tensor<704x1x1xf32>) -> tensor<1x704x14x14xf32>
    %702 = crt.constant : () -> tensor<704x1x1xf32>
    %703 = crt.add %701, %702 : (tensor<1x704x14x14xf32>, tensor<704x1x1xf32>) -> tensor<1x704x14x14xf32>
    %704 = crt.relu %703 : (tensor<1x704x14x14xf32>) -> tensor<1x704x14x14xf32>
    %705 = crt.constant : () -> tensor<3xi64>
    %706 = crt.reshape %704, %705 : (tensor<1x704x14x14xf32>, tensor<3xi64>) -> tensor<1x704x196xf32>
    %707 = crt.constant : () -> tensor<2xi64>
    %708 = crt.reshape %98, %707 : (tensor<128x704x1x1xf32>, tensor<2xi64>) -> tensor<128x704xf32>
    %709 = crt.matmul %708, %706 : (tensor<128x704xf32>, tensor<1x704x196xf32>) -> tensor<1x128x196xf32>
    %710 = crt.constant : () -> tensor<1x128x1xf32>
    %711 = crt.add %709, %710 : (tensor<1x128x196xf32>, tensor<1x128x1xf32>) -> tensor<1x128x196xf32>
    %712 = crt.constant : () -> tensor<4xi64>
    %713 = crt.reshape %711, %712 : (tensor<1x128x196xf32>, tensor<4xi64>) -> tensor<1x128x14x14xf32>
    %714 = crt.relu %713 : (tensor<1x128x14x14xf32>) -> tensor<1x128x14x14xf32>
    %715 = "onnx.Conv"(%714, %35, %0) {auto_pad = "NOTSET", dilations = [1, 1], group = 1 : si64, kernel_shape = [3, 3], onnx_node_name = "Conv_214", pads = [1, 1, 1, 1], strides = [1, 1]} : (tensor<1x128x14x14xf32>, tensor<32x128x3x3xf32>, tensor<32xf32>) -> tensor<1x32x14x14xf32>
    %716 = crt.concat %460, %477, %494, %511, %528, %545, %562, %579, %596, %613, %630, %647, %664, %681, %698, %715 : (tensor<1x256x14x14xf32>, tensor<1x32x14x14xf32>, tensor<1x32x14x14xf32>, tensor<1x32x14x14xf32>, tensor<1x32x14x14xf32>, tensor<1x32x14x14xf32>, tensor<1x32x14x14xf32>, tensor<1x32x14x14xf32>, tensor<1x32x14x14xf32>, tensor<1x32x14x14xf32>, tensor<1x32x14x14xf32>, tensor<1x32x14x14xf32>, tensor<1x32x14x14xf32>, tensor<1x32x14x14xf32>, tensor<1x32x14x14xf32>, tensor<1x32x14x14xf32>) -> tensor<1x736x14x14xf32>
    %717 = crt.constant : () -> tensor<736x1x1xf32>
    %718 = crt.mul %716, %717 : (tensor<1x736x14x14xf32>, tensor<736x1x1xf32>) -> tensor<1x736x14x14xf32>
    %719 = crt.constant : () -> tensor<736x1x1xf32>
    %720 = crt.add %718, %719 : (tensor<1x736x14x14xf32>, tensor<736x1x1xf32>) -> tensor<1x736x14x14xf32>
    %721 = crt.relu %720 : (tensor<1x736x14x14xf32>) -> tensor<1x736x14x14xf32>
    %722 = crt.constant : () -> tensor<3xi64>
    %723 = crt.reshape %721, %722 : (tensor<1x736x14x14xf32>, tensor<3xi64>) -> tensor<1x736x196xf32>
    %724 = crt.constant : () -> tensor<2xi64>
    %725 = crt.reshape %99, %724 : (tensor<128x736x1x1xf32>, tensor<2xi64>) -> tensor<128x736xf32>
    %726 = crt.matmul %725, %723 : (tensor<128x736xf32>, tensor<1x736x196xf32>) -> tensor<1x128x196xf32>
    %727 = crt.constant : () -> tensor<1x128x1xf32>
    %728 = crt.add %726, %727 : (tensor<1x128x196xf32>, tensor<1x128x1xf32>) -> tensor<1x128x196xf32>
    %729 = crt.constant : () -> tensor<4xi64>
    %730 = crt.reshape %728, %729 : (tensor<1x128x196xf32>, tensor<4xi64>) -> tensor<1x128x14x14xf32>
    %731 = crt.relu %730 : (tensor<1x128x14x14xf32>) -> tensor<1x128x14x14xf32>
    %732 = "onnx.Conv"(%731, %36, %0) {auto_pad = "NOTSET", dilations = [1, 1], group = 1 : si64, kernel_shape = [3, 3], onnx_node_name = "Conv_220", pads = [1, 1, 1, 1], strides = [1, 1]} : (tensor<1x128x14x14xf32>, tensor<32x128x3x3xf32>, tensor<32xf32>) -> tensor<1x32x14x14xf32>
    %733 = crt.concat %460, %477, %494, %511, %528, %545, %562, %579, %596, %613, %630, %647, %664, %681, %698, %715, %732 : (tensor<1x256x14x14xf32>, tensor<1x32x14x14xf32>, tensor<1x32x14x14xf32>, tensor<1x32x14x14xf32>, tensor<1x32x14x14xf32>, tensor<1x32x14x14xf32>, tensor<1x32x14x14xf32>, tensor<1x32x14x14xf32>, tensor<1x32x14x14xf32>, tensor<1x32x14x14xf32>, tensor<1x32x14x14xf32>, tensor<1x32x14x14xf32>, tensor<1x32x14x14xf32>, tensor<1x32x14x14xf32>, tensor<1x32x14x14xf32>, tensor<1x32x14x14xf32>, tensor<1x32x14x14xf32>) -> tensor<1x768x14x14xf32>
    %734 = crt.constant : () -> tensor<768x1x1xf32>
    %735 = crt.mul %733, %734 : (tensor<1x768x14x14xf32>, tensor<768x1x1xf32>) -> tensor<1x768x14x14xf32>
    %736 = crt.constant : () -> tensor<768x1x1xf32>
    %737 = crt.add %735, %736 : (tensor<1x768x14x14xf32>, tensor<768x1x1xf32>) -> tensor<1x768x14x14xf32>
    %738 = crt.relu %737 : (tensor<1x768x14x14xf32>) -> tensor<1x768x14x14xf32>
    %739 = crt.constant : () -> tensor<3xi64>
    %740 = crt.reshape %738, %739 : (tensor<1x768x14x14xf32>, tensor<3xi64>) -> tensor<1x768x196xf32>
    %741 = crt.constant : () -> tensor<2xi64>
    %742 = crt.reshape %100, %741 : (tensor<128x768x1x1xf32>, tensor<2xi64>) -> tensor<128x768xf32>
    %743 = crt.matmul %742, %740 : (tensor<128x768xf32>, tensor<1x768x196xf32>) -> tensor<1x128x196xf32>
    %744 = crt.constant : () -> tensor<1x128x1xf32>
    %745 = crt.add %743, %744 : (tensor<1x128x196xf32>, tensor<1x128x1xf32>) -> tensor<1x128x196xf32>
    %746 = crt.constant : () -> tensor<4xi64>
    %747 = crt.reshape %745, %746 : (tensor<1x128x196xf32>, tensor<4xi64>) -> tensor<1x128x14x14xf32>
    %748 = crt.relu %747 : (tensor<1x128x14x14xf32>) -> tensor<1x128x14x14xf32>
    %749 = "onnx.Conv"(%748, %37, %0) {auto_pad = "NOTSET", dilations = [1, 1], group = 1 : si64, kernel_shape = [3, 3], onnx_node_name = "Conv_226", pads = [1, 1, 1, 1], strides = [1, 1]} : (tensor<1x128x14x14xf32>, tensor<32x128x3x3xf32>, tensor<32xf32>) -> tensor<1x32x14x14xf32>
    %750 = crt.concat %460, %477, %494, %511, %528, %545, %562, %579, %596, %613, %630, %647, %664, %681, %698, %715, %732, %749 : (tensor<1x256x14x14xf32>, tensor<1x32x14x14xf32>, tensor<1x32x14x14xf32>, tensor<1x32x14x14xf32>, tensor<1x32x14x14xf32>, tensor<1x32x14x14xf32>, tensor<1x32x14x14xf32>, tensor<1x32x14x14xf32>, tensor<1x32x14x14xf32>, tensor<1x32x14x14xf32>, tensor<1x32x14x14xf32>, tensor<1x32x14x14xf32>, tensor<1x32x14x14xf32>, tensor<1x32x14x14xf32>, tensor<1x32x14x14xf32>, tensor<1x32x14x14xf32>, tensor<1x32x14x14xf32>, tensor<1x32x14x14xf32>) -> tensor<1x800x14x14xf32>
    %751 = crt.constant : () -> tensor<800x1x1xf32>
    %752 = crt.mul %750, %751 : (tensor<1x800x14x14xf32>, tensor<800x1x1xf32>) -> tensor<1x800x14x14xf32>
    %753 = crt.constant : () -> tensor<800x1x1xf32>
    %754 = crt.add %752, %753 : (tensor<1x800x14x14xf32>, tensor<800x1x1xf32>) -> tensor<1x800x14x14xf32>
    %755 = crt.relu %754 : (tensor<1x800x14x14xf32>) -> tensor<1x800x14x14xf32>
    %756 = crt.constant : () -> tensor<3xi64>
    %757 = crt.reshape %755, %756 : (tensor<1x800x14x14xf32>, tensor<3xi64>) -> tensor<1x800x196xf32>
    %758 = crt.constant : () -> tensor<2xi64>
    %759 = crt.reshape %101, %758 : (tensor<128x800x1x1xf32>, tensor<2xi64>) -> tensor<128x800xf32>
    %760 = crt.matmul %759, %757 : (tensor<128x800xf32>, tensor<1x800x196xf32>) -> tensor<1x128x196xf32>
    %761 = crt.constant : () -> tensor<1x128x1xf32>
    %762 = crt.add %760, %761 : (tensor<1x128x196xf32>, tensor<1x128x1xf32>) -> tensor<1x128x196xf32>
    %763 = crt.constant : () -> tensor<4xi64>
    %764 = crt.reshape %762, %763 : (tensor<1x128x196xf32>, tensor<4xi64>) -> tensor<1x128x14x14xf32>
    %765 = crt.relu %764 : (tensor<1x128x14x14xf32>) -> tensor<1x128x14x14xf32>
    %766 = "onnx.Conv"(%765, %38, %0) {auto_pad = "NOTSET", dilations = [1, 1], group = 1 : si64, kernel_shape = [3, 3], onnx_node_name = "Conv_232", pads = [1, 1, 1, 1], strides = [1, 1]} : (tensor<1x128x14x14xf32>, tensor<32x128x3x3xf32>, tensor<32xf32>) -> tensor<1x32x14x14xf32>
    %767 = crt.concat %460, %477, %494, %511, %528, %545, %562, %579, %596, %613, %630, %647, %664, %681, %698, %715, %732, %749, %766 : (tensor<1x256x14x14xf32>, tensor<1x32x14x14xf32>, tensor<1x32x14x14xf32>, tensor<1x32x14x14xf32>, tensor<1x32x14x14xf32>, tensor<1x32x14x14xf32>, tensor<1x32x14x14xf32>, tensor<1x32x14x14xf32>, tensor<1x32x14x14xf32>, tensor<1x32x14x14xf32>, tensor<1x32x14x14xf32>, tensor<1x32x14x14xf32>, tensor<1x32x14x14xf32>, tensor<1x32x14x14xf32>, tensor<1x32x14x14xf32>, tensor<1x32x14x14xf32>, tensor<1x32x14x14xf32>, tensor<1x32x14x14xf32>, tensor<1x32x14x14xf32>) -> tensor<1x832x14x14xf32>
    %768 = crt.constant : () -> tensor<832x1x1xf32>
    %769 = crt.mul %767, %768 : (tensor<1x832x14x14xf32>, tensor<832x1x1xf32>) -> tensor<1x832x14x14xf32>
    %770 = crt.constant : () -> tensor<832x1x1xf32>
    %771 = crt.add %769, %770 : (tensor<1x832x14x14xf32>, tensor<832x1x1xf32>) -> tensor<1x832x14x14xf32>
    %772 = crt.relu %771 : (tensor<1x832x14x14xf32>) -> tensor<1x832x14x14xf32>
    %773 = crt.constant : () -> tensor<3xi64>
    %774 = crt.reshape %772, %773 : (tensor<1x832x14x14xf32>, tensor<3xi64>) -> tensor<1x832x196xf32>
    %775 = crt.constant : () -> tensor<2xi64>
    %776 = crt.reshape %102, %775 : (tensor<128x832x1x1xf32>, tensor<2xi64>) -> tensor<128x832xf32>
    %777 = crt.matmul %776, %774 : (tensor<128x832xf32>, tensor<1x832x196xf32>) -> tensor<1x128x196xf32>
    %778 = crt.constant : () -> tensor<1x128x1xf32>
    %779 = crt.add %777, %778 : (tensor<1x128x196xf32>, tensor<1x128x1xf32>) -> tensor<1x128x196xf32>
    %780 = crt.constant : () -> tensor<4xi64>
    %781 = crt.reshape %779, %780 : (tensor<1x128x196xf32>, tensor<4xi64>) -> tensor<1x128x14x14xf32>
    %782 = crt.relu %781 : (tensor<1x128x14x14xf32>) -> tensor<1x128x14x14xf32>
    %783 = "onnx.Conv"(%782, %39, %0) {auto_pad = "NOTSET", dilations = [1, 1], group = 1 : si64, kernel_shape = [3, 3], onnx_node_name = "Conv_238", pads = [1, 1, 1, 1], strides = [1, 1]} : (tensor<1x128x14x14xf32>, tensor<32x128x3x3xf32>, tensor<32xf32>) -> tensor<1x32x14x14xf32>
    %784 = crt.concat %460, %477, %494, %511, %528, %545, %562, %579, %596, %613, %630, %647, %664, %681, %698, %715, %732, %749, %766, %783 : (tensor<1x256x14x14xf32>, tensor<1x32x14x14xf32>, tensor<1x32x14x14xf32>, tensor<1x32x14x14xf32>, tensor<1x32x14x14xf32>, tensor<1x32x14x14xf32>, tensor<1x32x14x14xf32>, tensor<1x32x14x14xf32>, tensor<1x32x14x14xf32>, tensor<1x32x14x14xf32>, tensor<1x32x14x14xf32>, tensor<1x32x14x14xf32>, tensor<1x32x14x14xf32>, tensor<1x32x14x14xf32>, tensor<1x32x14x14xf32>, tensor<1x32x14x14xf32>, tensor<1x32x14x14xf32>, tensor<1x32x14x14xf32>, tensor<1x32x14x14xf32>, tensor<1x32x14x14xf32>) -> tensor<1x864x14x14xf32>
    %785 = crt.constant : () -> tensor<864x1x1xf32>
    %786 = crt.mul %784, %785 : (tensor<1x864x14x14xf32>, tensor<864x1x1xf32>) -> tensor<1x864x14x14xf32>
    %787 = crt.constant : () -> tensor<864x1x1xf32>
    %788 = crt.add %786, %787 : (tensor<1x864x14x14xf32>, tensor<864x1x1xf32>) -> tensor<1x864x14x14xf32>
    %789 = crt.relu %788 : (tensor<1x864x14x14xf32>) -> tensor<1x864x14x14xf32>
    %790 = crt.constant : () -> tensor<3xi64>
    %791 = crt.reshape %789, %790 : (tensor<1x864x14x14xf32>, tensor<3xi64>) -> tensor<1x864x196xf32>
    %792 = crt.constant : () -> tensor<2xi64>
    %793 = crt.reshape %103, %792 : (tensor<128x864x1x1xf32>, tensor<2xi64>) -> tensor<128x864xf32>
    %794 = crt.matmul %793, %791 : (tensor<128x864xf32>, tensor<1x864x196xf32>) -> tensor<1x128x196xf32>
    %795 = crt.constant : () -> tensor<1x128x1xf32>
    %796 = crt.add %794, %795 : (tensor<1x128x196xf32>, tensor<1x128x1xf32>) -> tensor<1x128x196xf32>
    %797 = crt.constant : () -> tensor<4xi64>
    %798 = crt.reshape %796, %797 : (tensor<1x128x196xf32>, tensor<4xi64>) -> tensor<1x128x14x14xf32>
    %799 = crt.relu %798 : (tensor<1x128x14x14xf32>) -> tensor<1x128x14x14xf32>
    %800 = "onnx.Conv"(%799, %40, %0) {auto_pad = "NOTSET", dilations = [1, 1], group = 1 : si64, kernel_shape = [3, 3], onnx_node_name = "Conv_244", pads = [1, 1, 1, 1], strides = [1, 1]} : (tensor<1x128x14x14xf32>, tensor<32x128x3x3xf32>, tensor<32xf32>) -> tensor<1x32x14x14xf32>
    %801 = crt.concat %460, %477, %494, %511, %528, %545, %562, %579, %596, %613, %630, %647, %664, %681, %698, %715, %732, %749, %766, %783, %800 : (tensor<1x256x14x14xf32>, tensor<1x32x14x14xf32>, tensor<1x32x14x14xf32>, tensor<1x32x14x14xf32>, tensor<1x32x14x14xf32>, tensor<1x32x14x14xf32>, tensor<1x32x14x14xf32>, tensor<1x32x14x14xf32>, tensor<1x32x14x14xf32>, tensor<1x32x14x14xf32>, tensor<1x32x14x14xf32>, tensor<1x32x14x14xf32>, tensor<1x32x14x14xf32>, tensor<1x32x14x14xf32>, tensor<1x32x14x14xf32>, tensor<1x32x14x14xf32>, tensor<1x32x14x14xf32>, tensor<1x32x14x14xf32>, tensor<1x32x14x14xf32>, tensor<1x32x14x14xf32>, tensor<1x32x14x14xf32>) -> tensor<1x896x14x14xf32>
    %802 = crt.constant : () -> tensor<896x1x1xf32>
    %803 = crt.mul %801, %802 : (tensor<1x896x14x14xf32>, tensor<896x1x1xf32>) -> tensor<1x896x14x14xf32>
    %804 = crt.constant : () -> tensor<896x1x1xf32>
    %805 = crt.add %803, %804 : (tensor<1x896x14x14xf32>, tensor<896x1x1xf32>) -> tensor<1x896x14x14xf32>
    %806 = crt.relu %805 : (tensor<1x896x14x14xf32>) -> tensor<1x896x14x14xf32>
    %807 = crt.constant : () -> tensor<3xi64>
    %808 = crt.reshape %806, %807 : (tensor<1x896x14x14xf32>, tensor<3xi64>) -> tensor<1x896x196xf32>
    %809 = crt.constant : () -> tensor<2xi64>
    %810 = crt.reshape %104, %809 : (tensor<128x896x1x1xf32>, tensor<2xi64>) -> tensor<128x896xf32>
    %811 = crt.matmul %810, %808 : (tensor<128x896xf32>, tensor<1x896x196xf32>) -> tensor<1x128x196xf32>
    %812 = crt.constant : () -> tensor<1x128x1xf32>
    %813 = crt.add %811, %812 : (tensor<1x128x196xf32>, tensor<1x128x1xf32>) -> tensor<1x128x196xf32>
    %814 = crt.constant : () -> tensor<4xi64>
    %815 = crt.reshape %813, %814 : (tensor<1x128x196xf32>, tensor<4xi64>) -> tensor<1x128x14x14xf32>
    %816 = crt.relu %815 : (tensor<1x128x14x14xf32>) -> tensor<1x128x14x14xf32>
    %817 = "onnx.Conv"(%816, %41, %0) {auto_pad = "NOTSET", dilations = [1, 1], group = 1 : si64, kernel_shape = [3, 3], onnx_node_name = "Conv_250", pads = [1, 1, 1, 1], strides = [1, 1]} : (tensor<1x128x14x14xf32>, tensor<32x128x3x3xf32>, tensor<32xf32>) -> tensor<1x32x14x14xf32>
    %818 = crt.concat %460, %477, %494, %511, %528, %545, %562, %579, %596, %613, %630, %647, %664, %681, %698, %715, %732, %749, %766, %783, %800, %817 : (tensor<1x256x14x14xf32>, tensor<1x32x14x14xf32>, tensor<1x32x14x14xf32>, tensor<1x32x14x14xf32>, tensor<1x32x14x14xf32>, tensor<1x32x14x14xf32>, tensor<1x32x14x14xf32>, tensor<1x32x14x14xf32>, tensor<1x32x14x14xf32>, tensor<1x32x14x14xf32>, tensor<1x32x14x14xf32>, tensor<1x32x14x14xf32>, tensor<1x32x14x14xf32>, tensor<1x32x14x14xf32>, tensor<1x32x14x14xf32>, tensor<1x32x14x14xf32>, tensor<1x32x14x14xf32>, tensor<1x32x14x14xf32>, tensor<1x32x14x14xf32>, tensor<1x32x14x14xf32>, tensor<1x32x14x14xf32>, tensor<1x32x14x14xf32>) -> tensor<1x928x14x14xf32>
    %819 = crt.constant : () -> tensor<928x1x1xf32>
    %820 = crt.mul %818, %819 : (tensor<1x928x14x14xf32>, tensor<928x1x1xf32>) -> tensor<1x928x14x14xf32>
    %821 = crt.constant : () -> tensor<928x1x1xf32>
    %822 = crt.add %820, %821 : (tensor<1x928x14x14xf32>, tensor<928x1x1xf32>) -> tensor<1x928x14x14xf32>
    %823 = crt.relu %822 : (tensor<1x928x14x14xf32>) -> tensor<1x928x14x14xf32>
    %824 = crt.constant : () -> tensor<3xi64>
    %825 = crt.reshape %823, %824 : (tensor<1x928x14x14xf32>, tensor<3xi64>) -> tensor<1x928x196xf32>
    %826 = crt.constant : () -> tensor<2xi64>
    %827 = crt.reshape %105, %826 : (tensor<128x928x1x1xf32>, tensor<2xi64>) -> tensor<128x928xf32>
    %828 = crt.matmul %827, %825 : (tensor<128x928xf32>, tensor<1x928x196xf32>) -> tensor<1x128x196xf32>
    %829 = crt.constant : () -> tensor<1x128x1xf32>
    %830 = crt.add %828, %829 : (tensor<1x128x196xf32>, tensor<1x128x1xf32>) -> tensor<1x128x196xf32>
    %831 = crt.constant : () -> tensor<4xi64>
    %832 = crt.reshape %830, %831 : (tensor<1x128x196xf32>, tensor<4xi64>) -> tensor<1x128x14x14xf32>
    %833 = crt.relu %832 : (tensor<1x128x14x14xf32>) -> tensor<1x128x14x14xf32>
    %834 = "onnx.Conv"(%833, %42, %0) {auto_pad = "NOTSET", dilations = [1, 1], group = 1 : si64, kernel_shape = [3, 3], onnx_node_name = "Conv_256", pads = [1, 1, 1, 1], strides = [1, 1]} : (tensor<1x128x14x14xf32>, tensor<32x128x3x3xf32>, tensor<32xf32>) -> tensor<1x32x14x14xf32>
    %835 = crt.concat %460, %477, %494, %511, %528, %545, %562, %579, %596, %613, %630, %647, %664, %681, %698, %715, %732, %749, %766, %783, %800, %817, %834 : (tensor<1x256x14x14xf32>, tensor<1x32x14x14xf32>, tensor<1x32x14x14xf32>, tensor<1x32x14x14xf32>, tensor<1x32x14x14xf32>, tensor<1x32x14x14xf32>, tensor<1x32x14x14xf32>, tensor<1x32x14x14xf32>, tensor<1x32x14x14xf32>, tensor<1x32x14x14xf32>, tensor<1x32x14x14xf32>, tensor<1x32x14x14xf32>, tensor<1x32x14x14xf32>, tensor<1x32x14x14xf32>, tensor<1x32x14x14xf32>, tensor<1x32x14x14xf32>, tensor<1x32x14x14xf32>, tensor<1x32x14x14xf32>, tensor<1x32x14x14xf32>, tensor<1x32x14x14xf32>, tensor<1x32x14x14xf32>, tensor<1x32x14x14xf32>, tensor<1x32x14x14xf32>) -> tensor<1x960x14x14xf32>
    %836 = crt.constant : () -> tensor<960x1x1xf32>
    %837 = crt.mul %835, %836 : (tensor<1x960x14x14xf32>, tensor<960x1x1xf32>) -> tensor<1x960x14x14xf32>
    %838 = crt.constant : () -> tensor<960x1x1xf32>
    %839 = crt.add %837, %838 : (tensor<1x960x14x14xf32>, tensor<960x1x1xf32>) -> tensor<1x960x14x14xf32>
    %840 = crt.relu %839 : (tensor<1x960x14x14xf32>) -> tensor<1x960x14x14xf32>
    %841 = crt.constant : () -> tensor<3xi64>
    %842 = crt.reshape %840, %841 : (tensor<1x960x14x14xf32>, tensor<3xi64>) -> tensor<1x960x196xf32>
    %843 = crt.constant : () -> tensor<2xi64>
    %844 = crt.reshape %106, %843 : (tensor<128x960x1x1xf32>, tensor<2xi64>) -> tensor<128x960xf32>
    %845 = crt.matmul %844, %842 : (tensor<128x960xf32>, tensor<1x960x196xf32>) -> tensor<1x128x196xf32>
    %846 = crt.constant : () -> tensor<1x128x1xf32>
    %847 = crt.add %845, %846 : (tensor<1x128x196xf32>, tensor<1x128x1xf32>) -> tensor<1x128x196xf32>
    %848 = crt.constant : () -> tensor<4xi64>
    %849 = crt.reshape %847, %848 : (tensor<1x128x196xf32>, tensor<4xi64>) -> tensor<1x128x14x14xf32>
    %850 = crt.relu %849 : (tensor<1x128x14x14xf32>) -> tensor<1x128x14x14xf32>
    %851 = "onnx.Conv"(%850, %43, %0) {auto_pad = "NOTSET", dilations = [1, 1], group = 1 : si64, kernel_shape = [3, 3], onnx_node_name = "Conv_262", pads = [1, 1, 1, 1], strides = [1, 1]} : (tensor<1x128x14x14xf32>, tensor<32x128x3x3xf32>, tensor<32xf32>) -> tensor<1x32x14x14xf32>
    %852 = crt.concat %460, %477, %494, %511, %528, %545, %562, %579, %596, %613, %630, %647, %664, %681, %698, %715, %732, %749, %766, %783, %800, %817, %834, %851 : (tensor<1x256x14x14xf32>, tensor<1x32x14x14xf32>, tensor<1x32x14x14xf32>, tensor<1x32x14x14xf32>, tensor<1x32x14x14xf32>, tensor<1x32x14x14xf32>, tensor<1x32x14x14xf32>, tensor<1x32x14x14xf32>, tensor<1x32x14x14xf32>, tensor<1x32x14x14xf32>, tensor<1x32x14x14xf32>, tensor<1x32x14x14xf32>, tensor<1x32x14x14xf32>, tensor<1x32x14x14xf32>, tensor<1x32x14x14xf32>, tensor<1x32x14x14xf32>, tensor<1x32x14x14xf32>, tensor<1x32x14x14xf32>, tensor<1x32x14x14xf32>, tensor<1x32x14x14xf32>, tensor<1x32x14x14xf32>, tensor<1x32x14x14xf32>, tensor<1x32x14x14xf32>, tensor<1x32x14x14xf32>) -> tensor<1x992x14x14xf32>
    %853 = crt.constant : () -> tensor<992x1x1xf32>
    %854 = crt.mul %852, %853 : (tensor<1x992x14x14xf32>, tensor<992x1x1xf32>) -> tensor<1x992x14x14xf32>
    %855 = crt.constant : () -> tensor<992x1x1xf32>
    %856 = crt.add %854, %855 : (tensor<1x992x14x14xf32>, tensor<992x1x1xf32>) -> tensor<1x992x14x14xf32>
    %857 = crt.relu %856 : (tensor<1x992x14x14xf32>) -> tensor<1x992x14x14xf32>
    %858 = crt.constant : () -> tensor<3xi64>
    %859 = crt.reshape %857, %858 : (tensor<1x992x14x14xf32>, tensor<3xi64>) -> tensor<1x992x196xf32>
    %860 = crt.constant : () -> tensor<2xi64>
    %861 = crt.reshape %107, %860 : (tensor<128x992x1x1xf32>, tensor<2xi64>) -> tensor<128x992xf32>
    %862 = crt.matmul %861, %859 : (tensor<128x992xf32>, tensor<1x992x196xf32>) -> tensor<1x128x196xf32>
    %863 = crt.constant : () -> tensor<1x128x1xf32>
    %864 = crt.add %862, %863 : (tensor<1x128x196xf32>, tensor<1x128x1xf32>) -> tensor<1x128x196xf32>
    %865 = crt.constant : () -> tensor<4xi64>
    %866 = crt.reshape %864, %865 : (tensor<1x128x196xf32>, tensor<4xi64>) -> tensor<1x128x14x14xf32>
    %867 = crt.relu %866 : (tensor<1x128x14x14xf32>) -> tensor<1x128x14x14xf32>
    %868 = "onnx.Conv"(%867, %44, %0) {auto_pad = "NOTSET", dilations = [1, 1], group = 1 : si64, kernel_shape = [3, 3], onnx_node_name = "Conv_268", pads = [1, 1, 1, 1], strides = [1, 1]} : (tensor<1x128x14x14xf32>, tensor<32x128x3x3xf32>, tensor<32xf32>) -> tensor<1x32x14x14xf32>
    %869 = crt.concat %460, %477, %494, %511, %528, %545, %562, %579, %596, %613, %630, %647, %664, %681, %698, %715, %732, %749, %766, %783, %800, %817, %834, %851, %868 : (tensor<1x256x14x14xf32>, tensor<1x32x14x14xf32>, tensor<1x32x14x14xf32>, tensor<1x32x14x14xf32>, tensor<1x32x14x14xf32>, tensor<1x32x14x14xf32>, tensor<1x32x14x14xf32>, tensor<1x32x14x14xf32>, tensor<1x32x14x14xf32>, tensor<1x32x14x14xf32>, tensor<1x32x14x14xf32>, tensor<1x32x14x14xf32>, tensor<1x32x14x14xf32>, tensor<1x32x14x14xf32>, tensor<1x32x14x14xf32>, tensor<1x32x14x14xf32>, tensor<1x32x14x14xf32>, tensor<1x32x14x14xf32>, tensor<1x32x14x14xf32>, tensor<1x32x14x14xf32>, tensor<1x32x14x14xf32>, tensor<1x32x14x14xf32>, tensor<1x32x14x14xf32>, tensor<1x32x14x14xf32>, tensor<1x32x14x14xf32>) -> tensor<1x1024x14x14xf32>
    %870 = crt.constant : () -> tensor<1024x1x1xf32>
    %871 = crt.mul %869, %870 : (tensor<1x1024x14x14xf32>, tensor<1024x1x1xf32>) -> tensor<1x1024x14x14xf32>
    %872 = crt.constant : () -> tensor<1024x1x1xf32>
    %873 = crt.add %871, %872 : (tensor<1x1024x14x14xf32>, tensor<1024x1x1xf32>) -> tensor<1x1024x14x14xf32>
    %874 = crt.relu %873 : (tensor<1x1024x14x14xf32>) -> tensor<1x1024x14x14xf32>
    %875 = crt.constant : () -> tensor<3xi64>
    %876 = crt.reshape %874, %875 : (tensor<1x1024x14x14xf32>, tensor<3xi64>) -> tensor<1x1024x196xf32>
    %877 = crt.constant : () -> tensor<2xi64>
    %878 = crt.reshape %45, %877 : (tensor<512x1024x1x1xf32>, tensor<2xi64>) -> tensor<512x1024xf32>
    %879 = crt.matmul %878, %876 : (tensor<512x1024xf32>, tensor<1x1024x196xf32>) -> tensor<1x512x196xf32>
    %880 = crt.constant : () -> tensor<4xi64>
    %881 = crt.reshape %879, %880 : (tensor<1x512x196xf32>, tensor<4xi64>) -> tensor<1x512x14x14xf32>
    %882 = crt.avgpool %881 : (tensor<1x512x14x14xf32>) -> tensor<1x512x7x7xf32>
    %883 = crt.concat %882 : (tensor<1x512x7x7xf32>) -> tensor<1x512x7x7xf32>
    %884 = crt.constant : () -> tensor<512x1x1xf32>
    %885 = crt.mul %883, %884 : (tensor<1x512x7x7xf32>, tensor<512x1x1xf32>) -> tensor<1x512x7x7xf32>
    %886 = crt.constant : () -> tensor<512x1x1xf32>
    %887 = crt.add %885, %886 : (tensor<1x512x7x7xf32>, tensor<512x1x1xf32>) -> tensor<1x512x7x7xf32>
    %888 = crt.relu %887 : (tensor<1x512x7x7xf32>) -> tensor<1x512x7x7xf32>
    %889 = crt.constant : () -> tensor<3xi64>
    %890 = crt.reshape %888, %889 : (tensor<1x512x7x7xf32>, tensor<3xi64>) -> tensor<1x512x49xf32>
    %891 = crt.constant : () -> tensor<2xi64>
    %892 = crt.reshape %108, %891 : (tensor<128x512x1x1xf32>, tensor<2xi64>) -> tensor<128x512xf32>
    %893 = crt.matmul %892, %890 : (tensor<128x512xf32>, tensor<1x512x49xf32>) -> tensor<1x128x49xf32>
    %894 = crt.constant : () -> tensor<1x128x1xf32>
    %895 = crt.add %893, %894 : (tensor<1x128x49xf32>, tensor<1x128x1xf32>) -> tensor<1x128x49xf32>
    %896 = crt.constant : () -> tensor<4xi64>
    %897 = crt.reshape %895, %896 : (tensor<1x128x49xf32>, tensor<4xi64>) -> tensor<1x128x7x7xf32>
    %898 = crt.relu %897 : (tensor<1x128x7x7xf32>) -> tensor<1x128x7x7xf32>
    %899 = "onnx.Conv"(%898, %46, %0) {auto_pad = "NOTSET", dilations = [1, 1], group = 1 : si64, kernel_shape = [3, 3], onnx_node_name = "Conv_281", pads = [1, 1, 1, 1], strides = [1, 1]} : (tensor<1x128x7x7xf32>, tensor<32x128x3x3xf32>, tensor<32xf32>) -> tensor<1x32x7x7xf32>
    %900 = crt.concat %882, %899 : (tensor<1x512x7x7xf32>, tensor<1x32x7x7xf32>) -> tensor<1x544x7x7xf32>
    %901 = crt.constant : () -> tensor<544x1x1xf32>
    %902 = crt.mul %900, %901 : (tensor<1x544x7x7xf32>, tensor<544x1x1xf32>) -> tensor<1x544x7x7xf32>
    %903 = crt.constant : () -> tensor<544x1x1xf32>
    %904 = crt.add %902, %903 : (tensor<1x544x7x7xf32>, tensor<544x1x1xf32>) -> tensor<1x544x7x7xf32>
    %905 = crt.relu %904 : (tensor<1x544x7x7xf32>) -> tensor<1x544x7x7xf32>
    %906 = crt.constant : () -> tensor<3xi64>
    %907 = crt.reshape %905, %906 : (tensor<1x544x7x7xf32>, tensor<3xi64>) -> tensor<1x544x49xf32>
    %908 = crt.constant : () -> tensor<2xi64>
    %909 = crt.reshape %109, %908 : (tensor<128x544x1x1xf32>, tensor<2xi64>) -> tensor<128x544xf32>
    %910 = crt.matmul %909, %907 : (tensor<128x544xf32>, tensor<1x544x49xf32>) -> tensor<1x128x49xf32>
    %911 = crt.constant : () -> tensor<1x128x1xf32>
    %912 = crt.add %910, %911 : (tensor<1x128x49xf32>, tensor<1x128x1xf32>) -> tensor<1x128x49xf32>
    %913 = crt.constant : () -> tensor<4xi64>
    %914 = crt.reshape %912, %913 : (tensor<1x128x49xf32>, tensor<4xi64>) -> tensor<1x128x7x7xf32>
    %915 = crt.relu %914 : (tensor<1x128x7x7xf32>) -> tensor<1x128x7x7xf32>
    %916 = "onnx.Conv"(%915, %47, %0) {auto_pad = "NOTSET", dilations = [1, 1], group = 1 : si64, kernel_shape = [3, 3], onnx_node_name = "Conv_287", pads = [1, 1, 1, 1], strides = [1, 1]} : (tensor<1x128x7x7xf32>, tensor<32x128x3x3xf32>, tensor<32xf32>) -> tensor<1x32x7x7xf32>
    %917 = crt.concat %882, %899, %916 : (tensor<1x512x7x7xf32>, tensor<1x32x7x7xf32>, tensor<1x32x7x7xf32>) -> tensor<1x576x7x7xf32>
    %918 = crt.constant : () -> tensor<576x1x1xf32>
    %919 = crt.mul %917, %918 : (tensor<1x576x7x7xf32>, tensor<576x1x1xf32>) -> tensor<1x576x7x7xf32>
    %920 = crt.constant : () -> tensor<576x1x1xf32>
    %921 = crt.add %919, %920 : (tensor<1x576x7x7xf32>, tensor<576x1x1xf32>) -> tensor<1x576x7x7xf32>
    %922 = crt.relu %921 : (tensor<1x576x7x7xf32>) -> tensor<1x576x7x7xf32>
    %923 = crt.constant : () -> tensor<3xi64>
    %924 = crt.reshape %922, %923 : (tensor<1x576x7x7xf32>, tensor<3xi64>) -> tensor<1x576x49xf32>
    %925 = crt.constant : () -> tensor<2xi64>
    %926 = crt.reshape %110, %925 : (tensor<128x576x1x1xf32>, tensor<2xi64>) -> tensor<128x576xf32>
    %927 = crt.matmul %926, %924 : (tensor<128x576xf32>, tensor<1x576x49xf32>) -> tensor<1x128x49xf32>
    %928 = crt.constant : () -> tensor<1x128x1xf32>
    %929 = crt.add %927, %928 : (tensor<1x128x49xf32>, tensor<1x128x1xf32>) -> tensor<1x128x49xf32>
    %930 = crt.constant : () -> tensor<4xi64>
    %931 = crt.reshape %929, %930 : (tensor<1x128x49xf32>, tensor<4xi64>) -> tensor<1x128x7x7xf32>
    %932 = crt.relu %931 : (tensor<1x128x7x7xf32>) -> tensor<1x128x7x7xf32>
    %933 = "onnx.Conv"(%932, %48, %0) {auto_pad = "NOTSET", dilations = [1, 1], group = 1 : si64, kernel_shape = [3, 3], onnx_node_name = "Conv_293", pads = [1, 1, 1, 1], strides = [1, 1]} : (tensor<1x128x7x7xf32>, tensor<32x128x3x3xf32>, tensor<32xf32>) -> tensor<1x32x7x7xf32>
    %934 = crt.concat %882, %899, %916, %933 : (tensor<1x512x7x7xf32>, tensor<1x32x7x7xf32>, tensor<1x32x7x7xf32>, tensor<1x32x7x7xf32>) -> tensor<1x608x7x7xf32>
    %935 = crt.constant : () -> tensor<608x1x1xf32>
    %936 = crt.mul %934, %935 : (tensor<1x608x7x7xf32>, tensor<608x1x1xf32>) -> tensor<1x608x7x7xf32>
    %937 = crt.constant : () -> tensor<608x1x1xf32>
    %938 = crt.add %936, %937 : (tensor<1x608x7x7xf32>, tensor<608x1x1xf32>) -> tensor<1x608x7x7xf32>
    %939 = crt.relu %938 : (tensor<1x608x7x7xf32>) -> tensor<1x608x7x7xf32>
    %940 = crt.constant : () -> tensor<3xi64>
    %941 = crt.reshape %939, %940 : (tensor<1x608x7x7xf32>, tensor<3xi64>) -> tensor<1x608x49xf32>
    %942 = crt.constant : () -> tensor<2xi64>
    %943 = crt.reshape %111, %942 : (tensor<128x608x1x1xf32>, tensor<2xi64>) -> tensor<128x608xf32>
    %944 = crt.matmul %943, %941 : (tensor<128x608xf32>, tensor<1x608x49xf32>) -> tensor<1x128x49xf32>
    %945 = crt.constant : () -> tensor<1x128x1xf32>
    %946 = crt.add %944, %945 : (tensor<1x128x49xf32>, tensor<1x128x1xf32>) -> tensor<1x128x49xf32>
    %947 = crt.constant : () -> tensor<4xi64>
    %948 = crt.reshape %946, %947 : (tensor<1x128x49xf32>, tensor<4xi64>) -> tensor<1x128x7x7xf32>
    %949 = crt.relu %948 : (tensor<1x128x7x7xf32>) -> tensor<1x128x7x7xf32>
    %950 = "onnx.Conv"(%949, %49, %0) {auto_pad = "NOTSET", dilations = [1, 1], group = 1 : si64, kernel_shape = [3, 3], onnx_node_name = "Conv_299", pads = [1, 1, 1, 1], strides = [1, 1]} : (tensor<1x128x7x7xf32>, tensor<32x128x3x3xf32>, tensor<32xf32>) -> tensor<1x32x7x7xf32>
    %951 = crt.concat %882, %899, %916, %933, %950 : (tensor<1x512x7x7xf32>, tensor<1x32x7x7xf32>, tensor<1x32x7x7xf32>, tensor<1x32x7x7xf32>, tensor<1x32x7x7xf32>) -> tensor<1x640x7x7xf32>
    %952 = crt.constant : () -> tensor<640x1x1xf32>
    %953 = crt.mul %951, %952 : (tensor<1x640x7x7xf32>, tensor<640x1x1xf32>) -> tensor<1x640x7x7xf32>
    %954 = crt.constant : () -> tensor<640x1x1xf32>
    %955 = crt.add %953, %954 : (tensor<1x640x7x7xf32>, tensor<640x1x1xf32>) -> tensor<1x640x7x7xf32>
    %956 = crt.relu %955 : (tensor<1x640x7x7xf32>) -> tensor<1x640x7x7xf32>
    %957 = crt.constant : () -> tensor<3xi64>
    %958 = crt.reshape %956, %957 : (tensor<1x640x7x7xf32>, tensor<3xi64>) -> tensor<1x640x49xf32>
    %959 = crt.constant : () -> tensor<2xi64>
    %960 = crt.reshape %112, %959 : (tensor<128x640x1x1xf32>, tensor<2xi64>) -> tensor<128x640xf32>
    %961 = crt.matmul %960, %958 : (tensor<128x640xf32>, tensor<1x640x49xf32>) -> tensor<1x128x49xf32>
    %962 = crt.constant : () -> tensor<1x128x1xf32>
    %963 = crt.add %961, %962 : (tensor<1x128x49xf32>, tensor<1x128x1xf32>) -> tensor<1x128x49xf32>
    %964 = crt.constant : () -> tensor<4xi64>
    %965 = crt.reshape %963, %964 : (tensor<1x128x49xf32>, tensor<4xi64>) -> tensor<1x128x7x7xf32>
    %966 = crt.relu %965 : (tensor<1x128x7x7xf32>) -> tensor<1x128x7x7xf32>
    %967 = "onnx.Conv"(%966, %50, %0) {auto_pad = "NOTSET", dilations = [1, 1], group = 1 : si64, kernel_shape = [3, 3], onnx_node_name = "Conv_305", pads = [1, 1, 1, 1], strides = [1, 1]} : (tensor<1x128x7x7xf32>, tensor<32x128x3x3xf32>, tensor<32xf32>) -> tensor<1x32x7x7xf32>
    %968 = crt.concat %882, %899, %916, %933, %950, %967 : (tensor<1x512x7x7xf32>, tensor<1x32x7x7xf32>, tensor<1x32x7x7xf32>, tensor<1x32x7x7xf32>, tensor<1x32x7x7xf32>, tensor<1x32x7x7xf32>) -> tensor<1x672x7x7xf32>
    %969 = crt.constant : () -> tensor<672x1x1xf32>
    %970 = crt.mul %968, %969 : (tensor<1x672x7x7xf32>, tensor<672x1x1xf32>) -> tensor<1x672x7x7xf32>
    %971 = crt.constant : () -> tensor<672x1x1xf32>
    %972 = crt.add %970, %971 : (tensor<1x672x7x7xf32>, tensor<672x1x1xf32>) -> tensor<1x672x7x7xf32>
    %973 = crt.relu %972 : (tensor<1x672x7x7xf32>) -> tensor<1x672x7x7xf32>
    %974 = crt.constant : () -> tensor<3xi64>
    %975 = crt.reshape %973, %974 : (tensor<1x672x7x7xf32>, tensor<3xi64>) -> tensor<1x672x49xf32>
    %976 = crt.constant : () -> tensor<2xi64>
    %977 = crt.reshape %113, %976 : (tensor<128x672x1x1xf32>, tensor<2xi64>) -> tensor<128x672xf32>
    %978 = crt.matmul %977, %975 : (tensor<128x672xf32>, tensor<1x672x49xf32>) -> tensor<1x128x49xf32>
    %979 = crt.constant : () -> tensor<1x128x1xf32>
    %980 = crt.add %978, %979 : (tensor<1x128x49xf32>, tensor<1x128x1xf32>) -> tensor<1x128x49xf32>
    %981 = crt.constant : () -> tensor<4xi64>
    %982 = crt.reshape %980, %981 : (tensor<1x128x49xf32>, tensor<4xi64>) -> tensor<1x128x7x7xf32>
    %983 = crt.relu %982 : (tensor<1x128x7x7xf32>) -> tensor<1x128x7x7xf32>
    %984 = "onnx.Conv"(%983, %51, %0) {auto_pad = "NOTSET", dilations = [1, 1], group = 1 : si64, kernel_shape = [3, 3], onnx_node_name = "Conv_311", pads = [1, 1, 1, 1], strides = [1, 1]} : (tensor<1x128x7x7xf32>, tensor<32x128x3x3xf32>, tensor<32xf32>) -> tensor<1x32x7x7xf32>
    %985 = crt.concat %882, %899, %916, %933, %950, %967, %984 : (tensor<1x512x7x7xf32>, tensor<1x32x7x7xf32>, tensor<1x32x7x7xf32>, tensor<1x32x7x7xf32>, tensor<1x32x7x7xf32>, tensor<1x32x7x7xf32>, tensor<1x32x7x7xf32>) -> tensor<1x704x7x7xf32>
    %986 = crt.constant : () -> tensor<704x1x1xf32>
    %987 = crt.mul %985, %986 : (tensor<1x704x7x7xf32>, tensor<704x1x1xf32>) -> tensor<1x704x7x7xf32>
    %988 = crt.constant : () -> tensor<704x1x1xf32>
    %989 = crt.add %987, %988 : (tensor<1x704x7x7xf32>, tensor<704x1x1xf32>) -> tensor<1x704x7x7xf32>
    %990 = crt.relu %989 : (tensor<1x704x7x7xf32>) -> tensor<1x704x7x7xf32>
    %991 = crt.constant : () -> tensor<3xi64>
    %992 = crt.reshape %990, %991 : (tensor<1x704x7x7xf32>, tensor<3xi64>) -> tensor<1x704x49xf32>
    %993 = crt.constant : () -> tensor<2xi64>
    %994 = crt.reshape %114, %993 : (tensor<128x704x1x1xf32>, tensor<2xi64>) -> tensor<128x704xf32>
    %995 = crt.matmul %994, %992 : (tensor<128x704xf32>, tensor<1x704x49xf32>) -> tensor<1x128x49xf32>
    %996 = crt.constant : () -> tensor<1x128x1xf32>
    %997 = crt.add %995, %996 : (tensor<1x128x49xf32>, tensor<1x128x1xf32>) -> tensor<1x128x49xf32>
    %998 = crt.constant : () -> tensor<4xi64>
    %999 = crt.reshape %997, %998 : (tensor<1x128x49xf32>, tensor<4xi64>) -> tensor<1x128x7x7xf32>
    %1000 = crt.relu %999 : (tensor<1x128x7x7xf32>) -> tensor<1x128x7x7xf32>
    %1001 = "onnx.Conv"(%1000, %52, %0) {auto_pad = "NOTSET", dilations = [1, 1], group = 1 : si64, kernel_shape = [3, 3], onnx_node_name = "Conv_317", pads = [1, 1, 1, 1], strides = [1, 1]} : (tensor<1x128x7x7xf32>, tensor<32x128x3x3xf32>, tensor<32xf32>) -> tensor<1x32x7x7xf32>
    %1002 = crt.concat %882, %899, %916, %933, %950, %967, %984, %1001 : (tensor<1x512x7x7xf32>, tensor<1x32x7x7xf32>, tensor<1x32x7x7xf32>, tensor<1x32x7x7xf32>, tensor<1x32x7x7xf32>, tensor<1x32x7x7xf32>, tensor<1x32x7x7xf32>, tensor<1x32x7x7xf32>) -> tensor<1x736x7x7xf32>
    %1003 = crt.constant : () -> tensor<736x1x1xf32>
    %1004 = crt.mul %1002, %1003 : (tensor<1x736x7x7xf32>, tensor<736x1x1xf32>) -> tensor<1x736x7x7xf32>
    %1005 = crt.constant : () -> tensor<736x1x1xf32>
    %1006 = crt.add %1004, %1005 : (tensor<1x736x7x7xf32>, tensor<736x1x1xf32>) -> tensor<1x736x7x7xf32>
    %1007 = crt.relu %1006 : (tensor<1x736x7x7xf32>) -> tensor<1x736x7x7xf32>
    %1008 = crt.constant : () -> tensor<3xi64>
    %1009 = crt.reshape %1007, %1008 : (tensor<1x736x7x7xf32>, tensor<3xi64>) -> tensor<1x736x49xf32>
    %1010 = crt.constant : () -> tensor<2xi64>
    %1011 = crt.reshape %115, %1010 : (tensor<128x736x1x1xf32>, tensor<2xi64>) -> tensor<128x736xf32>
    %1012 = crt.matmul %1011, %1009 : (tensor<128x736xf32>, tensor<1x736x49xf32>) -> tensor<1x128x49xf32>
    %1013 = crt.constant : () -> tensor<1x128x1xf32>
    %1014 = crt.add %1012, %1013 : (tensor<1x128x49xf32>, tensor<1x128x1xf32>) -> tensor<1x128x49xf32>
    %1015 = crt.constant : () -> tensor<4xi64>
    %1016 = crt.reshape %1014, %1015 : (tensor<1x128x49xf32>, tensor<4xi64>) -> tensor<1x128x7x7xf32>
    %1017 = crt.relu %1016 : (tensor<1x128x7x7xf32>) -> tensor<1x128x7x7xf32>
    %1018 = "onnx.Conv"(%1017, %53, %0) {auto_pad = "NOTSET", dilations = [1, 1], group = 1 : si64, kernel_shape = [3, 3], onnx_node_name = "Conv_323", pads = [1, 1, 1, 1], strides = [1, 1]} : (tensor<1x128x7x7xf32>, tensor<32x128x3x3xf32>, tensor<32xf32>) -> tensor<1x32x7x7xf32>
    %1019 = crt.concat %882, %899, %916, %933, %950, %967, %984, %1001, %1018 : (tensor<1x512x7x7xf32>, tensor<1x32x7x7xf32>, tensor<1x32x7x7xf32>, tensor<1x32x7x7xf32>, tensor<1x32x7x7xf32>, tensor<1x32x7x7xf32>, tensor<1x32x7x7xf32>, tensor<1x32x7x7xf32>, tensor<1x32x7x7xf32>) -> tensor<1x768x7x7xf32>
    %1020 = crt.constant : () -> tensor<768x1x1xf32>
    %1021 = crt.mul %1019, %1020 : (tensor<1x768x7x7xf32>, tensor<768x1x1xf32>) -> tensor<1x768x7x7xf32>
    %1022 = crt.constant : () -> tensor<768x1x1xf32>
    %1023 = crt.add %1021, %1022 : (tensor<1x768x7x7xf32>, tensor<768x1x1xf32>) -> tensor<1x768x7x7xf32>
    %1024 = crt.relu %1023 : (tensor<1x768x7x7xf32>) -> tensor<1x768x7x7xf32>
    %1025 = crt.constant : () -> tensor<3xi64>
    %1026 = crt.reshape %1024, %1025 : (tensor<1x768x7x7xf32>, tensor<3xi64>) -> tensor<1x768x49xf32>
    %1027 = crt.constant : () -> tensor<2xi64>
    %1028 = crt.reshape %116, %1027 : (tensor<128x768x1x1xf32>, tensor<2xi64>) -> tensor<128x768xf32>
    %1029 = crt.matmul %1028, %1026 : (tensor<128x768xf32>, tensor<1x768x49xf32>) -> tensor<1x128x49xf32>
    %1030 = crt.constant : () -> tensor<1x128x1xf32>
    %1031 = crt.add %1029, %1030 : (tensor<1x128x49xf32>, tensor<1x128x1xf32>) -> tensor<1x128x49xf32>
    %1032 = crt.constant : () -> tensor<4xi64>
    %1033 = crt.reshape %1031, %1032 : (tensor<1x128x49xf32>, tensor<4xi64>) -> tensor<1x128x7x7xf32>
    %1034 = crt.relu %1033 : (tensor<1x128x7x7xf32>) -> tensor<1x128x7x7xf32>
    %1035 = "onnx.Conv"(%1034, %54, %0) {auto_pad = "NOTSET", dilations = [1, 1], group = 1 : si64, kernel_shape = [3, 3], onnx_node_name = "Conv_329", pads = [1, 1, 1, 1], strides = [1, 1]} : (tensor<1x128x7x7xf32>, tensor<32x128x3x3xf32>, tensor<32xf32>) -> tensor<1x32x7x7xf32>
    %1036 = crt.concat %882, %899, %916, %933, %950, %967, %984, %1001, %1018, %1035 : (tensor<1x512x7x7xf32>, tensor<1x32x7x7xf32>, tensor<1x32x7x7xf32>, tensor<1x32x7x7xf32>, tensor<1x32x7x7xf32>, tensor<1x32x7x7xf32>, tensor<1x32x7x7xf32>, tensor<1x32x7x7xf32>, tensor<1x32x7x7xf32>, tensor<1x32x7x7xf32>) -> tensor<1x800x7x7xf32>
    %1037 = crt.constant : () -> tensor<800x1x1xf32>
    %1038 = crt.mul %1036, %1037 : (tensor<1x800x7x7xf32>, tensor<800x1x1xf32>) -> tensor<1x800x7x7xf32>
    %1039 = crt.constant : () -> tensor<800x1x1xf32>
    %1040 = crt.add %1038, %1039 : (tensor<1x800x7x7xf32>, tensor<800x1x1xf32>) -> tensor<1x800x7x7xf32>
    %1041 = crt.relu %1040 : (tensor<1x800x7x7xf32>) -> tensor<1x800x7x7xf32>
    %1042 = crt.constant : () -> tensor<3xi64>
    %1043 = crt.reshape %1041, %1042 : (tensor<1x800x7x7xf32>, tensor<3xi64>) -> tensor<1x800x49xf32>
    %1044 = crt.constant : () -> tensor<2xi64>
    %1045 = crt.reshape %117, %1044 : (tensor<128x800x1x1xf32>, tensor<2xi64>) -> tensor<128x800xf32>
    %1046 = crt.matmul %1045, %1043 : (tensor<128x800xf32>, tensor<1x800x49xf32>) -> tensor<1x128x49xf32>
    %1047 = crt.constant : () -> tensor<1x128x1xf32>
    %1048 = crt.add %1046, %1047 : (tensor<1x128x49xf32>, tensor<1x128x1xf32>) -> tensor<1x128x49xf32>
    %1049 = crt.constant : () -> tensor<4xi64>
    %1050 = crt.reshape %1048, %1049 : (tensor<1x128x49xf32>, tensor<4xi64>) -> tensor<1x128x7x7xf32>
    %1051 = crt.relu %1050 : (tensor<1x128x7x7xf32>) -> tensor<1x128x7x7xf32>
    %1052 = "onnx.Conv"(%1051, %55, %0) {auto_pad = "NOTSET", dilations = [1, 1], group = 1 : si64, kernel_shape = [3, 3], onnx_node_name = "Conv_335", pads = [1, 1, 1, 1], strides = [1, 1]} : (tensor<1x128x7x7xf32>, tensor<32x128x3x3xf32>, tensor<32xf32>) -> tensor<1x32x7x7xf32>
    %1053 = crt.concat %882, %899, %916, %933, %950, %967, %984, %1001, %1018, %1035, %1052 : (tensor<1x512x7x7xf32>, tensor<1x32x7x7xf32>, tensor<1x32x7x7xf32>, tensor<1x32x7x7xf32>, tensor<1x32x7x7xf32>, tensor<1x32x7x7xf32>, tensor<1x32x7x7xf32>, tensor<1x32x7x7xf32>, tensor<1x32x7x7xf32>, tensor<1x32x7x7xf32>, tensor<1x32x7x7xf32>) -> tensor<1x832x7x7xf32>
    %1054 = crt.constant : () -> tensor<832x1x1xf32>
    %1055 = crt.mul %1053, %1054 : (tensor<1x832x7x7xf32>, tensor<832x1x1xf32>) -> tensor<1x832x7x7xf32>
    %1056 = crt.constant : () -> tensor<832x1x1xf32>
    %1057 = crt.add %1055, %1056 : (tensor<1x832x7x7xf32>, tensor<832x1x1xf32>) -> tensor<1x832x7x7xf32>
    %1058 = crt.relu %1057 : (tensor<1x832x7x7xf32>) -> tensor<1x832x7x7xf32>
    %1059 = crt.constant : () -> tensor<3xi64>
    %1060 = crt.reshape %1058, %1059 : (tensor<1x832x7x7xf32>, tensor<3xi64>) -> tensor<1x832x49xf32>
    %1061 = crt.constant : () -> tensor<2xi64>
    %1062 = crt.reshape %118, %1061 : (tensor<128x832x1x1xf32>, tensor<2xi64>) -> tensor<128x832xf32>
    %1063 = crt.matmul %1062, %1060 : (tensor<128x832xf32>, tensor<1x832x49xf32>) -> tensor<1x128x49xf32>
    %1064 = crt.constant : () -> tensor<1x128x1xf32>
    %1065 = crt.add %1063, %1064 : (tensor<1x128x49xf32>, tensor<1x128x1xf32>) -> tensor<1x128x49xf32>
    %1066 = crt.constant : () -> tensor<4xi64>
    %1067 = crt.reshape %1065, %1066 : (tensor<1x128x49xf32>, tensor<4xi64>) -> tensor<1x128x7x7xf32>
    %1068 = crt.relu %1067 : (tensor<1x128x7x7xf32>) -> tensor<1x128x7x7xf32>
    %1069 = "onnx.Conv"(%1068, %56, %0) {auto_pad = "NOTSET", dilations = [1, 1], group = 1 : si64, kernel_shape = [3, 3], onnx_node_name = "Conv_341", pads = [1, 1, 1, 1], strides = [1, 1]} : (tensor<1x128x7x7xf32>, tensor<32x128x3x3xf32>, tensor<32xf32>) -> tensor<1x32x7x7xf32>
    %1070 = crt.concat %882, %899, %916, %933, %950, %967, %984, %1001, %1018, %1035, %1052, %1069 : (tensor<1x512x7x7xf32>, tensor<1x32x7x7xf32>, tensor<1x32x7x7xf32>, tensor<1x32x7x7xf32>, tensor<1x32x7x7xf32>, tensor<1x32x7x7xf32>, tensor<1x32x7x7xf32>, tensor<1x32x7x7xf32>, tensor<1x32x7x7xf32>, tensor<1x32x7x7xf32>, tensor<1x32x7x7xf32>, tensor<1x32x7x7xf32>) -> tensor<1x864x7x7xf32>
    %1071 = crt.constant : () -> tensor<864x1x1xf32>
    %1072 = crt.mul %1070, %1071 : (tensor<1x864x7x7xf32>, tensor<864x1x1xf32>) -> tensor<1x864x7x7xf32>
    %1073 = crt.constant : () -> tensor<864x1x1xf32>
    %1074 = crt.add %1072, %1073 : (tensor<1x864x7x7xf32>, tensor<864x1x1xf32>) -> tensor<1x864x7x7xf32>
    %1075 = crt.relu %1074 : (tensor<1x864x7x7xf32>) -> tensor<1x864x7x7xf32>
    %1076 = crt.constant : () -> tensor<3xi64>
    %1077 = crt.reshape %1075, %1076 : (tensor<1x864x7x7xf32>, tensor<3xi64>) -> tensor<1x864x49xf32>
    %1078 = crt.constant : () -> tensor<2xi64>
    %1079 = crt.reshape %119, %1078 : (tensor<128x864x1x1xf32>, tensor<2xi64>) -> tensor<128x864xf32>
    %1080 = crt.matmul %1079, %1077 : (tensor<128x864xf32>, tensor<1x864x49xf32>) -> tensor<1x128x49xf32>
    %1081 = crt.constant : () -> tensor<1x128x1xf32>
    %1082 = crt.add %1080, %1081 : (tensor<1x128x49xf32>, tensor<1x128x1xf32>) -> tensor<1x128x49xf32>
    %1083 = crt.constant : () -> tensor<4xi64>
    %1084 = crt.reshape %1082, %1083 : (tensor<1x128x49xf32>, tensor<4xi64>) -> tensor<1x128x7x7xf32>
    %1085 = crt.relu %1084 : (tensor<1x128x7x7xf32>) -> tensor<1x128x7x7xf32>
    %1086 = "onnx.Conv"(%1085, %57, %0) {auto_pad = "NOTSET", dilations = [1, 1], group = 1 : si64, kernel_shape = [3, 3], onnx_node_name = "Conv_347", pads = [1, 1, 1, 1], strides = [1, 1]} : (tensor<1x128x7x7xf32>, tensor<32x128x3x3xf32>, tensor<32xf32>) -> tensor<1x32x7x7xf32>
    %1087 = crt.concat %882, %899, %916, %933, %950, %967, %984, %1001, %1018, %1035, %1052, %1069, %1086 : (tensor<1x512x7x7xf32>, tensor<1x32x7x7xf32>, tensor<1x32x7x7xf32>, tensor<1x32x7x7xf32>, tensor<1x32x7x7xf32>, tensor<1x32x7x7xf32>, tensor<1x32x7x7xf32>, tensor<1x32x7x7xf32>, tensor<1x32x7x7xf32>, tensor<1x32x7x7xf32>, tensor<1x32x7x7xf32>, tensor<1x32x7x7xf32>, tensor<1x32x7x7xf32>) -> tensor<1x896x7x7xf32>
    %1088 = crt.constant : () -> tensor<896x1x1xf32>
    %1089 = crt.mul %1087, %1088 : (tensor<1x896x7x7xf32>, tensor<896x1x1xf32>) -> tensor<1x896x7x7xf32>
    %1090 = crt.constant : () -> tensor<896x1x1xf32>
    %1091 = crt.add %1089, %1090 : (tensor<1x896x7x7xf32>, tensor<896x1x1xf32>) -> tensor<1x896x7x7xf32>
    %1092 = crt.relu %1091 : (tensor<1x896x7x7xf32>) -> tensor<1x896x7x7xf32>
    %1093 = crt.constant : () -> tensor<3xi64>
    %1094 = crt.reshape %1092, %1093 : (tensor<1x896x7x7xf32>, tensor<3xi64>) -> tensor<1x896x49xf32>
    %1095 = crt.constant : () -> tensor<2xi64>
    %1096 = crt.reshape %120, %1095 : (tensor<128x896x1x1xf32>, tensor<2xi64>) -> tensor<128x896xf32>
    %1097 = crt.matmul %1096, %1094 : (tensor<128x896xf32>, tensor<1x896x49xf32>) -> tensor<1x128x49xf32>
    %1098 = crt.constant : () -> tensor<1x128x1xf32>
    %1099 = crt.add %1097, %1098 : (tensor<1x128x49xf32>, tensor<1x128x1xf32>) -> tensor<1x128x49xf32>
    %1100 = crt.constant : () -> tensor<4xi64>
    %1101 = crt.reshape %1099, %1100 : (tensor<1x128x49xf32>, tensor<4xi64>) -> tensor<1x128x7x7xf32>
    %1102 = crt.relu %1101 : (tensor<1x128x7x7xf32>) -> tensor<1x128x7x7xf32>
    %1103 = "onnx.Conv"(%1102, %58, %0) {auto_pad = "NOTSET", dilations = [1, 1], group = 1 : si64, kernel_shape = [3, 3], onnx_node_name = "Conv_353", pads = [1, 1, 1, 1], strides = [1, 1]} : (tensor<1x128x7x7xf32>, tensor<32x128x3x3xf32>, tensor<32xf32>) -> tensor<1x32x7x7xf32>
    %1104 = crt.concat %882, %899, %916, %933, %950, %967, %984, %1001, %1018, %1035, %1052, %1069, %1086, %1103 : (tensor<1x512x7x7xf32>, tensor<1x32x7x7xf32>, tensor<1x32x7x7xf32>, tensor<1x32x7x7xf32>, tensor<1x32x7x7xf32>, tensor<1x32x7x7xf32>, tensor<1x32x7x7xf32>, tensor<1x32x7x7xf32>, tensor<1x32x7x7xf32>, tensor<1x32x7x7xf32>, tensor<1x32x7x7xf32>, tensor<1x32x7x7xf32>, tensor<1x32x7x7xf32>, tensor<1x32x7x7xf32>) -> tensor<1x928x7x7xf32>
    %1105 = crt.constant : () -> tensor<928x1x1xf32>
    %1106 = crt.mul %1104, %1105 : (tensor<1x928x7x7xf32>, tensor<928x1x1xf32>) -> tensor<1x928x7x7xf32>
    %1107 = crt.constant : () -> tensor<928x1x1xf32>
    %1108 = crt.add %1106, %1107 : (tensor<1x928x7x7xf32>, tensor<928x1x1xf32>) -> tensor<1x928x7x7xf32>
    %1109 = crt.relu %1108 : (tensor<1x928x7x7xf32>) -> tensor<1x928x7x7xf32>
    %1110 = crt.constant : () -> tensor<3xi64>
    %1111 = crt.reshape %1109, %1110 : (tensor<1x928x7x7xf32>, tensor<3xi64>) -> tensor<1x928x49xf32>
    %1112 = crt.constant : () -> tensor<2xi64>
    %1113 = crt.reshape %121, %1112 : (tensor<128x928x1x1xf32>, tensor<2xi64>) -> tensor<128x928xf32>
    %1114 = crt.matmul %1113, %1111 : (tensor<128x928xf32>, tensor<1x928x49xf32>) -> tensor<1x128x49xf32>
    %1115 = crt.constant : () -> tensor<1x128x1xf32>
    %1116 = crt.add %1114, %1115 : (tensor<1x128x49xf32>, tensor<1x128x1xf32>) -> tensor<1x128x49xf32>
    %1117 = crt.constant : () -> tensor<4xi64>
    %1118 = crt.reshape %1116, %1117 : (tensor<1x128x49xf32>, tensor<4xi64>) -> tensor<1x128x7x7xf32>
    %1119 = crt.relu %1118 : (tensor<1x128x7x7xf32>) -> tensor<1x128x7x7xf32>
    %1120 = "onnx.Conv"(%1119, %59, %0) {auto_pad = "NOTSET", dilations = [1, 1], group = 1 : si64, kernel_shape = [3, 3], onnx_node_name = "Conv_359", pads = [1, 1, 1, 1], strides = [1, 1]} : (tensor<1x128x7x7xf32>, tensor<32x128x3x3xf32>, tensor<32xf32>) -> tensor<1x32x7x7xf32>
    %1121 = crt.concat %882, %899, %916, %933, %950, %967, %984, %1001, %1018, %1035, %1052, %1069, %1086, %1103, %1120 : (tensor<1x512x7x7xf32>, tensor<1x32x7x7xf32>, tensor<1x32x7x7xf32>, tensor<1x32x7x7xf32>, tensor<1x32x7x7xf32>, tensor<1x32x7x7xf32>, tensor<1x32x7x7xf32>, tensor<1x32x7x7xf32>, tensor<1x32x7x7xf32>, tensor<1x32x7x7xf32>, tensor<1x32x7x7xf32>, tensor<1x32x7x7xf32>, tensor<1x32x7x7xf32>, tensor<1x32x7x7xf32>, tensor<1x32x7x7xf32>) -> tensor<1x960x7x7xf32>
    %1122 = crt.constant : () -> tensor<960x1x1xf32>
    %1123 = crt.mul %1121, %1122 : (tensor<1x960x7x7xf32>, tensor<960x1x1xf32>) -> tensor<1x960x7x7xf32>
    %1124 = crt.constant : () -> tensor<960x1x1xf32>
    %1125 = crt.add %1123, %1124 : (tensor<1x960x7x7xf32>, tensor<960x1x1xf32>) -> tensor<1x960x7x7xf32>
    %1126 = crt.relu %1125 : (tensor<1x960x7x7xf32>) -> tensor<1x960x7x7xf32>
    %1127 = crt.constant : () -> tensor<3xi64>
    %1128 = crt.reshape %1126, %1127 : (tensor<1x960x7x7xf32>, tensor<3xi64>) -> tensor<1x960x49xf32>
    %1129 = crt.constant : () -> tensor<2xi64>
    %1130 = crt.reshape %122, %1129 : (tensor<128x960x1x1xf32>, tensor<2xi64>) -> tensor<128x960xf32>
    %1131 = crt.matmul %1130, %1128 : (tensor<128x960xf32>, tensor<1x960x49xf32>) -> tensor<1x128x49xf32>
    %1132 = crt.constant : () -> tensor<1x128x1xf32>
    %1133 = crt.add %1131, %1132 : (tensor<1x128x49xf32>, tensor<1x128x1xf32>) -> tensor<1x128x49xf32>
    %1134 = crt.constant : () -> tensor<4xi64>
    %1135 = crt.reshape %1133, %1134 : (tensor<1x128x49xf32>, tensor<4xi64>) -> tensor<1x128x7x7xf32>
    %1136 = crt.relu %1135 : (tensor<1x128x7x7xf32>) -> tensor<1x128x7x7xf32>
    %1137 = "onnx.Conv"(%1136, %60, %0) {auto_pad = "NOTSET", dilations = [1, 1], group = 1 : si64, kernel_shape = [3, 3], onnx_node_name = "Conv_365", pads = [1, 1, 1, 1], strides = [1, 1]} : (tensor<1x128x7x7xf32>, tensor<32x128x3x3xf32>, tensor<32xf32>) -> tensor<1x32x7x7xf32>
    %1138 = crt.concat %882, %899, %916, %933, %950, %967, %984, %1001, %1018, %1035, %1052, %1069, %1086, %1103, %1120, %1137 : (tensor<1x512x7x7xf32>, tensor<1x32x7x7xf32>, tensor<1x32x7x7xf32>, tensor<1x32x7x7xf32>, tensor<1x32x7x7xf32>, tensor<1x32x7x7xf32>, tensor<1x32x7x7xf32>, tensor<1x32x7x7xf32>, tensor<1x32x7x7xf32>, tensor<1x32x7x7xf32>, tensor<1x32x7x7xf32>, tensor<1x32x7x7xf32>, tensor<1x32x7x7xf32>, tensor<1x32x7x7xf32>, tensor<1x32x7x7xf32>, tensor<1x32x7x7xf32>) -> tensor<1x992x7x7xf32>
    %1139 = crt.constant : () -> tensor<992x1x1xf32>
    %1140 = crt.mul %1138, %1139 : (tensor<1x992x7x7xf32>, tensor<992x1x1xf32>) -> tensor<1x992x7x7xf32>
    %1141 = crt.constant : () -> tensor<992x1x1xf32>
    %1142 = crt.add %1140, %1141 : (tensor<1x992x7x7xf32>, tensor<992x1x1xf32>) -> tensor<1x992x7x7xf32>
    %1143 = crt.relu %1142 : (tensor<1x992x7x7xf32>) -> tensor<1x992x7x7xf32>
    %1144 = crt.constant : () -> tensor<3xi64>
    %1145 = crt.reshape %1143, %1144 : (tensor<1x992x7x7xf32>, tensor<3xi64>) -> tensor<1x992x49xf32>
    %1146 = crt.constant : () -> tensor<2xi64>
    %1147 = crt.reshape %123, %1146 : (tensor<128x992x1x1xf32>, tensor<2xi64>) -> tensor<128x992xf32>
    %1148 = crt.matmul %1147, %1145 : (tensor<128x992xf32>, tensor<1x992x49xf32>) -> tensor<1x128x49xf32>
    %1149 = crt.constant : () -> tensor<1x128x1xf32>
    %1150 = crt.add %1148, %1149 : (tensor<1x128x49xf32>, tensor<1x128x1xf32>) -> tensor<1x128x49xf32>
    %1151 = crt.constant : () -> tensor<4xi64>
    %1152 = crt.reshape %1150, %1151 : (tensor<1x128x49xf32>, tensor<4xi64>) -> tensor<1x128x7x7xf32>
    %1153 = crt.relu %1152 : (tensor<1x128x7x7xf32>) -> tensor<1x128x7x7xf32>
    %1154 = "onnx.Conv"(%1153, %61, %0) {auto_pad = "NOTSET", dilations = [1, 1], group = 1 : si64, kernel_shape = [3, 3], onnx_node_name = "Conv_371", pads = [1, 1, 1, 1], strides = [1, 1]} : (tensor<1x128x7x7xf32>, tensor<32x128x3x3xf32>, tensor<32xf32>) -> tensor<1x32x7x7xf32>
    %1155 = crt.concat %882, %899, %916, %933, %950, %967, %984, %1001, %1018, %1035, %1052, %1069, %1086, %1103, %1120, %1137, %1154 : (tensor<1x512x7x7xf32>, tensor<1x32x7x7xf32>, tensor<1x32x7x7xf32>, tensor<1x32x7x7xf32>, tensor<1x32x7x7xf32>, tensor<1x32x7x7xf32>, tensor<1x32x7x7xf32>, tensor<1x32x7x7xf32>, tensor<1x32x7x7xf32>, tensor<1x32x7x7xf32>, tensor<1x32x7x7xf32>, tensor<1x32x7x7xf32>, tensor<1x32x7x7xf32>, tensor<1x32x7x7xf32>, tensor<1x32x7x7xf32>, tensor<1x32x7x7xf32>, tensor<1x32x7x7xf32>) -> tensor<1x1024x7x7xf32>
    %1156 = crt.constant : () -> tensor<1024x1x1xf32>
    %1157 = crt.mul %1155, %1156 : (tensor<1x1024x7x7xf32>, tensor<1024x1x1xf32>) -> tensor<1x1024x7x7xf32>
    %1158 = crt.constant : () -> tensor<1024x1x1xf32>
    %1159 = crt.add %1157, %1158 : (tensor<1x1024x7x7xf32>, tensor<1024x1x1xf32>) -> tensor<1x1024x7x7xf32>
    %1160 = crt.relu %1159 : (tensor<1x1024x7x7xf32>) -> tensor<1x1024x7x7xf32>
    %1161 = crt.reducemean %1160 : (tensor<1x1024x7x7xf32>) -> tensor<1x1024x1x1xf32>
    %1162 = crt.flatten %1161 : (tensor<1x1024x1x1xf32>) -> tensor<1x1024xf32>
    %1163 = crt.gemm %1162, %62, %63 : (tensor<1x1024xf32>, tensor<1000x1024xf32>, tensor<1000xf32>) -> tensor<1x1000xf32>
    return %1163 : tensor<1x1000xf32>
  }
  "onnx.EntryPoint"() {func = @main_graph} : () -> ()
}
