module attributes {llvm.data_layout = "e-m:e-p270:32:32-p271:32:32-p272:64:64-i64:64-f80:128-n8:16:32:64-S128", llvm.target_triple = "x86_64-unknown-linux-gnu"} {
  func.func @main_graph(%arg0: tensor<64x3x299x299xf32>) -> tensor<64x1000xf32> attributes {input_names = ["input"], output_names = ["output"]} {
    %0 = "onnx.Constant"() {value = dense_resource<__elided__> : tensor<1000x2048xf32>} : () -> tensor<1000x2048xf32>
    %1 = "onnx.Constant"() {value = dense_resource<__elided__> : tensor<1000xf32>} : () -> tensor<1000xf32>
    %2 = "onnx.Constant"() {value = dense_resource<__elided__> : tensor<32x3x3x3xf32>} : () -> tensor<32x3x3x3xf32>
    %3 = "onnx.Constant"() {value = dense<[… > : tensor<32xf32>} : () -> tensor<32xf32>
    %4 = "onnx.Constant"() {value = dense_resource<__elided__> : tensor<32x32x3x3xf32>} : () -> tensor<32x32x3x3xf32>
    %5 = "onnx.Constant"() {value = dense<[… > : tensor<32xf32>} : () -> tensor<32xf32>
    %6 = "onnx.Constant"() {value = dense_resource<__elided__> : tensor<64x32x3x3xf32>} : () -> tensor<64x32x3x3xf32>
    %7 = "onnx.Constant"() {value = dense<[… > : tensor<64xf32>} : () -> tensor<64xf32>
    %8 = "onnx.Constant"() {value = dense_resource<__elided__> : tensor<80x64x1x1xf32>} : () -> tensor<80x64x1x1xf32>
    %9 = "onnx.Constant"() {value = dense_resource<__elided__> : tensor<192x80x3x3xf32>} : () -> tensor<192x80x3x3xf32>
    %10 = "onnx.Constant"() {value = dense_resource<__elided__> : tensor<192xf32>} : () -> tensor<192xf32>
    %11 = "onnx.Constant"() {value = dense_resource<__elided__> : tensor<64x192x1x1xf32>} : () -> tensor<64x192x1x1xf32>
    %12 = "onnx.Constant"() {value = dense_resource<__elided__> : tensor<48x192x1x1xf32>} : () -> tensor<48x192x1x1xf32>
    %13 = "onnx.Constant"() {value = dense_resource<__elided__> : tensor<64x48x5x5xf32>} : () -> tensor<64x48x5x5xf32>
    %14 = "onnx.Constant"() {value = dense<[… > : tensor<64xf32>} : () -> tensor<64xf32>
    %15 = "onnx.Constant"() {value = dense_resource<__elided__> : tensor<64x192x1x1xf32>} : () -> tensor<64x192x1x1xf32>
    %16 = "onnx.Constant"() {value = dense_resource<__elided__> : tensor<96x64x3x3xf32>} : () -> tensor<96x64x3x3xf32>
    %17 = "onnx.Constant"() {value = dense<[… > : tensor<96xf32>} : () -> tensor<96xf32>
    %18 = "onnx.Constant"() {value = dense_resource<__elided__> : tensor<96x96x3x3xf32>} : () -> tensor<96x96x3x3xf32>
    %19 = "onnx.Constant"() {value = dense<[… > : tensor<96xf32>} : () -> tensor<96xf32>
    %20 = "onnx.Constant"() {value = dense_resource<__elided__> : tensor<32x192x1x1xf32>} : () -> tensor<32x192x1x1xf32>
    %21 = "onnx.Constant"() {value = dense_resource<__elided__> : tensor<64x256x1x1xf32>} : () -> tensor<64x256x1x1xf32>
    %22 = "onnx.Constant"() {value = dense_resource<__elided__> : tensor<48x256x1x1xf32>} : () -> tensor<48x256x1x1xf32>
    %23 = "onnx.Constant"() {value = dense_resource<__elided__> : tensor<64x48x5x5xf32>} : () -> tensor<64x48x5x5xf32>
    %24 = "onnx.Constant"() {value = dense<[… > : tensor<64xf32>} : () -> tensor<64xf32>
    %25 = "onnx.Constant"() {value = dense_resource<__elided__> : tensor<64x256x1x1xf32>} : () -> tensor<64x256x1x1xf32>
    %26 = "onnx.Constant"() {value = dense_resource<__elided__> : tensor<96x64x3x3xf32>} : () -> tensor<96x64x3x3xf32>
    %27 = "onnx.Constant"() {value = dense<[… > : tensor<96xf32>} : () -> tensor<96xf32>
    %28 = "onnx.Constant"() {value = dense_resource<__elided__> : tensor<96x96x3x3xf32>} : () -> tensor<96x96x3x3xf32>
    %29 = "onnx.Constant"() {value = dense<[… > : tensor<96xf32>} : () -> tensor<96xf32>
    %30 = "onnx.Constant"() {value = dense_resource<__elided__> : tensor<64x256x1x1xf32>} : () -> tensor<64x256x1x1xf32>
    %31 = "onnx.Constant"() {value = dense_resource<__elided__> : tensor<64x288x1x1xf32>} : () -> tensor<64x288x1x1xf32>
    %32 = "onnx.Constant"() {value = dense_resource<__elided__> : tensor<48x288x1x1xf32>} : () -> tensor<48x288x1x1xf32>
    %33 = "onnx.Constant"() {value = dense_resource<__elided__> : tensor<64x48x5x5xf32>} : () -> tensor<64x48x5x5xf32>
    %34 = "onnx.Constant"() {value = dense<[… > : tensor<64xf32>} : () -> tensor<64xf32>
    %35 = "onnx.Constant"() {value = dense_resource<__elided__> : tensor<64x288x1x1xf32>} : () -> tensor<64x288x1x1xf32>
    %36 = "onnx.Constant"() {value = dense_resource<__elided__> : tensor<96x64x3x3xf32>} : () -> tensor<96x64x3x3xf32>
    %37 = "onnx.Constant"() {value = dense<[… > : tensor<96xf32>} : () -> tensor<96xf32>
    %38 = "onnx.Constant"() {value = dense_resource<__elided__> : tensor<96x96x3x3xf32>} : () -> tensor<96x96x3x3xf32>
    %39 = "onnx.Constant"() {value = dense<[… > : tensor<96xf32>} : () -> tensor<96xf32>
    %40 = "onnx.Constant"() {value = dense_resource<__elided__> : tensor<64x288x1x1xf32>} : () -> tensor<64x288x1x1xf32>
    %41 = "onnx.Constant"() {value = dense_resource<__elided__> : tensor<384x288x3x3xf32>} : () -> tensor<384x288x3x3xf32>
    %42 = "onnx.Constant"() {value = dense_resource<__elided__> : tensor<384xf32>} : () -> tensor<384xf32>
    %43 = "onnx.Constant"() {value = dense_resource<__elided__> : tensor<64x288x1x1xf32>} : () -> tensor<64x288x1x1xf32>
    %44 = "onnx.Constant"() {value = dense_resource<__elided__> : tensor<96x64x3x3xf32>} : () -> tensor<96x64x3x3xf32>
    %45 = "onnx.Constant"() {value = dense<[… > : tensor<96xf32>} : () -> tensor<96xf32>
    %46 = "onnx.Constant"() {value = dense_resource<__elided__> : tensor<96x96x3x3xf32>} : () -> tensor<96x96x3x3xf32>
    %47 = "onnx.Constant"() {value = dense<[… > : tensor<96xf32>} : () -> tensor<96xf32>
    %48 = "onnx.Constant"() {value = dense_resource<__elided__> : tensor<192x768x1x1xf32>} : () -> tensor<192x768x1x1xf32>
    %49 = "onnx.Constant"() {value = dense_resource<__elided__> : tensor<128x768x1x1xf32>} : () -> tensor<128x768x1x1xf32>
    %50 = "onnx.Constant"() {value = dense_resource<__elided__> : tensor<128x128x1x7xf32>} : () -> tensor<128x128x1x7xf32>
    %51 = "onnx.Constant"() {value = dense_resource<__elided__> : tensor<128xf32>} : () -> tensor<128xf32>
    %52 = "onnx.Constant"() {value = dense_resource<__elided__> : tensor<192x128x7x1xf32>} : () -> tensor<192x128x7x1xf32>
    %53 = "onnx.Constant"() {value = dense_resource<__elided__> : tensor<192xf32>} : () -> tensor<192xf32>
    %54 = "onnx.Constant"() {value = dense_resource<__elided__> : tensor<128x768x1x1xf32>} : () -> tensor<128x768x1x1xf32>
    %55 = "onnx.Constant"() {value = dense_resource<__elided__> : tensor<128x128x7x1xf32>} : () -> tensor<128x128x7x1xf32>
    %56 = "onnx.Constant"() {value = dense_resource<__elided__> : tensor<128xf32>} : () -> tensor<128xf32>
    %57 = "onnx.Constant"() {value = dense_resource<__elided__> : tensor<128x128x1x7xf32>} : () -> tensor<128x128x1x7xf32>
    %58 = "onnx.Constant"() {value = dense_resource<__elided__> : tensor<128xf32>} : () -> tensor<128xf32>
    %59 = "onnx.Constant"() {value = dense_resource<__elided__> : tensor<128x128x7x1xf32>} : () -> tensor<128x128x7x1xf32>
    %60 = "onnx.Constant"() {value = dense_resource<__elided__> : tensor<128xf32>} : () -> tensor<128xf32>
    %61 = "onnx.Constant"() {value = dense_resource<__elided__> : tensor<192x128x1x7xf32>} : () -> tensor<192x128x1x7xf32>
    %62 = "onnx.Constant"() {value = dense_resource<__elided__> : tensor<192xf32>} : () -> tensor<192xf32>
    %63 = "onnx.Constant"() {value = dense_resource<__elided__> : tensor<192x768x1x1xf32>} : () -> tensor<192x768x1x1xf32>
    %64 = "onnx.Constant"() {value = dense_resource<__elided__> : tensor<192x768x1x1xf32>} : () -> tensor<192x768x1x1xf32>
    %65 = "onnx.Constant"() {value = dense_resource<__elided__> : tensor<160x768x1x1xf32>} : () -> tensor<160x768x1x1xf32>
    %66 = "onnx.Constant"() {value = dense_resource<__elided__> : tensor<160x160x1x7xf32>} : () -> tensor<160x160x1x7xf32>
    %67 = "onnx.Constant"() {value = dense_resource<__elided__> : tensor<160xf32>} : () -> tensor<160xf32>
    %68 = "onnx.Constant"() {value = dense_resource<__elided__> : tensor<192x160x7x1xf32>} : () -> tensor<192x160x7x1xf32>
    %69 = "onnx.Constant"() {value = dense_resource<__elided__> : tensor<192xf32>} : () -> tensor<192xf32>
    %70 = "onnx.Constant"() {value = dense_resource<__elided__> : tensor<160x768x1x1xf32>} : () -> tensor<160x768x1x1xf32>
    %71 = "onnx.Constant"() {value = dense_resource<__elided__> : tensor<160x160x7x1xf32>} : () -> tensor<160x160x7x1xf32>
    %72 = "onnx.Constant"() {value = dense_resource<__elided__> : tensor<160xf32>} : () -> tensor<160xf32>
    %73 = "onnx.Constant"() {value = dense_resource<__elided__> : tensor<160x160x1x7xf32>} : () -> tensor<160x160x1x7xf32>
    %74 = "onnx.Constant"() {value = dense_resource<__elided__> : tensor<160xf32>} : () -> tensor<160xf32>
    %75 = "onnx.Constant"() {value = dense_resource<__elided__> : tensor<160x160x7x1xf32>} : () -> tensor<160x160x7x1xf32>
    %76 = "onnx.Constant"() {value = dense_resource<__elided__> : tensor<160xf32>} : () -> tensor<160xf32>
    %77 = "onnx.Constant"() {value = dense_resource<__elided__> : tensor<192x160x1x7xf32>} : () -> tensor<192x160x1x7xf32>
    %78 = "onnx.Constant"() {value = dense_resource<__elided__> : tensor<192xf32>} : () -> tensor<192xf32>
    %79 = "onnx.Constant"() {value = dense_resource<__elided__> : tensor<192x768x1x1xf32>} : () -> tensor<192x768x1x1xf32>
    %80 = "onnx.Constant"() {value = dense_resource<__elided__> : tensor<192x768x1x1xf32>} : () -> tensor<192x768x1x1xf32>
    %81 = "onnx.Constant"() {value = dense_resource<__elided__> : tensor<160x768x1x1xf32>} : () -> tensor<160x768x1x1xf32>
    %82 = "onnx.Constant"() {value = dense_resource<__elided__> : tensor<160x160x1x7xf32>} : () -> tensor<160x160x1x7xf32>
    %83 = "onnx.Constant"() {value = dense_resource<__elided__> : tensor<160xf32>} : () -> tensor<160xf32>
    %84 = "onnx.Constant"() {value = dense_resource<__elided__> : tensor<192x160x7x1xf32>} : () -> tensor<192x160x7x1xf32>
    %85 = "onnx.Constant"() {value = dense_resource<__elided__> : tensor<192xf32>} : () -> tensor<192xf32>
    %86 = "onnx.Constant"() {value = dense_resource<__elided__> : tensor<160x768x1x1xf32>} : () -> tensor<160x768x1x1xf32>
    %87 = "onnx.Constant"() {value = dense_resource<__elided__> : tensor<160x160x7x1xf32>} : () -> tensor<160x160x7x1xf32>
    %88 = "onnx.Constant"() {value = dense_resource<__elided__> : tensor<160xf32>} : () -> tensor<160xf32>
    %89 = "onnx.Constant"() {value = dense_resource<__elided__> : tensor<160x160x1x7xf32>} : () -> tensor<160x160x1x7xf32>
    %90 = "onnx.Constant"() {value = dense_resource<__elided__> : tensor<160xf32>} : () -> tensor<160xf32>
    %91 = "onnx.Constant"() {value = dense_resource<__elided__> : tensor<160x160x7x1xf32>} : () -> tensor<160x160x7x1xf32>
    %92 = "onnx.Constant"() {value = dense_resource<__elided__> : tensor<160xf32>} : () -> tensor<160xf32>
    %93 = "onnx.Constant"() {value = dense_resource<__elided__> : tensor<192x160x1x7xf32>} : () -> tensor<192x160x1x7xf32>
    %94 = "onnx.Constant"() {value = dense_resource<__elided__> : tensor<192xf32>} : () -> tensor<192xf32>
    %95 = "onnx.Constant"() {value = dense_resource<__elided__> : tensor<192x768x1x1xf32>} : () -> tensor<192x768x1x1xf32>
    %96 = "onnx.Constant"() {value = dense_resource<__elided__> : tensor<192x768x1x1xf32>} : () -> tensor<192x768x1x1xf32>
    %97 = "onnx.Constant"() {value = dense_resource<__elided__> : tensor<192x768x1x1xf32>} : () -> tensor<192x768x1x1xf32>
    %98 = "onnx.Constant"() {value = dense_resource<__elided__> : tensor<192x192x1x7xf32>} : () -> tensor<192x192x1x7xf32>
    %99 = "onnx.Constant"() {value = dense_resource<__elided__> : tensor<192xf32>} : () -> tensor<192xf32>
    %100 = "onnx.Constant"() {value = dense_resource<__elided__> : tensor<192x192x7x1xf32>} : () -> tensor<192x192x7x1xf32>
    %101 = "onnx.Constant"() {value = dense_resource<__elided__> : tensor<192xf32>} : () -> tensor<192xf32>
    %102 = "onnx.Constant"() {value = dense_resource<__elided__> : tensor<192x768x1x1xf32>} : () -> tensor<192x768x1x1xf32>
    %103 = "onnx.Constant"() {value = dense_resource<__elided__> : tensor<192x192x7x1xf32>} : () -> tensor<192x192x7x1xf32>
    %104 = "onnx.Constant"() {value = dense_resource<__elided__> : tensor<192xf32>} : () -> tensor<192xf32>
    %105 = "onnx.Constant"() {value = dense_resource<__elided__> : tensor<192x192x1x7xf32>} : () -> tensor<192x192x1x7xf32>
    %106 = "onnx.Constant"() {value = dense_resource<__elided__> : tensor<192xf32>} : () -> tensor<192xf32>
    %107 = "onnx.Constant"() {value = dense_resource<__elided__> : tensor<192x192x7x1xf32>} : () -> tensor<192x192x7x1xf32>
    %108 = "onnx.Constant"() {value = dense_resource<__elided__> : tensor<192xf32>} : () -> tensor<192xf32>
    %109 = "onnx.Constant"() {value = dense_resource<__elided__> : tensor<192x192x1x7xf32>} : () -> tensor<192x192x1x7xf32>
    %110 = "onnx.Constant"() {value = dense_resource<__elided__> : tensor<192xf32>} : () -> tensor<192xf32>
    %111 = "onnx.Constant"() {value = dense_resource<__elided__> : tensor<192x768x1x1xf32>} : () -> tensor<192x768x1x1xf32>
    %112 = "onnx.Constant"() {value = dense_resource<__elided__> : tensor<192x768x1x1xf32>} : () -> tensor<192x768x1x1xf32>
    %113 = "onnx.Constant"() {value = dense_resource<__elided__> : tensor<320x192x3x3xf32>} : () -> tensor<320x192x3x3xf32>
    %114 = "onnx.Constant"() {value = dense_resource<__elided__> : tensor<320xf32>} : () -> tensor<320xf32>
    %115 = "onnx.Constant"() {value = dense_resource<__elided__> : tensor<192x768x1x1xf32>} : () -> tensor<192x768x1x1xf32>
    %116 = "onnx.Constant"() {value = dense_resource<__elided__> : tensor<192x192x1x7xf32>} : () -> tensor<192x192x1x7xf32>
    %117 = "onnx.Constant"() {value = dense_resource<__elided__> : tensor<192xf32>} : () -> tensor<192xf32>
    %118 = "onnx.Constant"() {value = dense_resource<__elided__> : tensor<192x192x7x1xf32>} : () -> tensor<192x192x7x1xf32>
    %119 = "onnx.Constant"() {value = dense_resource<__elided__> : tensor<192xf32>} : () -> tensor<192xf32>
    %120 = "onnx.Constant"() {value = dense_resource<__elided__> : tensor<192x192x3x3xf32>} : () -> tensor<192x192x3x3xf32>
    %121 = "onnx.Constant"() {value = dense_resource<__elided__> : tensor<192xf32>} : () -> tensor<192xf32>
    %122 = "onnx.Constant"() {value = dense_resource<__elided__> : tensor<320x1280x1x1xf32>} : () -> tensor<320x1280x1x1xf32>
    %123 = "onnx.Constant"() {value = dense_resource<__elided__> : tensor<384x1280x1x1xf32>} : () -> tensor<384x1280x1x1xf32>
    %124 = "onnx.Constant"() {value = dense_resource<__elided__> : tensor<384x384x1x3xf32>} : () -> tensor<384x384x1x3xf32>
    %125 = "onnx.Constant"() {value = dense_resource<__elided__> : tensor<384xf32>} : () -> tensor<384xf32>
    %126 = "onnx.Constant"() {value = dense_resource<__elided__> : tensor<384x384x3x1xf32>} : () -> tensor<384x384x3x1xf32>
    %127 = "onnx.Constant"() {value = dense_resource<__elided__> : tensor<384xf32>} : () -> tensor<384xf32>
    %128 = "onnx.Constant"() {value = dense_resource<__elided__> : tensor<448x1280x1x1xf32>} : () -> tensor<448x1280x1x1xf32>
    %129 = "onnx.Constant"() {value = dense_resource<__elided__> : tensor<384x448x3x3xf32>} : () -> tensor<384x448x3x3xf32>
    %130 = "onnx.Constant"() {value = dense_resource<__elided__> : tensor<384xf32>} : () -> tensor<384xf32>
    %131 = "onnx.Constant"() {value = dense_resource<__elided__> : tensor<384x384x1x3xf32>} : () -> tensor<384x384x1x3xf32>
    %132 = "onnx.Constant"() {value = dense_resource<__elided__> : tensor<384xf32>} : () -> tensor<384xf32>
    %133 = "onnx.Constant"() {value = dense_resource<__elided__> : tensor<384x384x3x1xf32>} : () -> tensor<384x384x3x1xf32>
    %134 = "onnx.Constant"() {value = dense_resource<__elided__> : tensor<384xf32>} : () -> tensor<384xf32>
    %135 = "onnx.Constant"() {value = dense_resource<__elided__> : tensor<192x1280x1x1xf32>} : () -> tensor<192x1280x1x1xf32>
    %136 = "onnx.Constant"() {value = dense_resource<__elided__> : tensor<320x2048x1x1xf32>} : () -> tensor<320x2048x1x1xf32>
    %137 = "onnx.Constant"() {value = dense_resource<__elided__> : tensor<384x2048x1x1xf32>} : () -> tensor<384x2048x1x1xf32>
    %138 = "onnx.Constant"() {value = dense_resource<__elided__> : tensor<384x384x1x3xf32>} : () -> tensor<384x384x1x3xf32>
    %139 = "onnx.Constant"() {value = dense_resource<__elided__> : tensor<384xf32>} : () -> tensor<384xf32>
    %140 = "onnx.Constant"() {value = dense_resource<__elided__> : tensor<384x384x3x1xf32>} : () -> tensor<384x384x3x1xf32>
    %141 = "onnx.Constant"() {value = dense_resource<__elided__> : tensor<384xf32>} : () -> tensor<384xf32>
    %142 = "onnx.Constant"() {value = dense_resource<__elided__> : tensor<448x2048x1x1xf32>} : () -> tensor<448x2048x1x1xf32>
    %143 = "onnx.Constant"() {value = dense_resource<__elided__> : tensor<384x448x3x3xf32>} : () -> tensor<384x448x3x3xf32>
    %144 = "onnx.Constant"() {value = dense_resource<__elided__> : tensor<384xf32>} : () -> tensor<384xf32>
    %145 = "onnx.Constant"() {value = dense_resource<__elided__> : tensor<384x384x1x3xf32>} : () -> tensor<384x384x1x3xf32>
    %146 = "onnx.Constant"() {value = dense_resource<__elided__> : tensor<384xf32>} : () -> tensor<384xf32>
    %147 = "onnx.Constant"() {value = dense_resource<__elided__> : tensor<384x384x3x1xf32>} : () -> tensor<384x384x3x1xf32>
    %148 = "onnx.Constant"() {value = dense_resource<__elided__> : tensor<384xf32>} : () -> tensor<384xf32>
    %149 = "onnx.Constant"() {value = dense_resource<__elided__> : tensor<192x2048x1x1xf32>} : () -> tensor<192x2048x1x1xf32>
    %150 = "onnx.Constant"() {value = dense<0> : tensor<i64>} : () -> tensor<i64>
    %151 = "onnx.Constant"() {value = dense<1> : tensor<1xi64>} : () -> tensor<1xi64>
    %152 = "onnx.Constant"() {value = dense<4.580000e-01> : tensor<f32>} : () -> tensor<f32>
    %153 = "onnx.Constant"() {value = dense<-3.000000e-02> : tensor<f32>} : () -> tensor<f32>
    %154 = "onnx.Constant"() {value = dense<1> : tensor<i64>} : () -> tensor<i64>
    %155 = "onnx.Constant"() {value = dense<4.480000e-01> : tensor<f32>} : () -> tensor<f32>
    %156 = "onnx.Constant"() {value = dense<-0.0879999995> : tensor<f32>} : () -> tensor<f32>
    %157 = "onnx.Constant"() {value = dense<2> : tensor<i64>} : () -> tensor<i64>
    %158 = "onnx.Constant"() {value = dense<4.500000e-01> : tensor<f32>} : () -> tensor<f32>
    %159 = "onnx.Constant"() {value = dense<-1.880000e-01> : tensor<f32>} : () -> tensor<f32>
    %160 = "onnx.Gather"(%arg0, %150) {axis = 1 : si64, onnx_node_name = "Gather_1"} : (tensor<64x3x299x299xf32>, tensor<i64>) -> tensor<64x299x299xf32>
    %161 = "onnx.Unsqueeze"(%160, %151) {onnx_node_name = "Unsqueeze_3"} : (tensor<64x299x299xf32>, tensor<1xi64>) -> tensor<64x1x299x299xf32>
    %162 = "onnx.Mul"(%161, %152) {onnx_node_name = "Mul_5"} : (tensor<64x1x299x299xf32>, tensor<f32>) -> tensor<64x1x299x299xf32>
    %163 = "onnx.Add"(%162, %153) {onnx_node_name = "Add_7"} : (tensor<64x1x299x299xf32>, tensor<f32>) -> tensor<64x1x299x299xf32>
    %164 = "onnx.Gather"(%arg0, %154) {axis = 1 : si64, onnx_node_name = "Gather_9"} : (tensor<64x3x299x299xf32>, tensor<i64>) -> tensor<64x299x299xf32>
    %165 = "onnx.Unsqueeze"(%164, %151) {onnx_node_name = "Unsqueeze_11"} : (tensor<64x299x299xf32>, tensor<1xi64>) -> tensor<64x1x299x299xf32>
    %166 = "onnx.Mul"(%165, %155) {onnx_node_name = "Mul_13"} : (tensor<64x1x299x299xf32>, tensor<f32>) -> tensor<64x1x299x299xf32>
    %167 = "onnx.Add"(%166, %156) {onnx_node_name = "Add_15"} : (tensor<64x1x299x299xf32>, tensor<f32>) -> tensor<64x1x299x299xf32>
    %168 = "onnx.Gather"(%arg0, %157) {axis = 1 : si64, onnx_node_name = "Gather_17"} : (tensor<64x3x299x299xf32>, tensor<i64>) -> tensor<64x299x299xf32>
    %169 = "onnx.Unsqueeze"(%168, %151) {onnx_node_name = "Unsqueeze_19"} : (tensor<64x299x299xf32>, tensor<1xi64>) -> tensor<64x1x299x299xf32>
    %170 = "onnx.Mul"(%169, %158) {onnx_node_name = "Mul_21"} : (tensor<64x1x299x299xf32>, tensor<f32>) -> tensor<64x1x299x299xf32>
    %171 = "onnx.Add"(%170, %159) {onnx_node_name = "Add_23"} : (tensor<64x1x299x299xf32>, tensor<f32>) -> tensor<64x1x299x299xf32>
    %172 = "onnx.Concat"(%163, %167, %171) {axis = 1 : si64, onnx_node_name = "Concat_24"} : (tensor<64x1x299x299xf32>, tensor<64x1x299x299xf32>, tensor<64x1x299x299xf32>) -> tensor<64x3x299x299xf32>
    %173 = "onnx.Conv"(%172, %2, %3) {auto_pad = "NOTSET", dilations = [1, 1], group = 1 : si64, kernel_shape = [3, 3], onnx_node_name = "Conv_25", pads = [0, 0, 0, 0], strides = [2, 2]} : (tensor<64x3x299x299xf32>, tensor<32x3x3x3xf32>, tensor<32xf32>) -> tensor<64x32x149x149xf32>
    %174 = "onnx.Relu"(%173) {onnx_node_name = "Relu_26"} : (tensor<64x32x149x149xf32>) -> tensor<64x32x149x149xf32>
    %175 = "onnx.Conv"(%174, %4, %5) {auto_pad = "NOTSET", dilations = [1, 1], group = 1 : si64, kernel_shape = [3, 3], onnx_node_name = "Conv_27", pads = [0, 0, 0, 0], strides = [1, 1]} : (tensor<64x32x149x149xf32>, tensor<32x32x3x3xf32>, tensor<32xf32>) -> tensor<64x32x147x147xf32>
    %176 = "onnx.Relu"(%175) {onnx_node_name = "Relu_28"} : (tensor<64x32x147x147xf32>) -> tensor<64x32x147x147xf32>
    %177 = "onnx.Conv"(%176, %6, %7) {auto_pad = "NOTSET", dilations = [1, 1], group = 1 : si64, kernel_shape = [3, 3], onnx_node_name = "Conv_29", pads = [1, 1, 1, 1], strides = [1, 1]} : (tensor<64x32x147x147xf32>, tensor<64x32x3x3xf32>, tensor<64xf32>) -> tensor<64x64x147x147xf32>
    %178 = "onnx.Relu"(%177) {onnx_node_name = "Relu_30"} : (tensor<64x64x147x147xf32>) -> tensor<64x64x147x147xf32>
    %179 = "onnx.MaxPoolSingleOut"(%178) {auto_pad = "NOTSET", ceil_mode = 0 : si64, kernel_shape = [3, 3], onnx_node_name = "MaxPool_31", pads = [0, 0, 0, 0], storage_order = 0 : si64, strides = [2, 2]} : (tensor<64x64x147x147xf32>) -> tensor<64x64x73x73xf32>
    %180 = "onnx.Dim"(%179) {axis = 0 : si64} : (tensor<64x64x73x73xf32>) -> tensor<1xi64>
    %181 = "onnx.Constant"() {value = dense<64> : tensor<1xi64>} : () -> tensor<1xi64>
    %182 = "onnx.Constant"() {value = dense<-1> : tensor<1xi64>} : () -> tensor<1xi64>
    %183 = "onnx.Concat"(%180, %181, %182) {axis = 0 : si64} : (tensor<1xi64>, tensor<1xi64>, tensor<1xi64>) -> tensor<3xi64>
    %184 = "onnx.Reshape"(%179, %183) {allowzero = 0 : si64} : (tensor<64x64x73x73xf32>, tensor<3xi64>) -> tensor<64x64x64xf32>
    %185 = "onnx.Constant"() {value = dense<[80, -1]> : tensor<2xi64>} : () -> tensor<2xi64>
    %186 = "onnx.Reshape"(%8, %185) {allowzero = 0 : si64} : (tensor<80x64x1x1xf32>, tensor<2xi64>) -> tensor<80x64xf32>
    %187 = "onnx.MatMul"(%186, %184) : (tensor<80x64xf32>, tensor<64x64x64xf32>) -> tensor<64x80x64xf32>
    %188 = "onnx.Constant"() {value = dense<[[[… > : tensor<1x80x1xf32>} : () -> tensor<1x80x1xf32>
    %189 = "onnx.Add"(%187, %188) : (tensor<64x80x64xf32>, tensor<1x80x1xf32>) -> tensor<64x80x64xf32>
    %190 = "onnx.Dim"(%179) {axis = 0 : si64} : (tensor<64x64x73x73xf32>) -> tensor<1xi64>
    %191 = "onnx.Constant"() {value = dense<73> : tensor<1xi64>} : () -> tensor<1xi64>
    %192 = "onnx.Constant"() {value = dense<73> : tensor<1xi64>} : () -> tensor<1xi64>
    %193 = "onnx.Constant"() {value = dense<80> : tensor<1xi64>} : () -> tensor<1xi64>
    %194 = "onnx.Concat"(%190, %193, %191, %192) {axis = 0 : si64} : (tensor<1xi64>, tensor<1xi64>, tensor<1xi64>, tensor<1xi64>) -> tensor<4xi64>
    %195 = "onnx.Reshape"(%189, %194) {allowzero = 0 : si64} : (tensor<64x80x64xf32>, tensor<4xi64>) -> tensor<64x80x73x73xf32>
    %196 = "onnx.Relu"(%195) {onnx_node_name = "Relu_33"} : (tensor<64x80x73x73xf32>) -> tensor<64x80x73x73xf32>
    %197 = "onnx.Conv"(%196, %9, %10) {auto_pad = "NOTSET", dilations = [1, 1], group = 1 : si64, kernel_shape = [3, 3], onnx_node_name = "Conv_34", pads = [0, 0, 0, 0], strides = [1, 1]} : (tensor<64x80x73x73xf32>, tensor<192x80x3x3xf32>, tensor<192xf32>) -> tensor<64x192x71x71xf32>
    %198 = "onnx.Relu"(%197) {onnx_node_name = "Relu_35"} : (tensor<64x192x71x71xf32>) -> tensor<64x192x71x71xf32>
    %199 = "onnx.MaxPoolSingleOut"(%198) {auto_pad = "NOTSET", ceil_mode = 0 : si64, kernel_shape = [3, 3], onnx_node_name = "MaxPool_36", pads = [0, 0, 0, 0], storage_order = 0 : si64, strides = [2, 2]} : (tensor<64x192x71x71xf32>) -> tensor<64x192x35x35xf32>
    %200 = "onnx.Dim"(%199) {axis = 0 : si64} : (tensor<64x192x35x35xf32>) -> tensor<1xi64>
    %201 = "onnx.Constant"() {value = dense<192> : tensor<1xi64>} : () -> tensor<1xi64>
    %202 = "onnx.Constant"() {value = dense<-1> : tensor<1xi64>} : () -> tensor<1xi64>
    %203 = "onnx.Concat"(%200, %201, %202) {axis = 0 : si64} : (tensor<1xi64>, tensor<1xi64>, tensor<1xi64>) -> tensor<3xi64>
    %204 = "onnx.Reshape"(%199, %203) {allowzero = 0 : si64} : (tensor<64x192x35x35xf32>, tensor<3xi64>) -> tensor<64x192x64xf32>
    %205 = "onnx.Constant"() {value = dense<[64, -1]> : tensor<2xi64>} : () -> tensor<2xi64>
    %206 = "onnx.Reshape"(%11, %205) {allowzero = 0 : si64} : (tensor<64x192x1x1xf32>, tensor<2xi64>) -> tensor<64x192xf32>
    %207 = "onnx.MatMul"(%206, %204) : (tensor<64x192xf32>, tensor<64x192x64xf32>) -> tensor<64x64x64xf32>
    %208 = "onnx.Constant"() {value = dense<[[[… > : tensor<1x64x1xf32>} : () -> tensor<1x64x1xf32>
    %209 = "onnx.Add"(%207, %208) : (tensor<64x64x64xf32>, tensor<1x64x1xf32>) -> tensor<64x64x64xf32>
    %210 = "onnx.Dim"(%199) {axis = 0 : si64} : (tensor<64x192x35x35xf32>) -> tensor<1xi64>
    %211 = "onnx.Constant"() {value = dense<35> : tensor<1xi64>} : () -> tensor<1xi64>
    %212 = "onnx.Constant"() {value = dense<35> : tensor<1xi64>} : () -> tensor<1xi64>
    %213 = "onnx.Constant"() {value = dense<64> : tensor<1xi64>} : () -> tensor<1xi64>
    %214 = "onnx.Concat"(%210, %213, %211, %212) {axis = 0 : si64} : (tensor<1xi64>, tensor<1xi64>, tensor<1xi64>, tensor<1xi64>) -> tensor<4xi64>
    %215 = "onnx.Reshape"(%209, %214) {allowzero = 0 : si64} : (tensor<64x64x64xf32>, tensor<4xi64>) -> tensor<64x64x35x35xf32>
    %216 = "onnx.Relu"(%215) {onnx_node_name = "Relu_38"} : (tensor<64x64x35x35xf32>) -> tensor<64x64x35x35xf32>
    %217 = "onnx.Dim"(%199) {axis = 0 : si64} : (tensor<64x192x35x35xf32>) -> tensor<1xi64>
    %218 = "onnx.Constant"() {value = dense<192> : tensor<1xi64>} : () -> tensor<1xi64>
    %219 = "onnx.Constant"() {value = dense<-1> : tensor<1xi64>} : () -> tensor<1xi64>
    %220 = "onnx.Concat"(%217, %218, %219) {axis = 0 : si64} : (tensor<1xi64>, tensor<1xi64>, tensor<1xi64>) -> tensor<3xi64>
    %221 = "onnx.Reshape"(%199, %220) {allowzero = 0 : si64} : (tensor<64x192x35x35xf32>, tensor<3xi64>) -> tensor<64x192x64xf32>
    %222 = "onnx.Constant"() {value = dense<[48, -1]> : tensor<2xi64>} : () -> tensor<2xi64>
    %223 = "onnx.Reshape"(%12, %222) {allowzero = 0 : si64} : (tensor<48x192x1x1xf32>, tensor<2xi64>) -> tensor<48x192xf32>
    %224 = "onnx.MatMul"(%223, %221) : (tensor<48x192xf32>, tensor<64x192x64xf32>) -> tensor<64x48x64xf32>
    %225 = "onnx.Constant"() {value = dense<[[[… > : tensor<1x48x1xf32>} : () -> tensor<1x48x1xf32>
    %226 = "onnx.Add"(%224, %225) : (tensor<64x48x64xf32>, tensor<1x48x1xf32>) -> tensor<64x48x64xf32>
    %227 = "onnx.Dim"(%199) {axis = 0 : si64} : (tensor<64x192x35x35xf32>) -> tensor<1xi64>
    %228 = "onnx.Constant"() {value = dense<35> : tensor<1xi64>} : () -> tensor<1xi64>
    %229 = "onnx.Constant"() {value = dense<35> : tensor<1xi64>} : () -> tensor<1xi64>
    %230 = "onnx.Constant"() {value = dense<48> : tensor<1xi64>} : () -> tensor<1xi64>
    %231 = "onnx.Concat"(%227, %230, %228, %229) {axis = 0 : si64} : (tensor<1xi64>, tensor<1xi64>, tensor<1xi64>, tensor<1xi64>) -> tensor<4xi64>
    %232 = "onnx.Reshape"(%226, %231) {allowzero = 0 : si64} : (tensor<64x48x64xf32>, tensor<4xi64>) -> tensor<64x48x35x35xf32>
    %233 = "onnx.Relu"(%232) {onnx_node_name = "Relu_40"} : (tensor<64x48x35x35xf32>) -> tensor<64x48x35x35xf32>
    %234 = "onnx.Conv"(%233, %13, %14) {auto_pad = "NOTSET", dilations = [1, 1], group = 1 : si64, kernel_shape = [5, 5], onnx_node_name = "Conv_41", pads = [2, 2, 2, 2], strides = [1, 1]} : (tensor<64x48x35x35xf32>, tensor<64x48x5x5xf32>, tensor<64xf32>) -> tensor<64x64x35x35xf32>
    %235 = "onnx.Relu"(%234) {onnx_node_name = "Relu_42"} : (tensor<64x64x35x35xf32>) -> tensor<64x64x35x35xf32>
    %236 = "onnx.Dim"(%199) {axis = 0 : si64} : (tensor<64x192x35x35xf32>) -> tensor<1xi64>
    %237 = "onnx.Constant"() {value = dense<192> : tensor<1xi64>} : () -> tensor<1xi64>
    %238 = "onnx.Constant"() {value = dense<-1> : tensor<1xi64>} : () -> tensor<1xi64>
    %239 = "onnx.Concat"(%236, %237, %238) {axis = 0 : si64} : (tensor<1xi64>, tensor<1xi64>, tensor<1xi64>) -> tensor<3xi64>
    %240 = "onnx.Reshape"(%199, %239) {allowzero = 0 : si64} : (tensor<64x192x35x35xf32>, tensor<3xi64>) -> tensor<64x192x64xf32>
    %241 = "onnx.Constant"() {value = dense<[64, -1]> : tensor<2xi64>} : () -> tensor<2xi64>
    %242 = "onnx.Reshape"(%15, %241) {allowzero = 0 : si64} : (tensor<64x192x1x1xf32>, tensor<2xi64>) -> tensor<64x192xf32>
    %243 = "onnx.MatMul"(%242, %240) : (tensor<64x192xf32>, tensor<64x192x64xf32>) -> tensor<64x64x64xf32>
    %244 = "onnx.Constant"() {value = dense<[[[… > : tensor<1x64x1xf32>} : () -> tensor<1x64x1xf32>
    %245 = "onnx.Add"(%243, %244) : (tensor<64x64x64xf32>, tensor<1x64x1xf32>) -> tensor<64x64x64xf32>
    %246 = "onnx.Dim"(%199) {axis = 0 : si64} : (tensor<64x192x35x35xf32>) -> tensor<1xi64>
    %247 = "onnx.Constant"() {value = dense<35> : tensor<1xi64>} : () -> tensor<1xi64>
    %248 = "onnx.Constant"() {value = dense<35> : tensor<1xi64>} : () -> tensor<1xi64>
    %249 = "onnx.Constant"() {value = dense<64> : tensor<1xi64>} : () -> tensor<1xi64>
    %250 = "onnx.Concat"(%246, %249, %247, %248) {axis = 0 : si64} : (tensor<1xi64>, tensor<1xi64>, tensor<1xi64>, tensor<1xi64>) -> tensor<4xi64>
    %251 = "onnx.Reshape"(%245, %250) {allowzero = 0 : si64} : (tensor<64x64x64xf32>, tensor<4xi64>) -> tensor<64x64x35x35xf32>
    %252 = "onnx.Relu"(%251) {onnx_node_name = "Relu_44"} : (tensor<64x64x35x35xf32>) -> tensor<64x64x35x35xf32>
    %253 = "onnx.Conv"(%252, %16, %17) {auto_pad = "NOTSET", dilations = [1, 1], group = 1 : si64, kernel_shape = [3, 3], onnx_node_name = "Conv_45", pads = [1, 1, 1, 1], strides = [1, 1]} : (tensor<64x64x35x35xf32>, tensor<96x64x3x3xf32>, tensor<96xf32>) -> tensor<64x96x35x35xf32>
    %254 = "onnx.Relu"(%253) {onnx_node_name = "Relu_46"} : (tensor<64x96x35x35xf32>) -> tensor<64x96x35x35xf32>
    %255 = "onnx.Conv"(%254, %18, %19) {auto_pad = "NOTSET", dilations = [1, 1], group = 1 : si64, kernel_shape = [3, 3], onnx_node_name = "Conv_47", pads = [1, 1, 1, 1], strides = [1, 1]} : (tensor<64x96x35x35xf32>, tensor<96x96x3x3xf32>, tensor<96xf32>) -> tensor<64x96x35x35xf32>
    %256 = "onnx.Relu"(%255) {onnx_node_name = "Relu_48"} : (tensor<64x96x35x35xf32>) -> tensor<64x96x35x35xf32>
    %257 = "onnx.AveragePool"(%199) {auto_pad = "NOTSET", ceil_mode = 0 : si64, count_include_pad = 0 : si64, kernel_shape = [3, 3], onnx_node_name = "AveragePool_51", pads = [1, 1, 1, 1], strides = [1, 1]} : (tensor<64x192x35x35xf32>) -> tensor<64x192x35x35xf32>
    %258 = "onnx.Dim"(%257) {axis = 0 : si64} : (tensor<64x192x35x35xf32>) -> tensor<1xi64>
    %259 = "onnx.Constant"() {value = dense<192> : tensor<1xi64>} : () -> tensor<1xi64>
    %260 = "onnx.Constant"() {value = dense<-1> : tensor<1xi64>} : () -> tensor<1xi64>
    %261 = "onnx.Concat"(%258, %259, %260) {axis = 0 : si64} : (tensor<1xi64>, tensor<1xi64>, tensor<1xi64>) -> tensor<3xi64>
    %262 = "onnx.Reshape"(%257, %261) {allowzero = 0 : si64} : (tensor<64x192x35x35xf32>, tensor<3xi64>) -> tensor<64x192x64xf32>
    %263 = "onnx.Constant"() {value = dense<[32, -1]> : tensor<2xi64>} : () -> tensor<2xi64>
    %264 = "onnx.Reshape"(%20, %263) {allowzero = 0 : si64} : (tensor<32x192x1x1xf32>, tensor<2xi64>) -> tensor<32x192xf32>
    %265 = "onnx.MatMul"(%264, %262) : (tensor<32x192xf32>, tensor<64x192x64xf32>) -> tensor<64x32x64xf32>
    %266 = "onnx.Constant"() {value = dense<[[[… > : tensor<1x32x1xf32>} : () -> tensor<1x32x1xf32>
    %267 = "onnx.Add"(%265, %266) : (tensor<64x32x64xf32>, tensor<1x32x1xf32>) -> tensor<64x32x64xf32>
    %268 = "onnx.Dim"(%257) {axis = 0 : si64} : (tensor<64x192x35x35xf32>) -> tensor<1xi64>
    %269 = "onnx.Constant"() {value = dense<35> : tensor<1xi64>} : () -> tensor<1xi64>
    %270 = "onnx.Constant"() {value = dense<35> : tensor<1xi64>} : () -> tensor<1xi64>
    %271 = "onnx.Constant"() {value = dense<32> : tensor<1xi64>} : () -> tensor<1xi64>
    %272 = "onnx.Concat"(%268, %271, %269, %270) {axis = 0 : si64} : (tensor<1xi64>, tensor<1xi64>, tensor<1xi64>, tensor<1xi64>) -> tensor<4xi64>
    %273 = "onnx.Reshape"(%267, %272) {allowzero = 0 : si64} : (tensor<64x32x64xf32>, tensor<4xi64>) -> tensor<64x32x35x35xf32>
    %274 = "onnx.Relu"(%273) {onnx_node_name = "Relu_53"} : (tensor<64x32x35x35xf32>) -> tensor<64x32x35x35xf32>
    %275 = "onnx.Concat"(%216, %235, %256, %274) {axis = 1 : si64, onnx_node_name = "Concat_54"} : (tensor<64x64x35x35xf32>, tensor<64x64x35x35xf32>, tensor<64x96x35x35xf32>, tensor<64x32x35x35xf32>) -> tensor<64x256x35x35xf32>
    %276 = "onnx.Dim"(%275) {axis = 0 : si64} : (tensor<64x256x35x35xf32>) -> tensor<1xi64>
    %277 = "onnx.Constant"() {value = dense<256> : tensor<1xi64>} : () -> tensor<1xi64>
    %278 = "onnx.Constant"() {value = dense<-1> : tensor<1xi64>} : () -> tensor<1xi64>
    %279 = "onnx.Concat"(%276, %277, %278) {axis = 0 : si64} : (tensor<1xi64>, tensor<1xi64>, tensor<1xi64>) -> tensor<3xi64>
    %280 = "onnx.Reshape"(%275, %279) {allowzero = 0 : si64} : (tensor<64x256x35x35xf32>, tensor<3xi64>) -> tensor<64x256x64xf32>
    %281 = "onnx.Constant"() {value = dense<[64, -1]> : tensor<2xi64>} : () -> tensor<2xi64>
    %282 = "onnx.Reshape"(%21, %281) {allowzero = 0 : si64} : (tensor<64x256x1x1xf32>, tensor<2xi64>) -> tensor<64x256xf32>
    %283 = "onnx.MatMul"(%282, %280) : (tensor<64x256xf32>, tensor<64x256x64xf32>) -> tensor<64x64x64xf32>
    %284 = "onnx.Constant"() {value = dense<[[[… > : tensor<1x64x1xf32>} : () -> tensor<1x64x1xf32>
    %285 = "onnx.Add"(%283, %284) : (tensor<64x64x64xf32>, tensor<1x64x1xf32>) -> tensor<64x64x64xf32>
    %286 = "onnx.Dim"(%275) {axis = 0 : si64} : (tensor<64x256x35x35xf32>) -> tensor<1xi64>
    %287 = "onnx.Constant"() {value = dense<35> : tensor<1xi64>} : () -> tensor<1xi64>
    %288 = "onnx.Constant"() {value = dense<35> : tensor<1xi64>} : () -> tensor<1xi64>
    %289 = "onnx.Constant"() {value = dense<64> : tensor<1xi64>} : () -> tensor<1xi64>
    %290 = "onnx.Concat"(%286, %289, %287, %288) {axis = 0 : si64} : (tensor<1xi64>, tensor<1xi64>, tensor<1xi64>, tensor<1xi64>) -> tensor<4xi64>
    %291 = "onnx.Reshape"(%285, %290) {allowzero = 0 : si64} : (tensor<64x64x64xf32>, tensor<4xi64>) -> tensor<64x64x35x35xf32>
    %292 = "onnx.Relu"(%291) {onnx_node_name = "Relu_56"} : (tensor<64x64x35x35xf32>) -> tensor<64x64x35x35xf32>
    %293 = "onnx.Dim"(%275) {axis = 0 : si64} : (tensor<64x256x35x35xf32>) -> tensor<1xi64>
    %294 = "onnx.Constant"() {value = dense<256> : tensor<1xi64>} : () -> tensor<1xi64>
    %295 = "onnx.Constant"() {value = dense<-1> : tensor<1xi64>} : () -> tensor<1xi64>
    %296 = "onnx.Concat"(%293, %294, %295) {axis = 0 : si64} : (tensor<1xi64>, tensor<1xi64>, tensor<1xi64>) -> tensor<3xi64>
    %297 = "onnx.Reshape"(%275, %296) {allowzero = 0 : si64} : (tensor<64x256x35x35xf32>, tensor<3xi64>) -> tensor<64x256x64xf32>
    %298 = "onnx.Constant"() {value = dense<[48, -1]> : tensor<2xi64>} : () -> tensor<2xi64>
    %299 = "onnx.Reshape"(%22, %298) {allowzero = 0 : si64} : (tensor<48x256x1x1xf32>, tensor<2xi64>) -> tensor<48x256xf32>
    %300 = "onnx.MatMul"(%299, %297) : (tensor<48x256xf32>, tensor<64x256x64xf32>) -> tensor<64x48x64xf32>
    %301 = "onnx.Constant"() {value = dense<[[[… > : tensor<1x48x1xf32>} : () -> tensor<1x48x1xf32>
    %302 = "onnx.Add"(%300, %301) : (tensor<64x48x64xf32>, tensor<1x48x1xf32>) -> tensor<64x48x64xf32>
    %303 = "onnx.Dim"(%275) {axis = 0 : si64} : (tensor<64x256x35x35xf32>) -> tensor<1xi64>
    %304 = "onnx.Constant"() {value = dense<35> : tensor<1xi64>} : () -> tensor<1xi64>
    %305 = "onnx.Constant"() {value = dense<35> : tensor<1xi64>} : () -> tensor<1xi64>
    %306 = "onnx.Constant"() {value = dense<48> : tensor<1xi64>} : () -> tensor<1xi64>
    %307 = "onnx.Concat"(%303, %306, %304, %305) {axis = 0 : si64} : (tensor<1xi64>, tensor<1xi64>, tensor<1xi64>, tensor<1xi64>) -> tensor<4xi64>
    %308 = "onnx.Reshape"(%302, %307) {allowzero = 0 : si64} : (tensor<64x48x64xf32>, tensor<4xi64>) -> tensor<64x48x35x35xf32>
    %309 = "onnx.Relu"(%308) {onnx_node_name = "Relu_58"} : (tensor<64x48x35x35xf32>) -> tensor<64x48x35x35xf32>
    %310 = "onnx.Conv"(%309, %23, %24) {auto_pad = "NOTSET", dilations = [1, 1], group = 1 : si64, kernel_shape = [5, 5], onnx_node_name = "Conv_59", pads = [2, 2, 2, 2], strides = [1, 1]} : (tensor<64x48x35x35xf32>, tensor<64x48x5x5xf32>, tensor<64xf32>) -> tensor<64x64x35x35xf32>
    %311 = "onnx.Relu"(%310) {onnx_node_name = "Relu_60"} : (tensor<64x64x35x35xf32>) -> tensor<64x64x35x35xf32>
    %312 = "onnx.Dim"(%275) {axis = 0 : si64} : (tensor<64x256x35x35xf32>) -> tensor<1xi64>
    %313 = "onnx.Constant"() {value = dense<256> : tensor<1xi64>} : () -> tensor<1xi64>
    %314 = "onnx.Constant"() {value = dense<-1> : tensor<1xi64>} : () -> tensor<1xi64>
    %315 = "onnx.Concat"(%312, %313, %314) {axis = 0 : si64} : (tensor<1xi64>, tensor<1xi64>, tensor<1xi64>) -> tensor<3xi64>
    %316 = "onnx.Reshape"(%275, %315) {allowzero = 0 : si64} : (tensor<64x256x35x35xf32>, tensor<3xi64>) -> tensor<64x256x64xf32>
    %317 = "onnx.Constant"() {value = dense<[64, -1]> : tensor<2xi64>} : () -> tensor<2xi64>
    %318 = "onnx.Reshape"(%25, %317) {allowzero = 0 : si64} : (tensor<64x256x1x1xf32>, tensor<2xi64>) -> tensor<64x256xf32>
    %319 = "onnx.MatMul"(%318, %316) : (tensor<64x256xf32>, tensor<64x256x64xf32>) -> tensor<64x64x64xf32>
    %320 = "onnx.Constant"() {value = dense<[[[… > : tensor<1x64x1xf32>} : () -> tensor<1x64x1xf32>
    %321 = "onnx.Add"(%319, %320) : (tensor<64x64x64xf32>, tensor<1x64x1xf32>) -> tensor<64x64x64xf32>
    %322 = "onnx.Dim"(%275) {axis = 0 : si64} : (tensor<64x256x35x35xf32>) -> tensor<1xi64>
    %323 = "onnx.Constant"() {value = dense<35> : tensor<1xi64>} : () -> tensor<1xi64>
    %324 = "onnx.Constant"() {value = dense<35> : tensor<1xi64>} : () -> tensor<1xi64>
    %325 = "onnx.Constant"() {value = dense<64> : tensor<1xi64>} : () -> tensor<1xi64>
    %326 = "onnx.Concat"(%322, %325, %323, %324) {axis = 0 : si64} : (tensor<1xi64>, tensor<1xi64>, tensor<1xi64>, tensor<1xi64>) -> tensor<4xi64>
    %327 = "onnx.Reshape"(%321, %326) {allowzero = 0 : si64} : (tensor<64x64x64xf32>, tensor<4xi64>) -> tensor<64x64x35x35xf32>
    %328 = "onnx.Relu"(%327) {onnx_node_name = "Relu_62"} : (tensor<64x64x35x35xf32>) -> tensor<64x64x35x35xf32>
    %329 = "onnx.Conv"(%328, %26, %27) {auto_pad = "NOTSET", dilations = [1, 1], group = 1 : si64, kernel_shape = [3, 3], onnx_node_name = "Conv_63", pads = [1, 1, 1, 1], strides = [1, 1]} : (tensor<64x64x35x35xf32>, tensor<96x64x3x3xf32>, tensor<96xf32>) -> tensor<64x96x35x35xf32>
    %330 = "onnx.Relu"(%329) {onnx_node_name = "Relu_64"} : (tensor<64x96x35x35xf32>) -> tensor<64x96x35x35xf32>
    %331 = "onnx.Conv"(%330, %28, %29) {auto_pad = "NOTSET", dilations = [1, 1], group = 1 : si64, kernel_shape = [3, 3], onnx_node_name = "Conv_65", pads = [1, 1, 1, 1], strides = [1, 1]} : (tensor<64x96x35x35xf32>, tensor<96x96x3x3xf32>, tensor<96xf32>) -> tensor<64x96x35x35xf32>
    %332 = "onnx.Relu"(%331) {onnx_node_name = "Relu_66"} : (tensor<64x96x35x35xf32>) -> tensor<64x96x35x35xf32>
    %333 = "onnx.AveragePool"(%275) {auto_pad = "NOTSET", ceil_mode = 0 : si64, count_include_pad = 0 : si64, kernel_shape = [3, 3], onnx_node_name = "AveragePool_69", pads = [1, 1, 1, 1], strides = [1, 1]} : (tensor<64x256x35x35xf32>) -> tensor<64x256x35x35xf32>
    %334 = "onnx.Dim"(%333) {axis = 0 : si64} : (tensor<64x256x35x35xf32>) -> tensor<1xi64>
    %335 = "onnx.Constant"() {value = dense<256> : tensor<1xi64>} : () -> tensor<1xi64>
    %336 = "onnx.Constant"() {value = dense<-1> : tensor<1xi64>} : () -> tensor<1xi64>
    %337 = "onnx.Concat"(%334, %335, %336) {axis = 0 : si64} : (tensor<1xi64>, tensor<1xi64>, tensor<1xi64>) -> tensor<3xi64>
    %338 = "onnx.Reshape"(%333, %337) {allowzero = 0 : si64} : (tensor<64x256x35x35xf32>, tensor<3xi64>) -> tensor<64x256x64xf32>
    %339 = "onnx.Constant"() {value = dense<[64, -1]> : tensor<2xi64>} : () -> tensor<2xi64>
    %340 = "onnx.Reshape"(%30, %339) {allowzero = 0 : si64} : (tensor<64x256x1x1xf32>, tensor<2xi64>) -> tensor<64x256xf32>
    %341 = "onnx.MatMul"(%340, %338) : (tensor<64x256xf32>, tensor<64x256x64xf32>) -> tensor<64x64x64xf32>
    %342 = "onnx.Constant"() {value = dense<[[[… > : tensor<1x64x1xf32>} : () -> tensor<1x64x1xf32>
    %343 = "onnx.Add"(%341, %342) : (tensor<64x64x64xf32>, tensor<1x64x1xf32>) -> tensor<64x64x64xf32>
    %344 = "onnx.Dim"(%333) {axis = 0 : si64} : (tensor<64x256x35x35xf32>) -> tensor<1xi64>
    %345 = "onnx.Constant"() {value = dense<35> : tensor<1xi64>} : () -> tensor<1xi64>
    %346 = "onnx.Constant"() {value = dense<35> : tensor<1xi64>} : () -> tensor<1xi64>
    %347 = "onnx.Constant"() {value = dense<64> : tensor<1xi64>} : () -> tensor<1xi64>
    %348 = "onnx.Concat"(%344, %347, %345, %346) {axis = 0 : si64} : (tensor<1xi64>, tensor<1xi64>, tensor<1xi64>, tensor<1xi64>) -> tensor<4xi64>
    %349 = "onnx.Reshape"(%343, %348) {allowzero = 0 : si64} : (tensor<64x64x64xf32>, tensor<4xi64>) -> tensor<64x64x35x35xf32>
    %350 = "onnx.Relu"(%349) {onnx_node_name = "Relu_71"} : (tensor<64x64x35x35xf32>) -> tensor<64x64x35x35xf32>
    %351 = "onnx.Concat"(%292, %311, %332, %350) {axis = 1 : si64, onnx_node_name = "Concat_72"} : (tensor<64x64x35x35xf32>, tensor<64x64x35x35xf32>, tensor<64x96x35x35xf32>, tensor<64x64x35x35xf32>) -> tensor<64x288x35x35xf32>
    %352 = "onnx.Dim"(%351) {axis = 0 : si64} : (tensor<64x288x35x35xf32>) -> tensor<1xi64>
    %353 = "onnx.Constant"() {value = dense<288> : tensor<1xi64>} : () -> tensor<1xi64>
    %354 = "onnx.Constant"() {value = dense<-1> : tensor<1xi64>} : () -> tensor<1xi64>
    %355 = "onnx.Concat"(%352, %353, %354) {axis = 0 : si64} : (tensor<1xi64>, tensor<1xi64>, tensor<1xi64>) -> tensor<3xi64>
    %356 = "onnx.Reshape"(%351, %355) {allowzero = 0 : si64} : (tensor<64x288x35x35xf32>, tensor<3xi64>) -> tensor<64x288x64xf32>
    %357 = "onnx.Constant"() {value = dense<[64, -1]> : tensor<2xi64>} : () -> tensor<2xi64>
    %358 = "onnx.Reshape"(%31, %357) {allowzero = 0 : si64} : (tensor<64x288x1x1xf32>, tensor<2xi64>) -> tensor<64x288xf32>
    %359 = "onnx.MatMul"(%358, %356) : (tensor<64x288xf32>, tensor<64x288x64xf32>) -> tensor<64x64x64xf32>
    %360 = "onnx.Constant"() {value = dense<[[[… > : tensor<1x64x1xf32>} : () -> tensor<1x64x1xf32>
    %361 = "onnx.Add"(%359, %360) : (tensor<64x64x64xf32>, tensor<1x64x1xf32>) -> tensor<64x64x64xf32>
    %362 = "onnx.Dim"(%351) {axis = 0 : si64} : (tensor<64x288x35x35xf32>) -> tensor<1xi64>
    %363 = "onnx.Constant"() {value = dense<35> : tensor<1xi64>} : () -> tensor<1xi64>
    %364 = "onnx.Constant"() {value = dense<35> : tensor<1xi64>} : () -> tensor<1xi64>
    %365 = "onnx.Constant"() {value = dense<64> : tensor<1xi64>} : () -> tensor<1xi64>
    %366 = "onnx.Concat"(%362, %365, %363, %364) {axis = 0 : si64} : (tensor<1xi64>, tensor<1xi64>, tensor<1xi64>, tensor<1xi64>) -> tensor<4xi64>
    %367 = "onnx.Reshape"(%361, %366) {allowzero = 0 : si64} : (tensor<64x64x64xf32>, tensor<4xi64>) -> tensor<64x64x35x35xf32>
    %368 = "onnx.Relu"(%367) {onnx_node_name = "Relu_74"} : (tensor<64x64x35x35xf32>) -> tensor<64x64x35x35xf32>
    %369 = "onnx.Dim"(%351) {axis = 0 : si64} : (tensor<64x288x35x35xf32>) -> tensor<1xi64>
    %370 = "onnx.Constant"() {value = dense<288> : tensor<1xi64>} : () -> tensor<1xi64>
    %371 = "onnx.Constant"() {value = dense<-1> : tensor<1xi64>} : () -> tensor<1xi64>
    %372 = "onnx.Concat"(%369, %370, %371) {axis = 0 : si64} : (tensor<1xi64>, tensor<1xi64>, tensor<1xi64>) -> tensor<3xi64>
    %373 = "onnx.Reshape"(%351, %372) {allowzero = 0 : si64} : (tensor<64x288x35x35xf32>, tensor<3xi64>) -> tensor<64x288x64xf32>
    %374 = "onnx.Constant"() {value = dense<[48, -1]> : tensor<2xi64>} : () -> tensor<2xi64>
    %375 = "onnx.Reshape"(%32, %374) {allowzero = 0 : si64} : (tensor<48x288x1x1xf32>, tensor<2xi64>) -> tensor<48x288xf32>
    %376 = "onnx.MatMul"(%375, %373) : (tensor<48x288xf32>, tensor<64x288x64xf32>) -> tensor<64x48x64xf32>
    %377 = "onnx.Constant"() {value = dense<[[[… > : tensor<1x48x1xf32>} : () -> tensor<1x48x1xf32>
    %378 = "onnx.Add"(%376, %377) : (tensor<64x48x64xf32>, tensor<1x48x1xf32>) -> tensor<64x48x64xf32>
    %379 = "onnx.Dim"(%351) {axis = 0 : si64} : (tensor<64x288x35x35xf32>) -> tensor<1xi64>
    %380 = "onnx.Constant"() {value = dense<35> : tensor<1xi64>} : () -> tensor<1xi64>
    %381 = "onnx.Constant"() {value = dense<35> : tensor<1xi64>} : () -> tensor<1xi64>
    %382 = "onnx.Constant"() {value = dense<48> : tensor<1xi64>} : () -> tensor<1xi64>
    %383 = "onnx.Concat"(%379, %382, %380, %381) {axis = 0 : si64} : (tensor<1xi64>, tensor<1xi64>, tensor<1xi64>, tensor<1xi64>) -> tensor<4xi64>
    %384 = "onnx.Reshape"(%378, %383) {allowzero = 0 : si64} : (tensor<64x48x64xf32>, tensor<4xi64>) -> tensor<64x48x35x35xf32>
    %385 = "onnx.Relu"(%384) {onnx_node_name = "Relu_76"} : (tensor<64x48x35x35xf32>) -> tensor<64x48x35x35xf32>
    %386 = "onnx.Conv"(%385, %33, %34) {auto_pad = "NOTSET", dilations = [1, 1], group = 1 : si64, kernel_shape = [5, 5], onnx_node_name = "Conv_77", pads = [2, 2, 2, 2], strides = [1, 1]} : (tensor<64x48x35x35xf32>, tensor<64x48x5x5xf32>, tensor<64xf32>) -> tensor<64x64x35x35xf32>
    %387 = "onnx.Relu"(%386) {onnx_node_name = "Relu_78"} : (tensor<64x64x35x35xf32>) -> tensor<64x64x35x35xf32>
    %388 = "onnx.Dim"(%351) {axis = 0 : si64} : (tensor<64x288x35x35xf32>) -> tensor<1xi64>
    %389 = "onnx.Constant"() {value = dense<288> : tensor<1xi64>} : () -> tensor<1xi64>
    %390 = "onnx.Constant"() {value = dense<-1> : tensor<1xi64>} : () -> tensor<1xi64>
    %391 = "onnx.Concat"(%388, %389, %390) {axis = 0 : si64} : (tensor<1xi64>, tensor<1xi64>, tensor<1xi64>) -> tensor<3xi64>
    %392 = "onnx.Reshape"(%351, %391) {allowzero = 0 : si64} : (tensor<64x288x35x35xf32>, tensor<3xi64>) -> tensor<64x288x64xf32>
    %393 = "onnx.Constant"() {value = dense<[64, -1]> : tensor<2xi64>} : () -> tensor<2xi64>
    %394 = "onnx.Reshape"(%35, %393) {allowzero = 0 : si64} : (tensor<64x288x1x1xf32>, tensor<2xi64>) -> tensor<64x288xf32>
    %395 = "onnx.MatMul"(%394, %392) : (tensor<64x288xf32>, tensor<64x288x64xf32>) -> tensor<64x64x64xf32>
    %396 = "onnx.Constant"() {value = dense<[[[… > : tensor<1x64x1xf32>} : () -> tensor<1x64x1xf32>
    %397 = "onnx.Add"(%395, %396) : (tensor<64x64x64xf32>, tensor<1x64x1xf32>) -> tensor<64x64x64xf32>
    %398 = "onnx.Dim"(%351) {axis = 0 : si64} : (tensor<64x288x35x35xf32>) -> tensor<1xi64>
    %399 = "onnx.Constant"() {value = dense<35> : tensor<1xi64>} : () -> tensor<1xi64>
    %400 = "onnx.Constant"() {value = dense<35> : tensor<1xi64>} : () -> tensor<1xi64>
    %401 = "onnx.Constant"() {value = dense<64> : tensor<1xi64>} : () -> tensor<1xi64>
    %402 = "onnx.Concat"(%398, %401, %399, %400) {axis = 0 : si64} : (tensor<1xi64>, tensor<1xi64>, tensor<1xi64>, tensor<1xi64>) -> tensor<4xi64>
    %403 = "onnx.Reshape"(%397, %402) {allowzero = 0 : si64} : (tensor<64x64x64xf32>, tensor<4xi64>) -> tensor<64x64x35x35xf32>
    %404 = "onnx.Relu"(%403) {onnx_node_name = "Relu_80"} : (tensor<64x64x35x35xf32>) -> tensor<64x64x35x35xf32>
    %405 = "onnx.Conv"(%404, %36, %37) {auto_pad = "NOTSET", dilations = [1, 1], group = 1 : si64, kernel_shape = [3, 3], onnx_node_name = "Conv_81", pads = [1, 1, 1, 1], strides = [1, 1]} : (tensor<64x64x35x35xf32>, tensor<96x64x3x3xf32>, tensor<96xf32>) -> tensor<64x96x35x35xf32>
    %406 = "onnx.Relu"(%405) {onnx_node_name = "Relu_82"} : (tensor<64x96x35x35xf32>) -> tensor<64x96x35x35xf32>
    %407 = "onnx.Conv"(%406, %38, %39) {auto_pad = "NOTSET", dilations = [1, 1], group = 1 : si64, kernel_shape = [3, 3], onnx_node_name = "Conv_83", pads = [1, 1, 1, 1], strides = [1, 1]} : (tensor<64x96x35x35xf32>, tensor<96x96x3x3xf32>, tensor<96xf32>) -> tensor<64x96x35x35xf32>
    %408 = "onnx.Relu"(%407) {onnx_node_name = "Relu_84"} : (tensor<64x96x35x35xf32>) -> tensor<64x96x35x35xf32>
    %409 = "onnx.AveragePool"(%351) {auto_pad = "NOTSET", ceil_mode = 0 : si64, count_include_pad = 0 : si64, kernel_shape = [3, 3], onnx_node_name = "AveragePool_87", pads = [1, 1, 1, 1], strides = [1, 1]} : (tensor<64x288x35x35xf32>) -> tensor<64x288x35x35xf32>
    %410 = "onnx.Dim"(%409) {axis = 0 : si64} : (tensor<64x288x35x35xf32>) -> tensor<1xi64>
    %411 = "onnx.Constant"() {value = dense<288> : tensor<1xi64>} : () -> tensor<1xi64>
    %412 = "onnx.Constant"() {value = dense<-1> : tensor<1xi64>} : () -> tensor<1xi64>
    %413 = "onnx.Concat"(%410, %411, %412) {axis = 0 : si64} : (tensor<1xi64>, tensor<1xi64>, tensor<1xi64>) -> tensor<3xi64>
    %414 = "onnx.Reshape"(%409, %413) {allowzero = 0 : si64} : (tensor<64x288x35x35xf32>, tensor<3xi64>) -> tensor<64x288x64xf32>
    %415 = "onnx.Constant"() {value = dense<[64, -1]> : tensor<2xi64>} : () -> tensor<2xi64>
    %416 = "onnx.Reshape"(%40, %415) {allowzero = 0 : si64} : (tensor<64x288x1x1xf32>, tensor<2xi64>) -> tensor<64x288xf32>
    %417 = "onnx.MatMul"(%416, %414) : (tensor<64x288xf32>, tensor<64x288x64xf32>) -> tensor<64x64x64xf32>
    %418 = "onnx.Constant"() {value = dense<[[[… > : tensor<1x64x1xf32>} : () -> tensor<1x64x1xf32>
    %419 = "onnx.Add"(%417, %418) : (tensor<64x64x64xf32>, tensor<1x64x1xf32>) -> tensor<64x64x64xf32>
    %420 = "onnx.Dim"(%409) {axis = 0 : si64} : (tensor<64x288x35x35xf32>) -> tensor<1xi64>
    %421 = "onnx.Constant"() {value = dense<35> : tensor<1xi64>} : () -> tensor<1xi64>
    %422 = "onnx.Constant"() {value = dense<35> : tensor<1xi64>} : () -> tensor<1xi64>
    %423 = "onnx.Constant"() {value = dense<64> : tensor<1xi64>} : () -> tensor<1xi64>
    %424 = "onnx.Concat"(%420, %423, %421, %422) {axis = 0 : si64} : (tensor<1xi64>, tensor<1xi64>, tensor<1xi64>, tensor<1xi64>) -> tensor<4xi64>
    %425 = "onnx.Reshape"(%419, %424) {allowzero = 0 : si64} : (tensor<64x64x64xf32>, tensor<4xi64>) -> tensor<64x64x35x35xf32>
    %426 = "onnx.Relu"(%425) {onnx_node_name = "Relu_89"} : (tensor<64x64x35x35xf32>) -> tensor<64x64x35x35xf32>
    %427 = "onnx.Concat"(%368, %387, %408, %426) {axis = 1 : si64, onnx_node_name = "Concat_90"} : (tensor<64x64x35x35xf32>, tensor<64x64x35x35xf32>, tensor<64x96x35x35xf32>, tensor<64x64x35x35xf32>) -> tensor<64x288x35x35xf32>
    %428 = "onnx.Conv"(%427, %41, %42) {auto_pad = "NOTSET", dilations = [1, 1], group = 1 : si64, kernel_shape = [3, 3], onnx_node_name = "Conv_91", pads = [0, 0, 0, 0], strides = [2, 2]} : (tensor<64x288x35x35xf32>, tensor<384x288x3x3xf32>, tensor<384xf32>) -> tensor<64x384x17x17xf32>
    %429 = "onnx.Relu"(%428) {onnx_node_name = "Relu_92"} : (tensor<64x384x17x17xf32>) -> tensor<64x384x17x17xf32>
    %430 = "onnx.Dim"(%427) {axis = 0 : si64} : (tensor<64x288x35x35xf32>) -> tensor<1xi64>
    %431 = "onnx.Constant"() {value = dense<288> : tensor<1xi64>} : () -> tensor<1xi64>
    %432 = "onnx.Constant"() {value = dense<-1> : tensor<1xi64>} : () -> tensor<1xi64>
    %433 = "onnx.Concat"(%430, %431, %432) {axis = 0 : si64} : (tensor<1xi64>, tensor<1xi64>, tensor<1xi64>) -> tensor<3xi64>
    %434 = "onnx.Reshape"(%427, %433) {allowzero = 0 : si64} : (tensor<64x288x35x35xf32>, tensor<3xi64>) -> tensor<64x288x64xf32>
    %435 = "onnx.Constant"() {value = dense<[64, -1]> : tensor<2xi64>} : () -> tensor<2xi64>
    %436 = "onnx.Reshape"(%43, %435) {allowzero = 0 : si64} : (tensor<64x288x1x1xf32>, tensor<2xi64>) -> tensor<64x288xf32>
    %437 = "onnx.MatMul"(%436, %434) : (tensor<64x288xf32>, tensor<64x288x64xf32>) -> tensor<64x64x64xf32>
    %438 = "onnx.Constant"() {value = dense<[[[… > : tensor<1x64x1xf32>} : () -> tensor<1x64x1xf32>
    %439 = "onnx.Add"(%437, %438) : (tensor<64x64x64xf32>, tensor<1x64x1xf32>) -> tensor<64x64x64xf32>
    %440 = "onnx.Dim"(%427) {axis = 0 : si64} : (tensor<64x288x35x35xf32>) -> tensor<1xi64>
    %441 = "onnx.Constant"() {value = dense<35> : tensor<1xi64>} : () -> tensor<1xi64>
    %442 = "onnx.Constant"() {value = dense<35> : tensor<1xi64>} : () -> tensor<1xi64>
    %443 = "onnx.Constant"() {value = dense<64> : tensor<1xi64>} : () -> tensor<1xi64>
    %444 = "onnx.Concat"(%440, %443, %441, %442) {axis = 0 : si64} : (tensor<1xi64>, tensor<1xi64>, tensor<1xi64>, tensor<1xi64>) -> tensor<4xi64>
    %445 = "onnx.Reshape"(%439, %444) {allowzero = 0 : si64} : (tensor<64x64x64xf32>, tensor<4xi64>) -> tensor<64x64x35x35xf32>
    %446 = "onnx.Relu"(%445) {onnx_node_name = "Relu_94"} : (tensor<64x64x35x35xf32>) -> tensor<64x64x35x35xf32>
    %447 = "onnx.Conv"(%446, %44, %45) {auto_pad = "NOTSET", dilations = [1, 1], group = 1 : si64, kernel_shape = [3, 3], onnx_node_name = "Conv_95", pads = [1, 1, 1, 1], strides = [1, 1]} : (tensor<64x64x35x35xf32>, tensor<96x64x3x3xf32>, tensor<96xf32>) -> tensor<64x96x35x35xf32>
    %448 = "onnx.Relu"(%447) {onnx_node_name = "Relu_96"} : (tensor<64x96x35x35xf32>) -> tensor<64x96x35x35xf32>
    %449 = "onnx.Conv"(%448, %46, %47) {auto_pad = "NOTSET", dilations = [1, 1], group = 1 : si64, kernel_shape = [3, 3], onnx_node_name = "Conv_97", pads = [0, 0, 0, 0], strides = [2, 2]} : (tensor<64x96x35x35xf32>, tensor<96x96x3x3xf32>, tensor<96xf32>) -> tensor<64x96x17x17xf32>
    %450 = "onnx.Relu"(%449) {onnx_node_name = "Relu_98"} : (tensor<64x96x17x17xf32>) -> tensor<64x96x17x17xf32>
    %451 = "onnx.MaxPoolSingleOut"(%427) {auto_pad = "NOTSET", ceil_mode = 0 : si64, kernel_shape = [3, 3], onnx_node_name = "MaxPool_99", pads = [0, 0, 0, 0], storage_order = 0 : si64, strides = [2, 2]} : (tensor<64x288x35x35xf32>) -> tensor<64x288x17x17xf32>
    %452 = "onnx.Concat"(%429, %450, %451) {axis = 1 : si64, onnx_node_name = "Concat_100"} : (tensor<64x384x17x17xf32>, tensor<64x96x17x17xf32>, tensor<64x288x17x17xf32>) -> tensor<64x768x17x17xf32>
    %453 = "onnx.Dim"(%452) {axis = 0 : si64} : (tensor<64x768x17x17xf32>) -> tensor<1xi64>
    %454 = "onnx.Constant"() {value = dense<768> : tensor<1xi64>} : () -> tensor<1xi64>
    %455 = "onnx.Constant"() {value = dense<-1> : tensor<1xi64>} : () -> tensor<1xi64>
    %456 = "onnx.Concat"(%453, %454, %455) {axis = 0 : si64} : (tensor<1xi64>, tensor<1xi64>, tensor<1xi64>) -> tensor<3xi64>
    %457 = "onnx.Reshape"(%452, %456) {allowzero = 0 : si64} : (tensor<64x768x17x17xf32>, tensor<3xi64>) -> tensor<64x768x64xf32>
    %458 = "onnx.Constant"() {value = dense<[192, -1]> : tensor<2xi64>} : () -> tensor<2xi64>
    %459 = "onnx.Reshape"(%48, %458) {allowzero = 0 : si64} : (tensor<192x768x1x1xf32>, tensor<2xi64>) -> tensor<192x768xf32>
    %460 = "onnx.MatMul"(%459, %457) : (tensor<192x768xf32>, tensor<64x768x64xf32>) -> tensor<64x192x64xf32>
    %461 = "onnx.Constant"() {value = dense_resource<__elided__> : tensor<1x192x1xf32>} : () -> tensor<1x192x1xf32>
    %462 = "onnx.Add"(%460, %461) : (tensor<64x192x64xf32>, tensor<1x192x1xf32>) -> tensor<64x192x64xf32>
    %463 = "onnx.Dim"(%452) {axis = 0 : si64} : (tensor<64x768x17x17xf32>) -> tensor<1xi64>
    %464 = "onnx.Constant"() {value = dense<17> : tensor<1xi64>} : () -> tensor<1xi64>
    %465 = "onnx.Constant"() {value = dense<17> : tensor<1xi64>} : () -> tensor<1xi64>
    %466 = "onnx.Constant"() {value = dense<192> : tensor<1xi64>} : () -> tensor<1xi64>
    %467 = "onnx.Concat"(%463, %466, %464, %465) {axis = 0 : si64} : (tensor<1xi64>, tensor<1xi64>, tensor<1xi64>, tensor<1xi64>) -> tensor<4xi64>
    %468 = "onnx.Reshape"(%462, %467) {allowzero = 0 : si64} : (tensor<64x192x64xf32>, tensor<4xi64>) -> tensor<64x192x17x17xf32>
    %469 = "onnx.Relu"(%468) {onnx_node_name = "Relu_102"} : (tensor<64x192x17x17xf32>) -> tensor<64x192x17x17xf32>
    %470 = "onnx.Dim"(%452) {axis = 0 : si64} : (tensor<64x768x17x17xf32>) -> tensor<1xi64>
    %471 = "onnx.Constant"() {value = dense<768> : tensor<1xi64>} : () -> tensor<1xi64>
    %472 = "onnx.Constant"() {value = dense<-1> : tensor<1xi64>} : () -> tensor<1xi64>
    %473 = "onnx.Concat"(%470, %471, %472) {axis = 0 : si64} : (tensor<1xi64>, tensor<1xi64>, tensor<1xi64>) -> tensor<3xi64>
    %474 = "onnx.Reshape"(%452, %473) {allowzero = 0 : si64} : (tensor<64x768x17x17xf32>, tensor<3xi64>) -> tensor<64x768x64xf32>
    %475 = "onnx.Constant"() {value = dense<[128, -1]> : tensor<2xi64>} : () -> tensor<2xi64>
    %476 = "onnx.Reshape"(%49, %475) {allowzero = 0 : si64} : (tensor<128x768x1x1xf32>, tensor<2xi64>) -> tensor<128x768xf32>
    %477 = "onnx.MatMul"(%476, %474) : (tensor<128x768xf32>, tensor<64x768x64xf32>) -> tensor<64x128x64xf32>
    %478 = "onnx.Constant"() {value = dense_resource<__elided__> : tensor<1x128x1xf32>} : () -> tensor<1x128x1xf32>
    %479 = "onnx.Add"(%477, %478) : (tensor<64x128x64xf32>, tensor<1x128x1xf32>) -> tensor<64x128x64xf32>
    %480 = "onnx.Dim"(%452) {axis = 0 : si64} : (tensor<64x768x17x17xf32>) -> tensor<1xi64>
    %481 = "onnx.Constant"() {value = dense<17> : tensor<1xi64>} : () -> tensor<1xi64>
    %482 = "onnx.Constant"() {value = dense<17> : tensor<1xi64>} : () -> tensor<1xi64>
    %483 = "onnx.Constant"() {value = dense<128> : tensor<1xi64>} : () -> tensor<1xi64>
    %484 = "onnx.Concat"(%480, %483, %481, %482) {axis = 0 : si64} : (tensor<1xi64>, tensor<1xi64>, tensor<1xi64>, tensor<1xi64>) -> tensor<4xi64>
    %485 = "onnx.Reshape"(%479, %484) {allowzero = 0 : si64} : (tensor<64x128x64xf32>, tensor<4xi64>) -> tensor<64x128x17x17xf32>
    %486 = "onnx.Relu"(%485) {onnx_node_name = "Relu_104"} : (tensor<64x128x17x17xf32>) -> tensor<64x128x17x17xf32>
    %487 = "onnx.Conv"(%486, %50, %51) {auto_pad = "NOTSET", dilations = [1, 1], group = 1 : si64, kernel_shape = [1, 7], onnx_node_name = "Conv_105", pads = [0, 3, 0, 3], strides = [1, 1]} : (tensor<64x128x17x17xf32>, tensor<128x128x1x7xf32>, tensor<128xf32>) -> tensor<64x128x17x17xf32>
    %488 = "onnx.Relu"(%487) {onnx_node_name = "Relu_106"} : (tensor<64x128x17x17xf32>) -> tensor<64x128x17x17xf32>
    %489 = "onnx.Conv"(%488, %52, %53) {auto_pad = "NOTSET", dilations = [1, 1], group = 1 : si64, kernel_shape = [7, 1], onnx_node_name = "Conv_107", pads = [3, 0, 3, 0], strides = [1, 1]} : (tensor<64x128x17x17xf32>, tensor<192x128x7x1xf32>, tensor<192xf32>) -> tensor<64x192x17x17xf32>
    %490 = "onnx.Relu"(%489) {onnx_node_name = "Relu_108"} : (tensor<64x192x17x17xf32>) -> tensor<64x192x17x17xf32>
    %491 = "onnx.Dim"(%452) {axis = 0 : si64} : (tensor<64x768x17x17xf32>) -> tensor<1xi64>
    %492 = "onnx.Constant"() {value = dense<768> : tensor<1xi64>} : () -> tensor<1xi64>
    %493 = "onnx.Constant"() {value = dense<-1> : tensor<1xi64>} : () -> tensor<1xi64>
    %494 = "onnx.Concat"(%491, %492, %493) {axis = 0 : si64} : (tensor<1xi64>, tensor<1xi64>, tensor<1xi64>) -> tensor<3xi64>
    %495 = "onnx.Reshape"(%452, %494) {allowzero = 0 : si64} : (tensor<64x768x17x17xf32>, tensor<3xi64>) -> tensor<64x768x64xf32>
    %496 = "onnx.Constant"() {value = dense<[128, -1]> : tensor<2xi64>} : () -> tensor<2xi64>
    %497 = "onnx.Reshape"(%54, %496) {allowzero = 0 : si64} : (tensor<128x768x1x1xf32>, tensor<2xi64>) -> tensor<128x768xf32>
    %498 = "onnx.MatMul"(%497, %495) : (tensor<128x768xf32>, tensor<64x768x64xf32>) -> tensor<64x128x64xf32>
    %499 = "onnx.Constant"() {value = dense_resource<__elided__> : tensor<1x128x1xf32>} : () -> tensor<1x128x1xf32>
    %500 = "onnx.Add"(%498, %499) : (tensor<64x128x64xf32>, tensor<1x128x1xf32>) -> tensor<64x128x64xf32>
    %501 = "onnx.Dim"(%452) {axis = 0 : si64} : (tensor<64x768x17x17xf32>) -> tensor<1xi64>
    %502 = "onnx.Constant"() {value = dense<17> : tensor<1xi64>} : () -> tensor<1xi64>
    %503 = "onnx.Constant"() {value = dense<17> : tensor<1xi64>} : () -> tensor<1xi64>
    %504 = "onnx.Constant"() {value = dense<128> : tensor<1xi64>} : () -> tensor<1xi64>
    %505 = "onnx.Concat"(%501, %504, %502, %503) {axis = 0 : si64} : (tensor<1xi64>, tensor<1xi64>, tensor<1xi64>, tensor<1xi64>) -> tensor<4xi64>
    %506 = "onnx.Reshape"(%500, %505) {allowzero = 0 : si64} : (tensor<64x128x64xf32>, tensor<4xi64>) -> tensor<64x128x17x17xf32>
    %507 = "onnx.Relu"(%506) {onnx_node_name = "Relu_110"} : (tensor<64x128x17x17xf32>) -> tensor<64x128x17x17xf32>
    %508 = "onnx.Conv"(%507, %55, %56) {auto_pad = "NOTSET", dilations = [1, 1], group = 1 : si64, kernel_shape = [7, 1], onnx_node_name = "Conv_111", pads = [3, 0, 3, 0], strides = [1, 1]} : (tensor<64x128x17x17xf32>, tensor<128x128x7x1xf32>, tensor<128xf32>) -> tensor<64x128x17x17xf32>
    %509 = "onnx.Relu"(%508) {onnx_node_name = "Relu_112"} : (tensor<64x128x17x17xf32>) -> tensor<64x128x17x17xf32>
    %510 = "onnx.Conv"(%509, %57, %58) {auto_pad = "NOTSET", dilations = [1, 1], group = 1 : si64, kernel_shape = [1, 7], onnx_node_name = "Conv_113", pads = [0, 3, 0, 3], strides = [1, 1]} : (tensor<64x128x17x17xf32>, tensor<128x128x1x7xf32>, tensor<128xf32>) -> tensor<64x128x17x17xf32>
    %511 = "onnx.Relu"(%510) {onnx_node_name = "Relu_114"} : (tensor<64x128x17x17xf32>) -> tensor<64x128x17x17xf32>
    %512 = "onnx.Conv"(%511, %59, %60) {auto_pad = "NOTSET", dilations = [1, 1], group = 1 : si64, kernel_shape = [7, 1], onnx_node_name = "Conv_115", pads = [3, 0, 3, 0], strides = [1, 1]} : (tensor<64x128x17x17xf32>, tensor<128x128x7x1xf32>, tensor<128xf32>) -> tensor<64x128x17x17xf32>
    %513 = "onnx.Relu"(%512) {onnx_node_name = "Relu_116"} : (tensor<64x128x17x17xf32>) -> tensor<64x128x17x17xf32>
    %514 = "onnx.Conv"(%513, %61, %62) {auto_pad = "NOTSET", dilations = [1, 1], group = 1 : si64, kernel_shape = [1, 7], onnx_node_name = "Conv_117", pads = [0, 3, 0, 3], strides = [1, 1]} : (tensor<64x128x17x17xf32>, tensor<192x128x1x7xf32>, tensor<192xf32>) -> tensor<64x192x17x17xf32>
    %515 = "onnx.Relu"(%514) {onnx_node_name = "Relu_118"} : (tensor<64x192x17x17xf32>) -> tensor<64x192x17x17xf32>
    %516 = "onnx.AveragePool"(%452) {auto_pad = "NOTSET", ceil_mode = 0 : si64, count_include_pad = 0 : si64, kernel_shape = [3, 3], onnx_node_name = "AveragePool_121", pads = [1, 1, 1, 1], strides = [1, 1]} : (tensor<64x768x17x17xf32>) -> tensor<64x768x17x17xf32>
    %517 = "onnx.Dim"(%516) {axis = 0 : si64} : (tensor<64x768x17x17xf32>) -> tensor<1xi64>
    %518 = "onnx.Constant"() {value = dense<768> : tensor<1xi64>} : () -> tensor<1xi64>
    %519 = "onnx.Constant"() {value = dense<-1> : tensor<1xi64>} : () -> tensor<1xi64>
    %520 = "onnx.Concat"(%517, %518, %519) {axis = 0 : si64} : (tensor<1xi64>, tensor<1xi64>, tensor<1xi64>) -> tensor<3xi64>
    %521 = "onnx.Reshape"(%516, %520) {allowzero = 0 : si64} : (tensor<64x768x17x17xf32>, tensor<3xi64>) -> tensor<64x768x64xf32>
    %522 = "onnx.Constant"() {value = dense<[192, -1]> : tensor<2xi64>} : () -> tensor<2xi64>
    %523 = "onnx.Reshape"(%63, %522) {allowzero = 0 : si64} : (tensor<192x768x1x1xf32>, tensor<2xi64>) -> tensor<192x768xf32>
    %524 = "onnx.MatMul"(%523, %521) : (tensor<192x768xf32>, tensor<64x768x64xf32>) -> tensor<64x192x64xf32>
    %525 = "onnx.Constant"() {value = dense_resource<__elided__> : tensor<1x192x1xf32>} : () -> tensor<1x192x1xf32>
    %526 = "onnx.Add"(%524, %525) : (tensor<64x192x64xf32>, tensor<1x192x1xf32>) -> tensor<64x192x64xf32>
    %527 = "onnx.Dim"(%516) {axis = 0 : si64} : (tensor<64x768x17x17xf32>) -> tensor<1xi64>
    %528 = "onnx.Constant"() {value = dense<17> : tensor<1xi64>} : () -> tensor<1xi64>
    %529 = "onnx.Constant"() {value = dense<17> : tensor<1xi64>} : () -> tensor<1xi64>
    %530 = "onnx.Constant"() {value = dense<192> : tensor<1xi64>} : () -> tensor<1xi64>
    %531 = "onnx.Concat"(%527, %530, %528, %529) {axis = 0 : si64} : (tensor<1xi64>, tensor<1xi64>, tensor<1xi64>, tensor<1xi64>) -> tensor<4xi64>
    %532 = "onnx.Reshape"(%526, %531) {allowzero = 0 : si64} : (tensor<64x192x64xf32>, tensor<4xi64>) -> tensor<64x192x17x17xf32>
    %533 = "onnx.Relu"(%532) {onnx_node_name = "Relu_123"} : (tensor<64x192x17x17xf32>) -> tensor<64x192x17x17xf32>
    %534 = "onnx.Concat"(%469, %490, %515, %533) {axis = 1 : si64, onnx_node_name = "Concat_124"} : (tensor<64x192x17x17xf32>, tensor<64x192x17x17xf32>, tensor<64x192x17x17xf32>, tensor<64x192x17x17xf32>) -> tensor<64x768x17x17xf32>
    %535 = "onnx.Dim"(%534) {axis = 0 : si64} : (tensor<64x768x17x17xf32>) -> tensor<1xi64>
    %536 = "onnx.Constant"() {value = dense<768> : tensor<1xi64>} : () -> tensor<1xi64>
    %537 = "onnx.Constant"() {value = dense<-1> : tensor<1xi64>} : () -> tensor<1xi64>
    %538 = "onnx.Concat"(%535, %536, %537) {axis = 0 : si64} : (tensor<1xi64>, tensor<1xi64>, tensor<1xi64>) -> tensor<3xi64>
    %539 = "onnx.Reshape"(%534, %538) {allowzero = 0 : si64} : (tensor<64x768x17x17xf32>, tensor<3xi64>) -> tensor<64x768x64xf32>
    %540 = "onnx.Constant"() {value = dense<[192, -1]> : tensor<2xi64>} : () -> tensor<2xi64>
    %541 = "onnx.Reshape"(%64, %540) {allowzero = 0 : si64} : (tensor<192x768x1x1xf32>, tensor<2xi64>) -> tensor<192x768xf32>
    %542 = "onnx.MatMul"(%541, %539) : (tensor<192x768xf32>, tensor<64x768x64xf32>) -> tensor<64x192x64xf32>
    %543 = "onnx.Constant"() {value = dense_resource<__elided__> : tensor<1x192x1xf32>} : () -> tensor<1x192x1xf32>
    %544 = "onnx.Add"(%542, %543) : (tensor<64x192x64xf32>, tensor<1x192x1xf32>) -> tensor<64x192x64xf32>
    %545 = "onnx.Dim"(%534) {axis = 0 : si64} : (tensor<64x768x17x17xf32>) -> tensor<1xi64>
    %546 = "onnx.Constant"() {value = dense<17> : tensor<1xi64>} : () -> tensor<1xi64>
    %547 = "onnx.Constant"() {value = dense<17> : tensor<1xi64>} : () -> tensor<1xi64>
    %548 = "onnx.Constant"() {value = dense<192> : tensor<1xi64>} : () -> tensor<1xi64>
    %549 = "onnx.Concat"(%545, %548, %546, %547) {axis = 0 : si64} : (tensor<1xi64>, tensor<1xi64>, tensor<1xi64>, tensor<1xi64>) -> tensor<4xi64>
    %550 = "onnx.Reshape"(%544, %549) {allowzero = 0 : si64} : (tensor<64x192x64xf32>, tensor<4xi64>) -> tensor<64x192x17x17xf32>
    %551 = "onnx.Relu"(%550) {onnx_node_name = "Relu_126"} : (tensor<64x192x17x17xf32>) -> tensor<64x192x17x17xf32>
    %552 = "onnx.Dim"(%534) {axis = 0 : si64} : (tensor<64x768x17x17xf32>) -> tensor<1xi64>
    %553 = "onnx.Constant"() {value = dense<768> : tensor<1xi64>} : () -> tensor<1xi64>
    %554 = "onnx.Constant"() {value = dense<-1> : tensor<1xi64>} : () -> tensor<1xi64>
    %555 = "onnx.Concat"(%552, %553, %554) {axis = 0 : si64} : (tensor<1xi64>, tensor<1xi64>, tensor<1xi64>) -> tensor<3xi64>
    %556 = "onnx.Reshape"(%534, %555) {allowzero = 0 : si64} : (tensor<64x768x17x17xf32>, tensor<3xi64>) -> tensor<64x768x64xf32>
    %557 = "onnx.Constant"() {value = dense<[160, -1]> : tensor<2xi64>} : () -> tensor<2xi64>
    %558 = "onnx.Reshape"(%65, %557) {allowzero = 0 : si64} : (tensor<160x768x1x1xf32>, tensor<2xi64>) -> tensor<160x768xf32>
    %559 = "onnx.MatMul"(%558, %556) : (tensor<160x768xf32>, tensor<64x768x64xf32>) -> tensor<64x160x64xf32>
    %560 = "onnx.Constant"() {value = dense_resource<__elided__> : tensor<1x160x1xf32>} : () -> tensor<1x160x1xf32>
    %561 = "onnx.Add"(%559, %560) : (tensor<64x160x64xf32>, tensor<1x160x1xf32>) -> tensor<64x160x64xf32>
    %562 = "onnx.Dim"(%534) {axis = 0 : si64} : (tensor<64x768x17x17xf32>) -> tensor<1xi64>
    %563 = "onnx.Constant"() {value = dense<17> : tensor<1xi64>} : () -> tensor<1xi64>
    %564 = "onnx.Constant"() {value = dense<17> : tensor<1xi64>} : () -> tensor<1xi64>
    %565 = "onnx.Constant"() {value = dense<160> : tensor<1xi64>} : () -> tensor<1xi64>
    %566 = "onnx.Concat"(%562, %565, %563, %564) {axis = 0 : si64} : (tensor<1xi64>, tensor<1xi64>, tensor<1xi64>, tensor<1xi64>) -> tensor<4xi64>
    %567 = "onnx.Reshape"(%561, %566) {allowzero = 0 : si64} : (tensor<64x160x64xf32>, tensor<4xi64>) -> tensor<64x160x17x17xf32>
    %568 = "onnx.Relu"(%567) {onnx_node_name = "Relu_128"} : (tensor<64x160x17x17xf32>) -> tensor<64x160x17x17xf32>
    %569 = "onnx.Conv"(%568, %66, %67) {auto_pad = "NOTSET", dilations = [1, 1], group = 1 : si64, kernel_shape = [1, 7], onnx_node_name = "Conv_129", pads = [0, 3, 0, 3], strides = [1, 1]} : (tensor<64x160x17x17xf32>, tensor<160x160x1x7xf32>, tensor<160xf32>) -> tensor<64x160x17x17xf32>
    %570 = "onnx.Relu"(%569) {onnx_node_name = "Relu_130"} : (tensor<64x160x17x17xf32>) -> tensor<64x160x17x17xf32>
    %571 = "onnx.Conv"(%570, %68, %69) {auto_pad = "NOTSET", dilations = [1, 1], group = 1 : si64, kernel_shape = [7, 1], onnx_node_name = "Conv_131", pads = [3, 0, 3, 0], strides = [1, 1]} : (tensor<64x160x17x17xf32>, tensor<192x160x7x1xf32>, tensor<192xf32>) -> tensor<64x192x17x17xf32>
    %572 = "onnx.Relu"(%571) {onnx_node_name = "Relu_132"} : (tensor<64x192x17x17xf32>) -> tensor<64x192x17x17xf32>
    %573 = "onnx.Dim"(%534) {axis = 0 : si64} : (tensor<64x768x17x17xf32>) -> tensor<1xi64>
    %574 = "onnx.Constant"() {value = dense<768> : tensor<1xi64>} : () -> tensor<1xi64>
    %575 = "onnx.Constant"() {value = dense<-1> : tensor<1xi64>} : () -> tensor<1xi64>
    %576 = "onnx.Concat"(%573, %574, %575) {axis = 0 : si64} : (tensor<1xi64>, tensor<1xi64>, tensor<1xi64>) -> tensor<3xi64>
    %577 = "onnx.Reshape"(%534, %576) {allowzero = 0 : si64} : (tensor<64x768x17x17xf32>, tensor<3xi64>) -> tensor<64x768x64xf32>
    %578 = "onnx.Constant"() {value = dense<[160, -1]> : tensor<2xi64>} : () -> tensor<2xi64>
    %579 = "onnx.Reshape"(%70, %578) {allowzero = 0 : si64} : (tensor<160x768x1x1xf32>, tensor<2xi64>) -> tensor<160x768xf32>
    %580 = "onnx.MatMul"(%579, %577) : (tensor<160x768xf32>, tensor<64x768x64xf32>) -> tensor<64x160x64xf32>
    %581 = "onnx.Constant"() {value = dense_resource<__elided__> : tensor<1x160x1xf32>} : () -> tensor<1x160x1xf32>
    %582 = "onnx.Add"(%580, %581) : (tensor<64x160x64xf32>, tensor<1x160x1xf32>) -> tensor<64x160x64xf32>
    %583 = "onnx.Dim"(%534) {axis = 0 : si64} : (tensor<64x768x17x17xf32>) -> tensor<1xi64>
    %584 = "onnx.Constant"() {value = dense<17> : tensor<1xi64>} : () -> tensor<1xi64>
    %585 = "onnx.Constant"() {value = dense<17> : tensor<1xi64>} : () -> tensor<1xi64>
    %586 = "onnx.Constant"() {value = dense<160> : tensor<1xi64>} : () -> tensor<1xi64>
    %587 = "onnx.Concat"(%583, %586, %584, %585) {axis = 0 : si64} : (tensor<1xi64>, tensor<1xi64>, tensor<1xi64>, tensor<1xi64>) -> tensor<4xi64>
    %588 = "onnx.Reshape"(%582, %587) {allowzero = 0 : si64} : (tensor<64x160x64xf32>, tensor<4xi64>) -> tensor<64x160x17x17xf32>
    %589 = "onnx.Relu"(%588) {onnx_node_name = "Relu_134"} : (tensor<64x160x17x17xf32>) -> tensor<64x160x17x17xf32>
    %590 = "onnx.Conv"(%589, %71, %72) {auto_pad = "NOTSET", dilations = [1, 1], group = 1 : si64, kernel_shape = [7, 1], onnx_node_name = "Conv_135", pads = [3, 0, 3, 0], strides = [1, 1]} : (tensor<64x160x17x17xf32>, tensor<160x160x7x1xf32>, tensor<160xf32>) -> tensor<64x160x17x17xf32>
    %591 = "onnx.Relu"(%590) {onnx_node_name = "Relu_136"} : (tensor<64x160x17x17xf32>) -> tensor<64x160x17x17xf32>
    %592 = "onnx.Conv"(%591, %73, %74) {auto_pad = "NOTSET", dilations = [1, 1], group = 1 : si64, kernel_shape = [1, 7], onnx_node_name = "Conv_137", pads = [0, 3, 0, 3], strides = [1, 1]} : (tensor<64x160x17x17xf32>, tensor<160x160x1x7xf32>, tensor<160xf32>) -> tensor<64x160x17x17xf32>
    %593 = "onnx.Relu"(%592) {onnx_node_name = "Relu_138"} : (tensor<64x160x17x17xf32>) -> tensor<64x160x17x17xf32>
    %594 = "onnx.Conv"(%593, %75, %76) {auto_pad = "NOTSET", dilations = [1, 1], group = 1 : si64, kernel_shape = [7, 1], onnx_node_name = "Conv_139", pads = [3, 0, 3, 0], strides = [1, 1]} : (tensor<64x160x17x17xf32>, tensor<160x160x7x1xf32>, tensor<160xf32>) -> tensor<64x160x17x17xf32>
    %595 = "onnx.Relu"(%594) {onnx_node_name = "Relu_140"} : (tensor<64x160x17x17xf32>) -> tensor<64x160x17x17xf32>
    %596 = "onnx.Conv"(%595, %77, %78) {auto_pad = "NOTSET", dilations = [1, 1], group = 1 : si64, kernel_shape = [1, 7], onnx_node_name = "Conv_141", pads = [0, 3, 0, 3], strides = [1, 1]} : (tensor<64x160x17x17xf32>, tensor<192x160x1x7xf32>, tensor<192xf32>) -> tensor<64x192x17x17xf32>
    %597 = "onnx.Relu"(%596) {onnx_node_name = "Relu_142"} : (tensor<64x192x17x17xf32>) -> tensor<64x192x17x17xf32>
    %598 = "onnx.AveragePool"(%534) {auto_pad = "NOTSET", ceil_mode = 0 : si64, count_include_pad = 0 : si64, kernel_shape = [3, 3], onnx_node_name = "AveragePool_145", pads = [1, 1, 1, 1], strides = [1, 1]} : (tensor<64x768x17x17xf32>) -> tensor<64x768x17x17xf32>
    %599 = "onnx.Dim"(%598) {axis = 0 : si64} : (tensor<64x768x17x17xf32>) -> tensor<1xi64>
    %600 = "onnx.Constant"() {value = dense<768> : tensor<1xi64>} : () -> tensor<1xi64>
    %601 = "onnx.Constant"() {value = dense<-1> : tensor<1xi64>} : () -> tensor<1xi64>
    %602 = "onnx.Concat"(%599, %600, %601) {axis = 0 : si64} : (tensor<1xi64>, tensor<1xi64>, tensor<1xi64>) -> tensor<3xi64>
    %603 = "onnx.Reshape"(%598, %602) {allowzero = 0 : si64} : (tensor<64x768x17x17xf32>, tensor<3xi64>) -> tensor<64x768x64xf32>
    %604 = "onnx.Constant"() {value = dense<[192, -1]> : tensor<2xi64>} : () -> tensor<2xi64>
    %605 = "onnx.Reshape"(%79, %604) {allowzero = 0 : si64} : (tensor<192x768x1x1xf32>, tensor<2xi64>) -> tensor<192x768xf32>
    %606 = "onnx.MatMul"(%605, %603) : (tensor<192x768xf32>, tensor<64x768x64xf32>) -> tensor<64x192x64xf32>
    %607 = "onnx.Constant"() {value = dense_resource<__elided__> : tensor<1x192x1xf32>} : () -> tensor<1x192x1xf32>
    %608 = "onnx.Add"(%606, %607) : (tensor<64x192x64xf32>, tensor<1x192x1xf32>) -> tensor<64x192x64xf32>
    %609 = "onnx.Dim"(%598) {axis = 0 : si64} : (tensor<64x768x17x17xf32>) -> tensor<1xi64>
    %610 = "onnx.Constant"() {value = dense<17> : tensor<1xi64>} : () -> tensor<1xi64>
    %611 = "onnx.Constant"() {value = dense<17> : tensor<1xi64>} : () -> tensor<1xi64>
    %612 = "onnx.Constant"() {value = dense<192> : tensor<1xi64>} : () -> tensor<1xi64>
    %613 = "onnx.Concat"(%609, %612, %610, %611) {axis = 0 : si64} : (tensor<1xi64>, tensor<1xi64>, tensor<1xi64>, tensor<1xi64>) -> tensor<4xi64>
    %614 = "onnx.Reshape"(%608, %613) {allowzero = 0 : si64} : (tensor<64x192x64xf32>, tensor<4xi64>) -> tensor<64x192x17x17xf32>
    %615 = "onnx.Relu"(%614) {onnx_node_name = "Relu_147"} : (tensor<64x192x17x17xf32>) -> tensor<64x192x17x17xf32>
    %616 = "onnx.Concat"(%551, %572, %597, %615) {axis = 1 : si64, onnx_node_name = "Concat_148"} : (tensor<64x192x17x17xf32>, tensor<64x192x17x17xf32>, tensor<64x192x17x17xf32>, tensor<64x192x17x17xf32>) -> tensor<64x768x17x17xf32>
    %617 = "onnx.Dim"(%616) {axis = 0 : si64} : (tensor<64x768x17x17xf32>) -> tensor<1xi64>
    %618 = "onnx.Constant"() {value = dense<768> : tensor<1xi64>} : () -> tensor<1xi64>
    %619 = "onnx.Constant"() {value = dense<-1> : tensor<1xi64>} : () -> tensor<1xi64>
    %620 = "onnx.Concat"(%617, %618, %619) {axis = 0 : si64} : (tensor<1xi64>, tensor<1xi64>, tensor<1xi64>) -> tensor<3xi64>
    %621 = "onnx.Reshape"(%616, %620) {allowzero = 0 : si64} : (tensor<64x768x17x17xf32>, tensor<3xi64>) -> tensor<64x768x64xf32>
    %622 = "onnx.Constant"() {value = dense<[192, -1]> : tensor<2xi64>} : () -> tensor<2xi64>
    %623 = "onnx.Reshape"(%80, %622) {allowzero = 0 : si64} : (tensor<192x768x1x1xf32>, tensor<2xi64>) -> tensor<192x768xf32>
    %624 = "onnx.MatMul"(%623, %621) : (tensor<192x768xf32>, tensor<64x768x64xf32>) -> tensor<64x192x64xf32>
    %625 = "onnx.Constant"() {value = dense_resource<__elided__> : tensor<1x192x1xf32>} : () -> tensor<1x192x1xf32>
    %626 = "onnx.Add"(%624, %625) : (tensor<64x192x64xf32>, tensor<1x192x1xf32>) -> tensor<64x192x64xf32>
    %627 = "onnx.Dim"(%616) {axis = 0 : si64} : (tensor<64x768x17x17xf32>) -> tensor<1xi64>
    %628 = "onnx.Constant"() {value = dense<17> : tensor<1xi64>} : () -> tensor<1xi64>
    %629 = "onnx.Constant"() {value = dense<17> : tensor<1xi64>} : () -> tensor<1xi64>
    %630 = "onnx.Constant"() {value = dense<192> : tensor<1xi64>} : () -> tensor<1xi64>
    %631 = "onnx.Concat"(%627, %630, %628, %629) {axis = 0 : si64} : (tensor<1xi64>, tensor<1xi64>, tensor<1xi64>, tensor<1xi64>) -> tensor<4xi64>
    %632 = "onnx.Reshape"(%626, %631) {allowzero = 0 : si64} : (tensor<64x192x64xf32>, tensor<4xi64>) -> tensor<64x192x17x17xf32>
    %633 = "onnx.Relu"(%632) {onnx_node_name = "Relu_150"} : (tensor<64x192x17x17xf32>) -> tensor<64x192x17x17xf32>
    %634 = "onnx.Dim"(%616) {axis = 0 : si64} : (tensor<64x768x17x17xf32>) -> tensor<1xi64>
    %635 = "onnx.Constant"() {value = dense<768> : tensor<1xi64>} : () -> tensor<1xi64>
    %636 = "onnx.Constant"() {value = dense<-1> : tensor<1xi64>} : () -> tensor<1xi64>
    %637 = "onnx.Concat"(%634, %635, %636) {axis = 0 : si64} : (tensor<1xi64>, tensor<1xi64>, tensor<1xi64>) -> tensor<3xi64>
    %638 = "onnx.Reshape"(%616, %637) {allowzero = 0 : si64} : (tensor<64x768x17x17xf32>, tensor<3xi64>) -> tensor<64x768x64xf32>
    %639 = "onnx.Constant"() {value = dense<[160, -1]> : tensor<2xi64>} : () -> tensor<2xi64>
    %640 = "onnx.Reshape"(%81, %639) {allowzero = 0 : si64} : (tensor<160x768x1x1xf32>, tensor<2xi64>) -> tensor<160x768xf32>
    %641 = "onnx.MatMul"(%640, %638) : (tensor<160x768xf32>, tensor<64x768x64xf32>) -> tensor<64x160x64xf32>
    %642 = "onnx.Constant"() {value = dense_resource<__elided__> : tensor<1x160x1xf32>} : () -> tensor<1x160x1xf32>
    %643 = "onnx.Add"(%641, %642) : (tensor<64x160x64xf32>, tensor<1x160x1xf32>) -> tensor<64x160x64xf32>
    %644 = "onnx.Dim"(%616) {axis = 0 : si64} : (tensor<64x768x17x17xf32>) -> tensor<1xi64>
    %645 = "onnx.Constant"() {value = dense<17> : tensor<1xi64>} : () -> tensor<1xi64>
    %646 = "onnx.Constant"() {value = dense<17> : tensor<1xi64>} : () -> tensor<1xi64>
    %647 = "onnx.Constant"() {value = dense<160> : tensor<1xi64>} : () -> tensor<1xi64>
    %648 = "onnx.Concat"(%644, %647, %645, %646) {axis = 0 : si64} : (tensor<1xi64>, tensor<1xi64>, tensor<1xi64>, tensor<1xi64>) -> tensor<4xi64>
    %649 = "onnx.Reshape"(%643, %648) {allowzero = 0 : si64} : (tensor<64x160x64xf32>, tensor<4xi64>) -> tensor<64x160x17x17xf32>
    %650 = "onnx.Relu"(%649) {onnx_node_name = "Relu_152"} : (tensor<64x160x17x17xf32>) -> tensor<64x160x17x17xf32>
    %651 = "onnx.Conv"(%650, %82, %83) {auto_pad = "NOTSET", dilations = [1, 1], group = 1 : si64, kernel_shape = [1, 7], onnx_node_name = "Conv_153", pads = [0, 3, 0, 3], strides = [1, 1]} : (tensor<64x160x17x17xf32>, tensor<160x160x1x7xf32>, tensor<160xf32>) -> tensor<64x160x17x17xf32>
    %652 = "onnx.Relu"(%651) {onnx_node_name = "Relu_154"} : (tensor<64x160x17x17xf32>) -> tensor<64x160x17x17xf32>
    %653 = "onnx.Conv"(%652, %84, %85) {auto_pad = "NOTSET", dilations = [1, 1], group = 1 : si64, kernel_shape = [7, 1], onnx_node_name = "Conv_155", pads = [3, 0, 3, 0], strides = [1, 1]} : (tensor<64x160x17x17xf32>, tensor<192x160x7x1xf32>, tensor<192xf32>) -> tensor<64x192x17x17xf32>
    %654 = "onnx.Relu"(%653) {onnx_node_name = "Relu_156"} : (tensor<64x192x17x17xf32>) -> tensor<64x192x17x17xf32>
    %655 = "onnx.Dim"(%616) {axis = 0 : si64} : (tensor<64x768x17x17xf32>) -> tensor<1xi64>
    %656 = "onnx.Constant"() {value = dense<768> : tensor<1xi64>} : () -> tensor<1xi64>
    %657 = "onnx.Constant"() {value = dense<-1> : tensor<1xi64>} : () -> tensor<1xi64>
    %658 = "onnx.Concat"(%655, %656, %657) {axis = 0 : si64} : (tensor<1xi64>, tensor<1xi64>, tensor<1xi64>) -> tensor<3xi64>
    %659 = "onnx.Reshape"(%616, %658) {allowzero = 0 : si64} : (tensor<64x768x17x17xf32>, tensor<3xi64>) -> tensor<64x768x64xf32>
    %660 = "onnx.Constant"() {value = dense<[160, -1]> : tensor<2xi64>} : () -> tensor<2xi64>
    %661 = "onnx.Reshape"(%86, %660) {allowzero = 0 : si64} : (tensor<160x768x1x1xf32>, tensor<2xi64>) -> tensor<160x768xf32>
    %662 = "onnx.MatMul"(%661, %659) : (tensor<160x768xf32>, tensor<64x768x64xf32>) -> tensor<64x160x64xf32>
    %663 = "onnx.Constant"() {value = dense_resource<__elided__> : tensor<1x160x1xf32>} : () -> tensor<1x160x1xf32>
    %664 = "onnx.Add"(%662, %663) : (tensor<64x160x64xf32>, tensor<1x160x1xf32>) -> tensor<64x160x64xf32>
    %665 = "onnx.Dim"(%616) {axis = 0 : si64} : (tensor<64x768x17x17xf32>) -> tensor<1xi64>
    %666 = "onnx.Constant"() {value = dense<17> : tensor<1xi64>} : () -> tensor<1xi64>
    %667 = "onnx.Constant"() {value = dense<17> : tensor<1xi64>} : () -> tensor<1xi64>
    %668 = "onnx.Constant"() {value = dense<160> : tensor<1xi64>} : () -> tensor<1xi64>
    %669 = "onnx.Concat"(%665, %668, %666, %667) {axis = 0 : si64} : (tensor<1xi64>, tensor<1xi64>, tensor<1xi64>, tensor<1xi64>) -> tensor<4xi64>
    %670 = "onnx.Reshape"(%664, %669) {allowzero = 0 : si64} : (tensor<64x160x64xf32>, tensor<4xi64>) -> tensor<64x160x17x17xf32>
    %671 = "onnx.Relu"(%670) {onnx_node_name = "Relu_158"} : (tensor<64x160x17x17xf32>) -> tensor<64x160x17x17xf32>
    %672 = "onnx.Conv"(%671, %87, %88) {auto_pad = "NOTSET", dilations = [1, 1], group = 1 : si64, kernel_shape = [7, 1], onnx_node_name = "Conv_159", pads = [3, 0, 3, 0], strides = [1, 1]} : (tensor<64x160x17x17xf32>, tensor<160x160x7x1xf32>, tensor<160xf32>) -> tensor<64x160x17x17xf32>
    %673 = "onnx.Relu"(%672) {onnx_node_name = "Relu_160"} : (tensor<64x160x17x17xf32>) -> tensor<64x160x17x17xf32>
    %674 = "onnx.Conv"(%673, %89, %90) {auto_pad = "NOTSET", dilations = [1, 1], group = 1 : si64, kernel_shape = [1, 7], onnx_node_name = "Conv_161", pads = [0, 3, 0, 3], strides = [1, 1]} : (tensor<64x160x17x17xf32>, tensor<160x160x1x7xf32>, tensor<160xf32>) -> tensor<64x160x17x17xf32>
    %675 = "onnx.Relu"(%674) {onnx_node_name = "Relu_162"} : (tensor<64x160x17x17xf32>) -> tensor<64x160x17x17xf32>
    %676 = "onnx.Conv"(%675, %91, %92) {auto_pad = "NOTSET", dilations = [1, 1], group = 1 : si64, kernel_shape = [7, 1], onnx_node_name = "Conv_163", pads = [3, 0, 3, 0], strides = [1, 1]} : (tensor<64x160x17x17xf32>, tensor<160x160x7x1xf32>, tensor<160xf32>) -> tensor<64x160x17x17xf32>
    %677 = "onnx.Relu"(%676) {onnx_node_name = "Relu_164"} : (tensor<64x160x17x17xf32>) -> tensor<64x160x17x17xf32>
    %678 = "onnx.Conv"(%677, %93, %94) {auto_pad = "NOTSET", dilations = [1, 1], group = 1 : si64, kernel_shape = [1, 7], onnx_node_name = "Conv_165", pads = [0, 3, 0, 3], strides = [1, 1]} : (tensor<64x160x17x17xf32>, tensor<192x160x1x7xf32>, tensor<192xf32>) -> tensor<64x192x17x17xf32>
    %679 = "onnx.Relu"(%678) {onnx_node_name = "Relu_166"} : (tensor<64x192x17x17xf32>) -> tensor<64x192x17x17xf32>
    %680 = "onnx.AveragePool"(%616) {auto_pad = "NOTSET", ceil_mode = 0 : si64, count_include_pad = 0 : si64, kernel_shape = [3, 3], onnx_node_name = "AveragePool_169", pads = [1, 1, 1, 1], strides = [1, 1]} : (tensor<64x768x17x17xf32>) -> tensor<64x768x17x17xf32>
    %681 = "onnx.Dim"(%680) {axis = 0 : si64} : (tensor<64x768x17x17xf32>) -> tensor<1xi64>
    %682 = "onnx.Constant"() {value = dense<768> : tensor<1xi64>} : () -> tensor<1xi64>
    %683 = "onnx.Constant"() {value = dense<-1> : tensor<1xi64>} : () -> tensor<1xi64>
    %684 = "onnx.Concat"(%681, %682, %683) {axis = 0 : si64} : (tensor<1xi64>, tensor<1xi64>, tensor<1xi64>) -> tensor<3xi64>
    %685 = "onnx.Reshape"(%680, %684) {allowzero = 0 : si64} : (tensor<64x768x17x17xf32>, tensor<3xi64>) -> tensor<64x768x64xf32>
    %686 = "onnx.Constant"() {value = dense<[192, -1]> : tensor<2xi64>} : () -> tensor<2xi64>
    %687 = "onnx.Reshape"(%95, %686) {allowzero = 0 : si64} : (tensor<192x768x1x1xf32>, tensor<2xi64>) -> tensor<192x768xf32>
    %688 = "onnx.MatMul"(%687, %685) : (tensor<192x768xf32>, tensor<64x768x64xf32>) -> tensor<64x192x64xf32>
    %689 = "onnx.Constant"() {value = dense_resource<__elided__> : tensor<1x192x1xf32>} : () -> tensor<1x192x1xf32>
    %690 = "onnx.Add"(%688, %689) : (tensor<64x192x64xf32>, tensor<1x192x1xf32>) -> tensor<64x192x64xf32>
    %691 = "onnx.Dim"(%680) {axis = 0 : si64} : (tensor<64x768x17x17xf32>) -> tensor<1xi64>
    %692 = "onnx.Constant"() {value = dense<17> : tensor<1xi64>} : () -> tensor<1xi64>
    %693 = "onnx.Constant"() {value = dense<17> : tensor<1xi64>} : () -> tensor<1xi64>
    %694 = "onnx.Constant"() {value = dense<192> : tensor<1xi64>} : () -> tensor<1xi64>
    %695 = "onnx.Concat"(%691, %694, %692, %693) {axis = 0 : si64} : (tensor<1xi64>, tensor<1xi64>, tensor<1xi64>, tensor<1xi64>) -> tensor<4xi64>
    %696 = "onnx.Reshape"(%690, %695) {allowzero = 0 : si64} : (tensor<64x192x64xf32>, tensor<4xi64>) -> tensor<64x192x17x17xf32>
    %697 = "onnx.Relu"(%696) {onnx_node_name = "Relu_171"} : (tensor<64x192x17x17xf32>) -> tensor<64x192x17x17xf32>
    %698 = "onnx.Concat"(%633, %654, %679, %697) {axis = 1 : si64, onnx_node_name = "Concat_172"} : (tensor<64x192x17x17xf32>, tensor<64x192x17x17xf32>, tensor<64x192x17x17xf32>, tensor<64x192x17x17xf32>) -> tensor<64x768x17x17xf32>
    %699 = "onnx.Dim"(%698) {axis = 0 : si64} : (tensor<64x768x17x17xf32>) -> tensor<1xi64>
    %700 = "onnx.Constant"() {value = dense<768> : tensor<1xi64>} : () -> tensor<1xi64>
    %701 = "onnx.Constant"() {value = dense<-1> : tensor<1xi64>} : () -> tensor<1xi64>
    %702 = "onnx.Concat"(%699, %700, %701) {axis = 0 : si64} : (tensor<1xi64>, tensor<1xi64>, tensor<1xi64>) -> tensor<3xi64>
    %703 = "onnx.Reshape"(%698, %702) {allowzero = 0 : si64} : (tensor<64x768x17x17xf32>, tensor<3xi64>) -> tensor<64x768x64xf32>
    %704 = "onnx.Constant"() {value = dense<[192, -1]> : tensor<2xi64>} : () -> tensor<2xi64>
    %705 = "onnx.Reshape"(%96, %704) {allowzero = 0 : si64} : (tensor<192x768x1x1xf32>, tensor<2xi64>) -> tensor<192x768xf32>
    %706 = "onnx.MatMul"(%705, %703) : (tensor<192x768xf32>, tensor<64x768x64xf32>) -> tensor<64x192x64xf32>
    %707 = "onnx.Constant"() {value = dense_resource<__elided__> : tensor<1x192x1xf32>} : () -> tensor<1x192x1xf32>
    %708 = "onnx.Add"(%706, %707) : (tensor<64x192x64xf32>, tensor<1x192x1xf32>) -> tensor<64x192x64xf32>
    %709 = "onnx.Dim"(%698) {axis = 0 : si64} : (tensor<64x768x17x17xf32>) -> tensor<1xi64>
    %710 = "onnx.Constant"() {value = dense<17> : tensor<1xi64>} : () -> tensor<1xi64>
    %711 = "onnx.Constant"() {value = dense<17> : tensor<1xi64>} : () -> tensor<1xi64>
    %712 = "onnx.Constant"() {value = dense<192> : tensor<1xi64>} : () -> tensor<1xi64>
    %713 = "onnx.Concat"(%709, %712, %710, %711) {axis = 0 : si64} : (tensor<1xi64>, tensor<1xi64>, tensor<1xi64>, tensor<1xi64>) -> tensor<4xi64>
    %714 = "onnx.Reshape"(%708, %713) {allowzero = 0 : si64} : (tensor<64x192x64xf32>, tensor<4xi64>) -> tensor<64x192x17x17xf32>
    %715 = "onnx.Relu"(%714) {onnx_node_name = "Relu_174"} : (tensor<64x192x17x17xf32>) -> tensor<64x192x17x17xf32>
    %716 = "onnx.Dim"(%698) {axis = 0 : si64} : (tensor<64x768x17x17xf32>) -> tensor<1xi64>
    %717 = "onnx.Constant"() {value = dense<768> : tensor<1xi64>} : () -> tensor<1xi64>
    %718 = "onnx.Constant"() {value = dense<-1> : tensor<1xi64>} : () -> tensor<1xi64>
    %719 = "onnx.Concat"(%716, %717, %718) {axis = 0 : si64} : (tensor<1xi64>, tensor<1xi64>, tensor<1xi64>) -> tensor<3xi64>
    %720 = "onnx.Reshape"(%698, %719) {allowzero = 0 : si64} : (tensor<64x768x17x17xf32>, tensor<3xi64>) -> tensor<64x768x64xf32>
    %721 = "onnx.Constant"() {value = dense<[192, -1]> : tensor<2xi64>} : () -> tensor<2xi64>
    %722 = "onnx.Reshape"(%97, %721) {allowzero = 0 : si64} : (tensor<192x768x1x1xf32>, tensor<2xi64>) -> tensor<192x768xf32>
    %723 = "onnx.MatMul"(%722, %720) : (tensor<192x768xf32>, tensor<64x768x64xf32>) -> tensor<64x192x64xf32>
    %724 = "onnx.Constant"() {value = dense_resource<__elided__> : tensor<1x192x1xf32>} : () -> tensor<1x192x1xf32>
    %725 = "onnx.Add"(%723, %724) : (tensor<64x192x64xf32>, tensor<1x192x1xf32>) -> tensor<64x192x64xf32>
    %726 = "onnx.Dim"(%698) {axis = 0 : si64} : (tensor<64x768x17x17xf32>) -> tensor<1xi64>
    %727 = "onnx.Constant"() {value = dense<17> : tensor<1xi64>} : () -> tensor<1xi64>
    %728 = "onnx.Constant"() {value = dense<17> : tensor<1xi64>} : () -> tensor<1xi64>
    %729 = "onnx.Constant"() {value = dense<192> : tensor<1xi64>} : () -> tensor<1xi64>
    %730 = "onnx.Concat"(%726, %729, %727, %728) {axis = 0 : si64} : (tensor<1xi64>, tensor<1xi64>, tensor<1xi64>, tensor<1xi64>) -> tensor<4xi64>
    %731 = "onnx.Reshape"(%725, %730) {allowzero = 0 : si64} : (tensor<64x192x64xf32>, tensor<4xi64>) -> tensor<64x192x17x17xf32>
    %732 = "onnx.Relu"(%731) {onnx_node_name = "Relu_176"} : (tensor<64x192x17x17xf32>) -> tensor<64x192x17x17xf32>
    %733 = "onnx.Conv"(%732, %98, %99) {auto_pad = "NOTSET", dilations = [1, 1], group = 1 : si64, kernel_shape = [1, 7], onnx_node_name = "Conv_177", pads = [0, 3, 0, 3], strides = [1, 1]} : (tensor<64x192x17x17xf32>, tensor<192x192x1x7xf32>, tensor<192xf32>) -> tensor<64x192x17x17xf32>
    %734 = "onnx.Relu"(%733) {onnx_node_name = "Relu_178"} : (tensor<64x192x17x17xf32>) -> tensor<64x192x17x17xf32>
    %735 = "onnx.Conv"(%734, %100, %101) {auto_pad = "NOTSET", dilations = [1, 1], group = 1 : si64, kernel_shape = [7, 1], onnx_node_name = "Conv_179", pads = [3, 0, 3, 0], strides = [1, 1]} : (tensor<64x192x17x17xf32>, tensor<192x192x7x1xf32>, tensor<192xf32>) -> tensor<64x192x17x17xf32>
    %736 = "onnx.Relu"(%735) {onnx_node_name = "Relu_180"} : (tensor<64x192x17x17xf32>) -> tensor<64x192x17x17xf32>
    %737 = "onnx.Dim"(%698) {axis = 0 : si64} : (tensor<64x768x17x17xf32>) -> tensor<1xi64>
    %738 = "onnx.Constant"() {value = dense<768> : tensor<1xi64>} : () -> tensor<1xi64>
    %739 = "onnx.Constant"() {value = dense<-1> : tensor<1xi64>} : () -> tensor<1xi64>
    %740 = "onnx.Concat"(%737, %738, %739) {axis = 0 : si64} : (tensor<1xi64>, tensor<1xi64>, tensor<1xi64>) -> tensor<3xi64>
    %741 = "onnx.Reshape"(%698, %740) {allowzero = 0 : si64} : (tensor<64x768x17x17xf32>, tensor<3xi64>) -> tensor<64x768x64xf32>
    %742 = "onnx.Constant"() {value = dense<[192, -1]> : tensor<2xi64>} : () -> tensor<2xi64>
    %743 = "onnx.Reshape"(%102, %742) {allowzero = 0 : si64} : (tensor<192x768x1x1xf32>, tensor<2xi64>) -> tensor<192x768xf32>
    %744 = "onnx.MatMul"(%743, %741) : (tensor<192x768xf32>, tensor<64x768x64xf32>) -> tensor<64x192x64xf32>
    %745 = "onnx.Constant"() {value = dense_resource<__elided__> : tensor<1x192x1xf32>} : () -> tensor<1x192x1xf32>
    %746 = "onnx.Add"(%744, %745) : (tensor<64x192x64xf32>, tensor<1x192x1xf32>) -> tensor<64x192x64xf32>
    %747 = "onnx.Dim"(%698) {axis = 0 : si64} : (tensor<64x768x17x17xf32>) -> tensor<1xi64>
    %748 = "onnx.Constant"() {value = dense<17> : tensor<1xi64>} : () -> tensor<1xi64>
    %749 = "onnx.Constant"() {value = dense<17> : tensor<1xi64>} : () -> tensor<1xi64>
    %750 = "onnx.Constant"() {value = dense<192> : tensor<1xi64>} : () -> tensor<1xi64>
    %751 = "onnx.Concat"(%747, %750, %748, %749) {axis = 0 : si64} : (tensor<1xi64>, tensor<1xi64>, tensor<1xi64>, tensor<1xi64>) -> tensor<4xi64>
    %752 = "onnx.Reshape"(%746, %751) {allowzero = 0 : si64} : (tensor<64x192x64xf32>, tensor<4xi64>) -> tensor<64x192x17x17xf32>
    %753 = "onnx.Relu"(%752) {onnx_node_name = "Relu_182"} : (tensor<64x192x17x17xf32>) -> tensor<64x192x17x17xf32>
    %754 = "onnx.Conv"(%753, %103, %104) {auto_pad = "NOTSET", dilations = [1, 1], group = 1 : si64, kernel_shape = [7, 1], onnx_node_name = "Conv_183", pads = [3, 0, 3, 0], strides = [1, 1]} : (tensor<64x192x17x17xf32>, tensor<192x192x7x1xf32>, tensor<192xf32>) -> tensor<64x192x17x17xf32>
    %755 = "onnx.Relu"(%754) {onnx_node_name = "Relu_184"} : (tensor<64x192x17x17xf32>) -> tensor<64x192x17x17xf32>
    %756 = "onnx.Conv"(%755, %105, %106) {auto_pad = "NOTSET", dilations = [1, 1], group = 1 : si64, kernel_shape = [1, 7], onnx_node_name = "Conv_185", pads = [0, 3, 0, 3], strides = [1, 1]} : (tensor<64x192x17x17xf32>, tensor<192x192x1x7xf32>, tensor<192xf32>) -> tensor<64x192x17x17xf32>
    %757 = "onnx.Relu"(%756) {onnx_node_name = "Relu_186"} : (tensor<64x192x17x17xf32>) -> tensor<64x192x17x17xf32>
    %758 = "onnx.Conv"(%757, %107, %108) {auto_pad = "NOTSET", dilations = [1, 1], group = 1 : si64, kernel_shape = [7, 1], onnx_node_name = "Conv_187", pads = [3, 0, 3, 0], strides = [1, 1]} : (tensor<64x192x17x17xf32>, tensor<192x192x7x1xf32>, tensor<192xf32>) -> tensor<64x192x17x17xf32>
    %759 = "onnx.Relu"(%758) {onnx_node_name = "Relu_188"} : (tensor<64x192x17x17xf32>) -> tensor<64x192x17x17xf32>
    %760 = "onnx.Conv"(%759, %109, %110) {auto_pad = "NOTSET", dilations = [1, 1], group = 1 : si64, kernel_shape = [1, 7], onnx_node_name = "Conv_189", pads = [0, 3, 0, 3], strides = [1, 1]} : (tensor<64x192x17x17xf32>, tensor<192x192x1x7xf32>, tensor<192xf32>) -> tensor<64x192x17x17xf32>
    %761 = "onnx.Relu"(%760) {onnx_node_name = "Relu_190"} : (tensor<64x192x17x17xf32>) -> tensor<64x192x17x17xf32>
    %762 = "onnx.AveragePool"(%698) {auto_pad = "NOTSET", ceil_mode = 0 : si64, count_include_pad = 0 : si64, kernel_shape = [3, 3], onnx_node_name = "AveragePool_193", pads = [1, 1, 1, 1], strides = [1, 1]} : (tensor<64x768x17x17xf32>) -> tensor<64x768x17x17xf32>
    %763 = "onnx.Dim"(%762) {axis = 0 : si64} : (tensor<64x768x17x17xf32>) -> tensor<1xi64>
    %764 = "onnx.Constant"() {value = dense<768> : tensor<1xi64>} : () -> tensor<1xi64>
    %765 = "onnx.Constant"() {value = dense<-1> : tensor<1xi64>} : () -> tensor<1xi64>
    %766 = "onnx.Concat"(%763, %764, %765) {axis = 0 : si64} : (tensor<1xi64>, tensor<1xi64>, tensor<1xi64>) -> tensor<3xi64>
    %767 = "onnx.Reshape"(%762, %766) {allowzero = 0 : si64} : (tensor<64x768x17x17xf32>, tensor<3xi64>) -> tensor<64x768x64xf32>
    %768 = "onnx.Constant"() {value = dense<[192, -1]> : tensor<2xi64>} : () -> tensor<2xi64>
    %769 = "onnx.Reshape"(%111, %768) {allowzero = 0 : si64} : (tensor<192x768x1x1xf32>, tensor<2xi64>) -> tensor<192x768xf32>
    %770 = "onnx.MatMul"(%769, %767) : (tensor<192x768xf32>, tensor<64x768x64xf32>) -> tensor<64x192x64xf32>
    %771 = "onnx.Constant"() {value = dense_resource<__elided__> : tensor<1x192x1xf32>} : () -> tensor<1x192x1xf32>
    %772 = "onnx.Add"(%770, %771) : (tensor<64x192x64xf32>, tensor<1x192x1xf32>) -> tensor<64x192x64xf32>
    %773 = "onnx.Dim"(%762) {axis = 0 : si64} : (tensor<64x768x17x17xf32>) -> tensor<1xi64>
    %774 = "onnx.Constant"() {value = dense<17> : tensor<1xi64>} : () -> tensor<1xi64>
    %775 = "onnx.Constant"() {value = dense<17> : tensor<1xi64>} : () -> tensor<1xi64>
    %776 = "onnx.Constant"() {value = dense<192> : tensor<1xi64>} : () -> tensor<1xi64>
    %777 = "onnx.Concat"(%773, %776, %774, %775) {axis = 0 : si64} : (tensor<1xi64>, tensor<1xi64>, tensor<1xi64>, tensor<1xi64>) -> tensor<4xi64>
    %778 = "onnx.Reshape"(%772, %777) {allowzero = 0 : si64} : (tensor<64x192x64xf32>, tensor<4xi64>) -> tensor<64x192x17x17xf32>
    %779 = "onnx.Relu"(%778) {onnx_node_name = "Relu_195"} : (tensor<64x192x17x17xf32>) -> tensor<64x192x17x17xf32>
    %780 = "onnx.Concat"(%715, %736, %761, %779) {axis = 1 : si64, onnx_node_name = "Concat_196"} : (tensor<64x192x17x17xf32>, tensor<64x192x17x17xf32>, tensor<64x192x17x17xf32>, tensor<64x192x17x17xf32>) -> tensor<64x768x17x17xf32>
    %781 = "onnx.Dim"(%780) {axis = 0 : si64} : (tensor<64x768x17x17xf32>) -> tensor<1xi64>
    %782 = "onnx.Constant"() {value = dense<768> : tensor<1xi64>} : () -> tensor<1xi64>
    %783 = "onnx.Constant"() {value = dense<-1> : tensor<1xi64>} : () -> tensor<1xi64>
    %784 = "onnx.Concat"(%781, %782, %783) {axis = 0 : si64} : (tensor<1xi64>, tensor<1xi64>, tensor<1xi64>) -> tensor<3xi64>
    %785 = "onnx.Reshape"(%780, %784) {allowzero = 0 : si64} : (tensor<64x768x17x17xf32>, tensor<3xi64>) -> tensor<64x768x64xf32>
    %786 = "onnx.Constant"() {value = dense<[192, -1]> : tensor<2xi64>} : () -> tensor<2xi64>
    %787 = "onnx.Reshape"(%112, %786) {allowzero = 0 : si64} : (tensor<192x768x1x1xf32>, tensor<2xi64>) -> tensor<192x768xf32>
    %788 = "onnx.MatMul"(%787, %785) : (tensor<192x768xf32>, tensor<64x768x64xf32>) -> tensor<64x192x64xf32>
    %789 = "onnx.Constant"() {value = dense_resource<__elided__> : tensor<1x192x1xf32>} : () -> tensor<1x192x1xf32>
    %790 = "onnx.Add"(%788, %789) : (tensor<64x192x64xf32>, tensor<1x192x1xf32>) -> tensor<64x192x64xf32>
    %791 = "onnx.Dim"(%780) {axis = 0 : si64} : (tensor<64x768x17x17xf32>) -> tensor<1xi64>
    %792 = "onnx.Constant"() {value = dense<17> : tensor<1xi64>} : () -> tensor<1xi64>
    %793 = "onnx.Constant"() {value = dense<17> : tensor<1xi64>} : () -> tensor<1xi64>
    %794 = "onnx.Constant"() {value = dense<192> : tensor<1xi64>} : () -> tensor<1xi64>
    %795 = "onnx.Concat"(%791, %794, %792, %793) {axis = 0 : si64} : (tensor<1xi64>, tensor<1xi64>, tensor<1xi64>, tensor<1xi64>) -> tensor<4xi64>
    %796 = "onnx.Reshape"(%790, %795) {allowzero = 0 : si64} : (tensor<64x192x64xf32>, tensor<4xi64>) -> tensor<64x192x17x17xf32>
    %797 = "onnx.Relu"(%796) {onnx_node_name = "Relu_198"} : (tensor<64x192x17x17xf32>) -> tensor<64x192x17x17xf32>
    %798 = "onnx.Conv"(%797, %113, %114) {auto_pad = "NOTSET", dilations = [1, 1], group = 1 : si64, kernel_shape = [3, 3], onnx_node_name = "Conv_199", pads = [0, 0, 0, 0], strides = [2, 2]} : (tensor<64x192x17x17xf32>, tensor<320x192x3x3xf32>, tensor<320xf32>) -> tensor<64x320x8x8xf32>
    %799 = "onnx.Relu"(%798) {onnx_node_name = "Relu_200"} : (tensor<64x320x8x8xf32>) -> tensor<64x320x8x8xf32>
    %800 = "onnx.Dim"(%780) {axis = 0 : si64} : (tensor<64x768x17x17xf32>) -> tensor<1xi64>
    %801 = "onnx.Constant"() {value = dense<768> : tensor<1xi64>} : () -> tensor<1xi64>
    %802 = "onnx.Constant"() {value = dense<-1> : tensor<1xi64>} : () -> tensor<1xi64>
    %803 = "onnx.Concat"(%800, %801, %802) {axis = 0 : si64} : (tensor<1xi64>, tensor<1xi64>, tensor<1xi64>) -> tensor<3xi64>
    %804 = "onnx.Reshape"(%780, %803) {allowzero = 0 : si64} : (tensor<64x768x17x17xf32>, tensor<3xi64>) -> tensor<64x768x64xf32>
    %805 = "onnx.Constant"() {value = dense<[192, -1]> : tensor<2xi64>} : () -> tensor<2xi64>
    %806 = "onnx.Reshape"(%115, %805) {allowzero = 0 : si64} : (tensor<192x768x1x1xf32>, tensor<2xi64>) -> tensor<192x768xf32>
    %807 = "onnx.MatMul"(%806, %804) : (tensor<192x768xf32>, tensor<64x768x64xf32>) -> tensor<64x192x64xf32>
    %808 = "onnx.Constant"() {value = dense_resource<__elided__> : tensor<1x192x1xf32>} : () -> tensor<1x192x1xf32>
    %809 = "onnx.Add"(%807, %808) : (tensor<64x192x64xf32>, tensor<1x192x1xf32>) -> tensor<64x192x64xf32>
    %810 = "onnx.Dim"(%780) {axis = 0 : si64} : (tensor<64x768x17x17xf32>) -> tensor<1xi64>
    %811 = "onnx.Constant"() {value = dense<17> : tensor<1xi64>} : () -> tensor<1xi64>
    %812 = "onnx.Constant"() {value = dense<17> : tensor<1xi64>} : () -> tensor<1xi64>
    %813 = "onnx.Constant"() {value = dense<192> : tensor<1xi64>} : () -> tensor<1xi64>
    %814 = "onnx.Concat"(%810, %813, %811, %812) {axis = 0 : si64} : (tensor<1xi64>, tensor<1xi64>, tensor<1xi64>, tensor<1xi64>) -> tensor<4xi64>
    %815 = "onnx.Reshape"(%809, %814) {allowzero = 0 : si64} : (tensor<64x192x64xf32>, tensor<4xi64>) -> tensor<64x192x17x17xf32>
    %816 = "onnx.Relu"(%815) {onnx_node_name = "Relu_202"} : (tensor<64x192x17x17xf32>) -> tensor<64x192x17x17xf32>
    %817 = "onnx.Conv"(%816, %116, %117) {auto_pad = "NOTSET", dilations = [1, 1], group = 1 : si64, kernel_shape = [1, 7], onnx_node_name = "Conv_203", pads = [0, 3, 0, 3], strides = [1, 1]} : (tensor<64x192x17x17xf32>, tensor<192x192x1x7xf32>, tensor<192xf32>) -> tensor<64x192x17x17xf32>
    %818 = "onnx.Relu"(%817) {onnx_node_name = "Relu_204"} : (tensor<64x192x17x17xf32>) -> tensor<64x192x17x17xf32>
    %819 = "onnx.Conv"(%818, %118, %119) {auto_pad = "NOTSET", dilations = [1, 1], group = 1 : si64, kernel_shape = [7, 1], onnx_node_name = "Conv_205", pads = [3, 0, 3, 0], strides = [1, 1]} : (tensor<64x192x17x17xf32>, tensor<192x192x7x1xf32>, tensor<192xf32>) -> tensor<64x192x17x17xf32>
    %820 = "onnx.Relu"(%819) {onnx_node_name = "Relu_206"} : (tensor<64x192x17x17xf32>) -> tensor<64x192x17x17xf32>
    %821 = "onnx.Conv"(%820, %120, %121) {auto_pad = "NOTSET", dilations = [1, 1], group = 1 : si64, kernel_shape = [3, 3], onnx_node_name = "Conv_207", pads = [0, 0, 0, 0], strides = [2, 2]} : (tensor<64x192x17x17xf32>, tensor<192x192x3x3xf32>, tensor<192xf32>) -> tensor<64x192x8x8xf32>
    %822 = "onnx.Relu"(%821) {onnx_node_name = "Relu_208"} : (tensor<64x192x8x8xf32>) -> tensor<64x192x8x8xf32>
    %823 = "onnx.MaxPoolSingleOut"(%780) {auto_pad = "NOTSET", ceil_mode = 0 : si64, kernel_shape = [3, 3], onnx_node_name = "MaxPool_209", pads = [0, 0, 0, 0], storage_order = 0 : si64, strides = [2, 2]} : (tensor<64x768x17x17xf32>) -> tensor<64x768x8x8xf32>
    %824 = "onnx.Concat"(%799, %822, %823) {axis = 1 : si64, onnx_node_name = "Concat_210"} : (tensor<64x320x8x8xf32>, tensor<64x192x8x8xf32>, tensor<64x768x8x8xf32>) -> tensor<64x1280x8x8xf32>
    %825 = "onnx.Dim"(%824) {axis = 0 : si64} : (tensor<64x1280x8x8xf32>) -> tensor<1xi64>
    %826 = "onnx.Constant"() {value = dense<1280> : tensor<1xi64>} : () -> tensor<1xi64>
    %827 = "onnx.Constant"() {value = dense<-1> : tensor<1xi64>} : () -> tensor<1xi64>
    %828 = "onnx.Concat"(%825, %826, %827) {axis = 0 : si64} : (tensor<1xi64>, tensor<1xi64>, tensor<1xi64>) -> tensor<3xi64>
    %829 = "onnx.Reshape"(%824, %828) {allowzero = 0 : si64} : (tensor<64x1280x8x8xf32>, tensor<3xi64>) -> tensor<64x1280x64xf32>
    %830 = "onnx.Constant"() {value = dense<[320, -1]> : tensor<2xi64>} : () -> tensor<2xi64>
    %831 = "onnx.Reshape"(%122, %830) {allowzero = 0 : si64} : (tensor<320x1280x1x1xf32>, tensor<2xi64>) -> tensor<320x1280xf32>
    %832 = "onnx.MatMul"(%831, %829) : (tensor<320x1280xf32>, tensor<64x1280x64xf32>) -> tensor<64x320x64xf32>
    %833 = "onnx.Constant"() {value = dense_resource<__elided__> : tensor<1x320x1xf32>} : () -> tensor<1x320x1xf32>
    %834 = "onnx.Add"(%832, %833) : (tensor<64x320x64xf32>, tensor<1x320x1xf32>) -> tensor<64x320x64xf32>
    %835 = "onnx.Dim"(%824) {axis = 0 : si64} : (tensor<64x1280x8x8xf32>) -> tensor<1xi64>
    %836 = "onnx.Constant"() {value = dense<8> : tensor<1xi64>} : () -> tensor<1xi64>
    %837 = "onnx.Constant"() {value = dense<8> : tensor<1xi64>} : () -> tensor<1xi64>
    %838 = "onnx.Constant"() {value = dense<320> : tensor<1xi64>} : () -> tensor<1xi64>
    %839 = "onnx.Concat"(%835, %838, %836, %837) {axis = 0 : si64} : (tensor<1xi64>, tensor<1xi64>, tensor<1xi64>, tensor<1xi64>) -> tensor<4xi64>
    %840 = "onnx.Reshape"(%834, %839) {allowzero = 0 : si64} : (tensor<64x320x64xf32>, tensor<4xi64>) -> tensor<64x320x8x8xf32>
    %841 = "onnx.Relu"(%840) {onnx_node_name = "Relu_212"} : (tensor<64x320x8x8xf32>) -> tensor<64x320x8x8xf32>
    %842 = "onnx.Dim"(%824) {axis = 0 : si64} : (tensor<64x1280x8x8xf32>) -> tensor<1xi64>
    %843 = "onnx.Constant"() {value = dense<1280> : tensor<1xi64>} : () -> tensor<1xi64>
    %844 = "onnx.Constant"() {value = dense<-1> : tensor<1xi64>} : () -> tensor<1xi64>
    %845 = "onnx.Concat"(%842, %843, %844) {axis = 0 : si64} : (tensor<1xi64>, tensor<1xi64>, tensor<1xi64>) -> tensor<3xi64>
    %846 = "onnx.Reshape"(%824, %845) {allowzero = 0 : si64} : (tensor<64x1280x8x8xf32>, tensor<3xi64>) -> tensor<64x1280x64xf32>
    %847 = "onnx.Constant"() {value = dense<[384, -1]> : tensor<2xi64>} : () -> tensor<2xi64>
    %848 = "onnx.Reshape"(%123, %847) {allowzero = 0 : si64} : (tensor<384x1280x1x1xf32>, tensor<2xi64>) -> tensor<384x1280xf32>
    %849 = "onnx.MatMul"(%848, %846) : (tensor<384x1280xf32>, tensor<64x1280x64xf32>) -> tensor<64x384x64xf32>
    %850 = "onnx.Constant"() {value = dense_resource<__elided__> : tensor<1x384x1xf32>} : () -> tensor<1x384x1xf32>
    %851 = "onnx.Add"(%849, %850) : (tensor<64x384x64xf32>, tensor<1x384x1xf32>) -> tensor<64x384x64xf32>
    %852 = "onnx.Dim"(%824) {axis = 0 : si64} : (tensor<64x1280x8x8xf32>) -> tensor<1xi64>
    %853 = "onnx.Constant"() {value = dense<8> : tensor<1xi64>} : () -> tensor<1xi64>
    %854 = "onnx.Constant"() {value = dense<8> : tensor<1xi64>} : () -> tensor<1xi64>
    %855 = "onnx.Constant"() {value = dense<384> : tensor<1xi64>} : () -> tensor<1xi64>
    %856 = "onnx.Concat"(%852, %855, %853, %854) {axis = 0 : si64} : (tensor<1xi64>, tensor<1xi64>, tensor<1xi64>, tensor<1xi64>) -> tensor<4xi64>
    %857 = "onnx.Reshape"(%851, %856) {allowzero = 0 : si64} : (tensor<64x384x64xf32>, tensor<4xi64>) -> tensor<64x384x8x8xf32>
    %858 = "onnx.Relu"(%857) {onnx_node_name = "Relu_214"} : (tensor<64x384x8x8xf32>) -> tensor<64x384x8x8xf32>
    %859 = "onnx.Conv"(%858, %124, %125) {auto_pad = "NOTSET", dilations = [1, 1], group = 1 : si64, kernel_shape = [1, 3], onnx_node_name = "Conv_215", pads = [0, 1, 0, 1], strides = [1, 1]} : (tensor<64x384x8x8xf32>, tensor<384x384x1x3xf32>, tensor<384xf32>) -> tensor<64x384x8x8xf32>
    %860 = "onnx.Relu"(%859) {onnx_node_name = "Relu_216"} : (tensor<64x384x8x8xf32>) -> tensor<64x384x8x8xf32>
    %861 = "onnx.Conv"(%858, %126, %127) {auto_pad = "NOTSET", dilations = [1, 1], group = 1 : si64, kernel_shape = [3, 1], onnx_node_name = "Conv_217", pads = [1, 0, 1, 0], strides = [1, 1]} : (tensor<64x384x8x8xf32>, tensor<384x384x3x1xf32>, tensor<384xf32>) -> tensor<64x384x8x8xf32>
    %862 = "onnx.Relu"(%861) {onnx_node_name = "Relu_218"} : (tensor<64x384x8x8xf32>) -> tensor<64x384x8x8xf32>
    %863 = "onnx.Dim"(%824) {axis = 0 : si64} : (tensor<64x1280x8x8xf32>) -> tensor<1xi64>
    %864 = "onnx.Constant"() {value = dense<1280> : tensor<1xi64>} : () -> tensor<1xi64>
    %865 = "onnx.Constant"() {value = dense<-1> : tensor<1xi64>} : () -> tensor<1xi64>
    %866 = "onnx.Concat"(%863, %864, %865) {axis = 0 : si64} : (tensor<1xi64>, tensor<1xi64>, tensor<1xi64>) -> tensor<3xi64>
    %867 = "onnx.Reshape"(%824, %866) {allowzero = 0 : si64} : (tensor<64x1280x8x8xf32>, tensor<3xi64>) -> tensor<64x1280x64xf32>
    %868 = "onnx.Constant"() {value = dense<[448, -1]> : tensor<2xi64>} : () -> tensor<2xi64>
    %869 = "onnx.Reshape"(%128, %868) {allowzero = 0 : si64} : (tensor<448x1280x1x1xf32>, tensor<2xi64>) -> tensor<448x1280xf32>
    %870 = "onnx.MatMul"(%869, %867) : (tensor<448x1280xf32>, tensor<64x1280x64xf32>) -> tensor<64x448x64xf32>
    %871 = "onnx.Constant"() {value = dense_resource<__elided__> : tensor<1x448x1xf32>} : () -> tensor<1x448x1xf32>
    %872 = "onnx.Add"(%870, %871) : (tensor<64x448x64xf32>, tensor<1x448x1xf32>) -> tensor<64x448x64xf32>
    %873 = "onnx.Dim"(%824) {axis = 0 : si64} : (tensor<64x1280x8x8xf32>) -> tensor<1xi64>
    %874 = "onnx.Constant"() {value = dense<8> : tensor<1xi64>} : () -> tensor<1xi64>
    %875 = "onnx.Constant"() {value = dense<8> : tensor<1xi64>} : () -> tensor<1xi64>
    %876 = "onnx.Constant"() {value = dense<448> : tensor<1xi64>} : () -> tensor<1xi64>
    %877 = "onnx.Concat"(%873, %876, %874, %875) {axis = 0 : si64} : (tensor<1xi64>, tensor<1xi64>, tensor<1xi64>, tensor<1xi64>) -> tensor<4xi64>
    %878 = "onnx.Reshape"(%872, %877) {allowzero = 0 : si64} : (tensor<64x448x64xf32>, tensor<4xi64>) -> tensor<64x448x8x8xf32>
    %879 = "onnx.Relu"(%878) {onnx_node_name = "Relu_221"} : (tensor<64x448x8x8xf32>) -> tensor<64x448x8x8xf32>
    %880 = "onnx.Conv"(%879, %129, %130) {auto_pad = "NOTSET", dilations = [1, 1], group = 1 : si64, kernel_shape = [3, 3], onnx_node_name = "Conv_222", pads = [1, 1, 1, 1], strides = [1, 1]} : (tensor<64x448x8x8xf32>, tensor<384x448x3x3xf32>, tensor<384xf32>) -> tensor<64x384x8x8xf32>
    %881 = "onnx.Relu"(%880) {onnx_node_name = "Relu_223"} : (tensor<64x384x8x8xf32>) -> tensor<64x384x8x8xf32>
    %882 = "onnx.Conv"(%881, %131, %132) {auto_pad = "NOTSET", dilations = [1, 1], group = 1 : si64, kernel_shape = [1, 3], onnx_node_name = "Conv_224", pads = [0, 1, 0, 1], strides = [1, 1]} : (tensor<64x384x8x8xf32>, tensor<384x384x1x3xf32>, tensor<384xf32>) -> tensor<64x384x8x8xf32>
    %883 = "onnx.Relu"(%882) {onnx_node_name = "Relu_225"} : (tensor<64x384x8x8xf32>) -> tensor<64x384x8x8xf32>
    %884 = "onnx.Conv"(%881, %133, %134) {auto_pad = "NOTSET", dilations = [1, 1], group = 1 : si64, kernel_shape = [3, 1], onnx_node_name = "Conv_226", pads = [1, 0, 1, 0], strides = [1, 1]} : (tensor<64x384x8x8xf32>, tensor<384x384x3x1xf32>, tensor<384xf32>) -> tensor<64x384x8x8xf32>
    %885 = "onnx.Relu"(%884) {onnx_node_name = "Relu_227"} : (tensor<64x384x8x8xf32>) -> tensor<64x384x8x8xf32>
    %886 = "onnx.AveragePool"(%824) {auto_pad = "NOTSET", ceil_mode = 0 : si64, count_include_pad = 0 : si64, kernel_shape = [3, 3], onnx_node_name = "AveragePool_231", pads = [1, 1, 1, 1], strides = [1, 1]} : (tensor<64x1280x8x8xf32>) -> tensor<64x1280x8x8xf32>
    %887 = "onnx.Dim"(%886) {axis = 0 : si64} : (tensor<64x1280x8x8xf32>) -> tensor<1xi64>
    %888 = "onnx.Constant"() {value = dense<1280> : tensor<1xi64>} : () -> tensor<1xi64>
    %889 = "onnx.Constant"() {value = dense<-1> : tensor<1xi64>} : () -> tensor<1xi64>
    %890 = "onnx.Concat"(%887, %888, %889) {axis = 0 : si64} : (tensor<1xi64>, tensor<1xi64>, tensor<1xi64>) -> tensor<3xi64>
    %891 = "onnx.Reshape"(%886, %890) {allowzero = 0 : si64} : (tensor<64x1280x8x8xf32>, tensor<3xi64>) -> tensor<64x1280x64xf32>
    %892 = "onnx.Constant"() {value = dense<[192, -1]> : tensor<2xi64>} : () -> tensor<2xi64>
    %893 = "onnx.Reshape"(%135, %892) {allowzero = 0 : si64} : (tensor<192x1280x1x1xf32>, tensor<2xi64>) -> tensor<192x1280xf32>
    %894 = "onnx.MatMul"(%893, %891) : (tensor<192x1280xf32>, tensor<64x1280x64xf32>) -> tensor<64x192x64xf32>
    %895 = "onnx.Constant"() {value = dense_resource<__elided__> : tensor<1x192x1xf32>} : () -> tensor<1x192x1xf32>
    %896 = "onnx.Add"(%894, %895) : (tensor<64x192x64xf32>, tensor<1x192x1xf32>) -> tensor<64x192x64xf32>
    %897 = "onnx.Dim"(%886) {axis = 0 : si64} : (tensor<64x1280x8x8xf32>) -> tensor<1xi64>
    %898 = "onnx.Constant"() {value = dense<8> : tensor<1xi64>} : () -> tensor<1xi64>
    %899 = "onnx.Constant"() {value = dense<8> : tensor<1xi64>} : () -> tensor<1xi64>
    %900 = "onnx.Constant"() {value = dense<192> : tensor<1xi64>} : () -> tensor<1xi64>
    %901 = "onnx.Concat"(%897, %900, %898, %899) {axis = 0 : si64} : (tensor<1xi64>, tensor<1xi64>, tensor<1xi64>, tensor<1xi64>) -> tensor<4xi64>
    %902 = "onnx.Reshape"(%896, %901) {allowzero = 0 : si64} : (tensor<64x192x64xf32>, tensor<4xi64>) -> tensor<64x192x8x8xf32>
    %903 = "onnx.Relu"(%902) {onnx_node_name = "Relu_233"} : (tensor<64x192x8x8xf32>) -> tensor<64x192x8x8xf32>
    %904 = "onnx.Concat"(%841, %860, %862, %883, %885, %903) {axis = 1 : si64, onnx_node_name = "Concat_234"} : (tensor<64x320x8x8xf32>, tensor<64x384x8x8xf32>, tensor<64x384x8x8xf32>, tensor<64x384x8x8xf32>, tensor<64x384x8x8xf32>, tensor<64x192x8x8xf32>) -> tensor<64x2048x8x8xf32>
    %905 = "onnx.Dim"(%904) {axis = 0 : si64} : (tensor<64x2048x8x8xf32>) -> tensor<1xi64>
    %906 = "onnx.Constant"() {value = dense<2048> : tensor<1xi64>} : () -> tensor<1xi64>
    %907 = "onnx.Constant"() {value = dense<-1> : tensor<1xi64>} : () -> tensor<1xi64>
    %908 = "onnx.Concat"(%905, %906, %907) {axis = 0 : si64} : (tensor<1xi64>, tensor<1xi64>, tensor<1xi64>) -> tensor<3xi64>
    %909 = "onnx.Reshape"(%904, %908) {allowzero = 0 : si64} : (tensor<64x2048x8x8xf32>, tensor<3xi64>) -> tensor<64x2048x64xf32>
    %910 = "onnx.Constant"() {value = dense<[320, -1]> : tensor<2xi64>} : () -> tensor<2xi64>
    %911 = "onnx.Reshape"(%136, %910) {allowzero = 0 : si64} : (tensor<320x2048x1x1xf32>, tensor<2xi64>) -> tensor<320x2048xf32>
    %912 = "onnx.MatMul"(%911, %909) : (tensor<320x2048xf32>, tensor<64x2048x64xf32>) -> tensor<64x320x64xf32>
    %913 = "onnx.Constant"() {value = dense_resource<__elided__> : tensor<1x320x1xf32>} : () -> tensor<1x320x1xf32>
    %914 = "onnx.Add"(%912, %913) : (tensor<64x320x64xf32>, tensor<1x320x1xf32>) -> tensor<64x320x64xf32>
    %915 = "onnx.Dim"(%904) {axis = 0 : si64} : (tensor<64x2048x8x8xf32>) -> tensor<1xi64>
    %916 = "onnx.Constant"() {value = dense<8> : tensor<1xi64>} : () -> tensor<1xi64>
    %917 = "onnx.Constant"() {value = dense<8> : tensor<1xi64>} : () -> tensor<1xi64>
    %918 = "onnx.Constant"() {value = dense<320> : tensor<1xi64>} : () -> tensor<1xi64>
    %919 = "onnx.Concat"(%915, %918, %916, %917) {axis = 0 : si64} : (tensor<1xi64>, tensor<1xi64>, tensor<1xi64>, tensor<1xi64>) -> tensor<4xi64>
    %920 = "onnx.Reshape"(%914, %919) {allowzero = 0 : si64} : (tensor<64x320x64xf32>, tensor<4xi64>) -> tensor<64x320x8x8xf32>
    %921 = "onnx.Relu"(%920) {onnx_node_name = "Relu_236"} : (tensor<64x320x8x8xf32>) -> tensor<64x320x8x8xf32>
    %922 = "onnx.Dim"(%904) {axis = 0 : si64} : (tensor<64x2048x8x8xf32>) -> tensor<1xi64>
    %923 = "onnx.Constant"() {value = dense<2048> : tensor<1xi64>} : () -> tensor<1xi64>
    %924 = "onnx.Constant"() {value = dense<-1> : tensor<1xi64>} : () -> tensor<1xi64>
    %925 = "onnx.Concat"(%922, %923, %924) {axis = 0 : si64} : (tensor<1xi64>, tensor<1xi64>, tensor<1xi64>) -> tensor<3xi64>
    %926 = "onnx.Reshape"(%904, %925) {allowzero = 0 : si64} : (tensor<64x2048x8x8xf32>, tensor<3xi64>) -> tensor<64x2048x64xf32>
    %927 = "onnx.Constant"() {value = dense<[384, -1]> : tensor<2xi64>} : () -> tensor<2xi64>
    %928 = "onnx.Reshape"(%137, %927) {allowzero = 0 : si64} : (tensor<384x2048x1x1xf32>, tensor<2xi64>) -> tensor<384x2048xf32>
    %929 = "onnx.MatMul"(%928, %926) : (tensor<384x2048xf32>, tensor<64x2048x64xf32>) -> tensor<64x384x64xf32>
    %930 = "onnx.Constant"() {value = dense_resource<__elided__> : tensor<1x384x1xf32>} : () -> tensor<1x384x1xf32>
    %931 = "onnx.Add"(%929, %930) : (tensor<64x384x64xf32>, tensor<1x384x1xf32>) -> tensor<64x384x64xf32>
    %932 = "onnx.Dim"(%904) {axis = 0 : si64} : (tensor<64x2048x8x8xf32>) -> tensor<1xi64>
    %933 = "onnx.Constant"() {value = dense<8> : tensor<1xi64>} : () -> tensor<1xi64>
    %934 = "onnx.Constant"() {value = dense<8> : tensor<1xi64>} : () -> tensor<1xi64>
    %935 = "onnx.Constant"() {value = dense<384> : tensor<1xi64>} : () -> tensor<1xi64>
    %936 = "onnx.Concat"(%932, %935, %933, %934) {axis = 0 : si64} : (tensor<1xi64>, tensor<1xi64>, tensor<1xi64>, tensor<1xi64>) -> tensor<4xi64>
    %937 = "onnx.Reshape"(%931, %936) {allowzero = 0 : si64} : (tensor<64x384x64xf32>, tensor<4xi64>) -> tensor<64x384x8x8xf32>
    %938 = "onnx.Relu"(%937) {onnx_node_name = "Relu_238"} : (tensor<64x384x8x8xf32>) -> tensor<64x384x8x8xf32>
    %939 = "onnx.Conv"(%938, %138, %139) {auto_pad = "NOTSET", dilations = [1, 1], group = 1 : si64, kernel_shape = [1, 3], onnx_node_name = "Conv_239", pads = [0, 1, 0, 1], strides = [1, 1]} : (tensor<64x384x8x8xf32>, tensor<384x384x1x3xf32>, tensor<384xf32>) -> tensor<64x384x8x8xf32>
    %940 = "onnx.Relu"(%939) {onnx_node_name = "Relu_240"} : (tensor<64x384x8x8xf32>) -> tensor<64x384x8x8xf32>
    %941 = "onnx.Conv"(%938, %140, %141) {auto_pad = "NOTSET", dilations = [1, 1], group = 1 : si64, kernel_shape = [3, 1], onnx_node_name = "Conv_241", pads = [1, 0, 1, 0], strides = [1, 1]} : (tensor<64x384x8x8xf32>, tensor<384x384x3x1xf32>, tensor<384xf32>) -> tensor<64x384x8x8xf32>
    %942 = "onnx.Relu"(%941) {onnx_node_name = "Relu_242"} : (tensor<64x384x8x8xf32>) -> tensor<64x384x8x8xf32>
    %943 = "onnx.Dim"(%904) {axis = 0 : si64} : (tensor<64x2048x8x8xf32>) -> tensor<1xi64>
    %944 = "onnx.Constant"() {value = dense<2048> : tensor<1xi64>} : () -> tensor<1xi64>
    %945 = "onnx.Constant"() {value = dense<-1> : tensor<1xi64>} : () -> tensor<1xi64>
    %946 = "onnx.Concat"(%943, %944, %945) {axis = 0 : si64} : (tensor<1xi64>, tensor<1xi64>, tensor<1xi64>) -> tensor<3xi64>
    %947 = "onnx.Reshape"(%904, %946) {allowzero = 0 : si64} : (tensor<64x2048x8x8xf32>, tensor<3xi64>) -> tensor<64x2048x64xf32>
    %948 = "onnx.Constant"() {value = dense<[448, -1]> : tensor<2xi64>} : () -> tensor<2xi64>
    %949 = "onnx.Reshape"(%142, %948) {allowzero = 0 : si64} : (tensor<448x2048x1x1xf32>, tensor<2xi64>) -> tensor<448x2048xf32>
    %950 = "onnx.MatMul"(%949, %947) : (tensor<448x2048xf32>, tensor<64x2048x64xf32>) -> tensor<64x448x64xf32>
    %951 = "onnx.Constant"() {value = dense_resource<__elided__> : tensor<1x448x1xf32>} : () -> tensor<1x448x1xf32>
    %952 = "onnx.Add"(%950, %951) : (tensor<64x448x64xf32>, tensor<1x448x1xf32>) -> tensor<64x448x64xf32>
    %953 = "onnx.Dim"(%904) {axis = 0 : si64} : (tensor<64x2048x8x8xf32>) -> tensor<1xi64>
    %954 = "onnx.Constant"() {value = dense<8> : tensor<1xi64>} : () -> tensor<1xi64>
    %955 = "onnx.Constant"() {value = dense<8> : tensor<1xi64>} : () -> tensor<1xi64>
    %956 = "onnx.Constant"() {value = dense<448> : tensor<1xi64>} : () -> tensor<1xi64>
    %957 = "onnx.Concat"(%953, %956, %954, %955) {axis = 0 : si64} : (tensor<1xi64>, tensor<1xi64>, tensor<1xi64>, tensor<1xi64>) -> tensor<4xi64>
    %958 = "onnx.Reshape"(%952, %957) {allowzero = 0 : si64} : (tensor<64x448x64xf32>, tensor<4xi64>) -> tensor<64x448x8x8xf32>
    %959 = "onnx.Relu"(%958) {onnx_node_name = "Relu_245"} : (tensor<64x448x8x8xf32>) -> tensor<64x448x8x8xf32>
    %960 = "onnx.Conv"(%959, %143, %144) {auto_pad = "NOTSET", dilations = [1, 1], group = 1 : si64, kernel_shape = [3, 3], onnx_node_name = "Conv_246", pads = [1, 1, 1, 1], strides = [1, 1]} : (tensor<64x448x8x8xf32>, tensor<384x448x3x3xf32>, tensor<384xf32>) -> tensor<64x384x8x8xf32>
    %961 = "onnx.Relu"(%960) {onnx_node_name = "Relu_247"} : (tensor<64x384x8x8xf32>) -> tensor<64x384x8x8xf32>
    %962 = "onnx.Conv"(%961, %145, %146) {auto_pad = "NOTSET", dilations = [1, 1], group = 1 : si64, kernel_shape = [1, 3], onnx_node_name = "Conv_248", pads = [0, 1, 0, 1], strides = [1, 1]} : (tensor<64x384x8x8xf32>, tensor<384x384x1x3xf32>, tensor<384xf32>) -> tensor<64x384x8x8xf32>
    %963 = "onnx.Relu"(%962) {onnx_node_name = "Relu_249"} : (tensor<64x384x8x8xf32>) -> tensor<64x384x8x8xf32>
    %964 = "onnx.Conv"(%961, %147, %148) {auto_pad = "NOTSET", dilations = [1, 1], group = 1 : si64, kernel_shape = [3, 1], onnx_node_name = "Conv_250", pads = [1, 0, 1, 0], strides = [1, 1]} : (tensor<64x384x8x8xf32>, tensor<384x384x3x1xf32>, tensor<384xf32>) -> tensor<64x384x8x8xf32>
    %965 = "onnx.Relu"(%964) {onnx_node_name = "Relu_251"} : (tensor<64x384x8x8xf32>) -> tensor<64x384x8x8xf32>
    %966 = "onnx.AveragePool"(%904) {auto_pad = "NOTSET", ceil_mode = 0 : si64, count_include_pad = 0 : si64, kernel_shape = [3, 3], onnx_node_name = "AveragePool_255", pads = [1, 1, 1, 1], strides = [1, 1]} : (tensor<64x2048x8x8xf32>) -> tensor<64x2048x8x8xf32>
    %967 = "onnx.Dim"(%966) {axis = 0 : si64} : (tensor<64x2048x8x8xf32>) -> tensor<1xi64>
    %968 = "onnx.Constant"() {value = dense<2048> : tensor<1xi64>} : () -> tensor<1xi64>
    %969 = "onnx.Constant"() {value = dense<-1> : tensor<1xi64>} : () -> tensor<1xi64>
    %970 = "onnx.Concat"(%967, %968, %969) {axis = 0 : si64} : (tensor<1xi64>, tensor<1xi64>, tensor<1xi64>) -> tensor<3xi64>
    %971 = "onnx.Reshape"(%966, %970) {allowzero = 0 : si64} : (tensor<64x2048x8x8xf32>, tensor<3xi64>) -> tensor<64x2048x64xf32>
    %972 = "onnx.Constant"() {value = dense<[192, -1]> : tensor<2xi64>} : () -> tensor<2xi64>
    %973 = "onnx.Reshape"(%149, %972) {allowzero = 0 : si64} : (tensor<192x2048x1x1xf32>, tensor<2xi64>) -> tensor<192x2048xf32>
    %974 = "onnx.MatMul"(%973, %971) : (tensor<192x2048xf32>, tensor<64x2048x64xf32>) -> tensor<64x192x64xf32>
    %975 = "onnx.Constant"() {value = dense_resource<__elided__> : tensor<1x192x1xf32>} : () -> tensor<1x192x1xf32>
    %976 = "onnx.Add"(%974, %975) : (tensor<64x192x64xf32>, tensor<1x192x1xf32>) -> tensor<64x192x64xf32>
    %977 = "onnx.Dim"(%966) {axis = 0 : si64} : (tensor<64x2048x8x8xf32>) -> tensor<1xi64>
    %978 = "onnx.Constant"() {value = dense<8> : tensor<1xi64>} : () -> tensor<1xi64>
    %979 = "onnx.Constant"() {value = dense<8> : tensor<1xi64>} : () -> tensor<1xi64>
    %980 = "onnx.Constant"() {value = dense<192> : tensor<1xi64>} : () -> tensor<1xi64>
    %981 = "onnx.Concat"(%977, %980, %978, %979) {axis = 0 : si64} : (tensor<1xi64>, tensor<1xi64>, tensor<1xi64>, tensor<1xi64>) -> tensor<4xi64>
    %982 = "onnx.Reshape"(%976, %981) {allowzero = 0 : si64} : (tensor<64x192x64xf32>, tensor<4xi64>) -> tensor<64x192x8x8xf32>
    %983 = "onnx.Relu"(%982) {onnx_node_name = "Relu_257"} : (tensor<64x192x8x8xf32>) -> tensor<64x192x8x8xf32>
    %984 = "onnx.Concat"(%921, %940, %942, %963, %965, %983) {axis = 1 : si64, onnx_node_name = "Concat_258"} : (tensor<64x320x8x8xf32>, tensor<64x384x8x8xf32>, tensor<64x384x8x8xf32>, tensor<64x384x8x8xf32>, tensor<64x384x8x8xf32>, tensor<64x192x8x8xf32>) -> tensor<64x2048x8x8xf32>
    %985 = "onnx.ReduceMean"(%984) {axes = [2, 3], keepdims = 1 : si64} : (tensor<64x2048x8x8xf32>) -> tensor<64x2048x1x1xf32>
    %986 = "onnx.Flatten"(%985) {axis = 1 : si64, onnx_node_name = "Flatten_260"} : (tensor<64x2048x1x1xf32>) -> tensor<64x2048xf32>
    %987 = "onnx.Gemm"(%986, %0, %1) {alpha = 1.000000e+00 : f32, beta = 1.000000e+00 : f32, onnx_node_name = "Gemm_261", transA = 0 : si64, transB = 1 : si64} : (tensor<64x2048xf32>, tensor<1000x2048xf32>, tensor<1000xf32>) -> tensor<64x1000xf32>
    return %987 : tensor<64x1000xf32>
  }
  "onnx.EntryPoint"() {func = @main_graph} : () -> ()
}
