module attributes {llvm.data_layout = "e-m:e-p270:32:32-p271:32:32-p272:64:64-i64:64-f80:128-n8:16:32:64-S128", llvm.target_triple = "x86_64-unknown-linux-gnu"} {
  func.func @main_graph(%arg0: tensor<8x3x299x299xf32>) -> tensor<8x1000xf32> attributes {input_names = ["input"], output_names = ["output"]} {
    %0 = crt.constant : () -> tensor<1000x2048xf32>
    %1 = crt.constant : () -> tensor<1000xf32>
    %2 = crt.constant : () -> tensor<32x3x3x3xf32>
    %3 = crt.constant : () -> tensor<32xf32>
    %4 = crt.constant : () -> tensor<32x32x3x3xf32>
    %5 = crt.constant : () -> tensor<32xf32>
    %6 = crt.constant : () -> tensor<64x32x3x3xf32>
    %7 = crt.constant : () -> tensor<64xf32>
    %8 = crt.constant : () -> tensor<80x64x1x1xf32>
    %9 = crt.constant : () -> tensor<192x80x3x3xf32>
    %10 = crt.constant : () -> tensor<192xf32>
    %11 = crt.constant : () -> tensor<64x192x1x1xf32>
    %12 = crt.constant : () -> tensor<48x192x1x1xf32>
    %13 = crt.constant : () -> tensor<64x48x5x5xf32>
    %14 = crt.constant : () -> tensor<64xf32>
    %15 = crt.constant : () -> tensor<64x192x1x1xf32>
    %16 = crt.constant : () -> tensor<96x64x3x3xf32>
    %17 = crt.constant : () -> tensor<96xf32>
    %18 = crt.constant : () -> tensor<96x96x3x3xf32>
    %19 = crt.constant : () -> tensor<96xf32>
    %20 = crt.constant : () -> tensor<32x192x1x1xf32>
    %21 = crt.constant : () -> tensor<64x256x1x1xf32>
    %22 = crt.constant : () -> tensor<48x256x1x1xf32>
    %23 = crt.constant : () -> tensor<64x48x5x5xf32>
    %24 = crt.constant : () -> tensor<64xf32>
    %25 = crt.constant : () -> tensor<64x256x1x1xf32>
    %26 = crt.constant : () -> tensor<96x64x3x3xf32>
    %27 = crt.constant : () -> tensor<96xf32>
    %28 = crt.constant : () -> tensor<96x96x3x3xf32>
    %29 = crt.constant : () -> tensor<96xf32>
    %30 = crt.constant : () -> tensor<64x256x1x1xf32>
    %31 = crt.constant : () -> tensor<64x288x1x1xf32>
    %32 = crt.constant : () -> tensor<48x288x1x1xf32>
    %33 = crt.constant : () -> tensor<64x48x5x5xf32>
    %34 = crt.constant : () -> tensor<64xf32>
    %35 = crt.constant : () -> tensor<64x288x1x1xf32>
    %36 = crt.constant : () -> tensor<96x64x3x3xf32>
    %37 = crt.constant : () -> tensor<96xf32>
    %38 = crt.constant : () -> tensor<96x96x3x3xf32>
    %39 = crt.constant : () -> tensor<96xf32>
    %40 = crt.constant : () -> tensor<64x288x1x1xf32>
    %41 = crt.constant : () -> tensor<384x288x3x3xf32>
    %42 = crt.constant : () -> tensor<384xf32>
    %43 = crt.constant : () -> tensor<64x288x1x1xf32>
    %44 = crt.constant : () -> tensor<96x64x3x3xf32>
    %45 = crt.constant : () -> tensor<96xf32>
    %46 = crt.constant : () -> tensor<96x96x3x3xf32>
    %47 = crt.constant : () -> tensor<96xf32>
    %48 = crt.constant : () -> tensor<192x768x1x1xf32>
    %49 = crt.constant : () -> tensor<128x768x1x1xf32>
    %50 = crt.constant : () -> tensor<128x128x1x7xf32>
    %51 = crt.constant : () -> tensor<128xf32>
    %52 = crt.constant : () -> tensor<192x128x7x1xf32>
    %53 = crt.constant : () -> tensor<192xf32>
    %54 = crt.constant : () -> tensor<128x768x1x1xf32>
    %55 = crt.constant : () -> tensor<128x128x7x1xf32>
    %56 = crt.constant : () -> tensor<128xf32>
    %57 = crt.constant : () -> tensor<128x128x1x7xf32>
    %58 = crt.constant : () -> tensor<128xf32>
    %59 = crt.constant : () -> tensor<128x128x7x1xf32>
    %60 = crt.constant : () -> tensor<128xf32>
    %61 = crt.constant : () -> tensor<192x128x1x7xf32>
    %62 = crt.constant : () -> tensor<192xf32>
    %63 = crt.constant : () -> tensor<192x768x1x1xf32>
    %64 = crt.constant : () -> tensor<192x768x1x1xf32>
    %65 = crt.constant : () -> tensor<160x768x1x1xf32>
    %66 = crt.constant : () -> tensor<160x160x1x7xf32>
    %67 = crt.constant : () -> tensor<160xf32>
    %68 = crt.constant : () -> tensor<192x160x7x1xf32>
    %69 = crt.constant : () -> tensor<192xf32>
    %70 = crt.constant : () -> tensor<160x768x1x1xf32>
    %71 = crt.constant : () -> tensor<160x160x7x1xf32>
    %72 = crt.constant : () -> tensor<160xf32>
    %73 = crt.constant : () -> tensor<160x160x1x7xf32>
    %74 = crt.constant : () -> tensor<160xf32>
    %75 = crt.constant : () -> tensor<160x160x7x1xf32>
    %76 = crt.constant : () -> tensor<160xf32>
    %77 = crt.constant : () -> tensor<192x160x1x7xf32>
    %78 = crt.constant : () -> tensor<192xf32>
    %79 = crt.constant : () -> tensor<192x768x1x1xf32>
    %80 = crt.constant : () -> tensor<192x768x1x1xf32>
    %81 = crt.constant : () -> tensor<160x768x1x1xf32>
    %82 = crt.constant : () -> tensor<160x160x1x7xf32>
    %83 = crt.constant : () -> tensor<160xf32>
    %84 = crt.constant : () -> tensor<192x160x7x1xf32>
    %85 = crt.constant : () -> tensor<192xf32>
    %86 = crt.constant : () -> tensor<160x768x1x1xf32>
    %87 = crt.constant : () -> tensor<160x160x7x1xf32>
    %88 = crt.constant : () -> tensor<160xf32>
    %89 = crt.constant : () -> tensor<160x160x1x7xf32>
    %90 = crt.constant : () -> tensor<160xf32>
    %91 = crt.constant : () -> tensor<160x160x7x1xf32>
    %92 = crt.constant : () -> tensor<160xf32>
    %93 = crt.constant : () -> tensor<192x160x1x7xf32>
    %94 = crt.constant : () -> tensor<192xf32>
    %95 = crt.constant : () -> tensor<192x768x1x1xf32>
    %96 = crt.constant : () -> tensor<192x768x1x1xf32>
    %97 = crt.constant : () -> tensor<192x768x1x1xf32>
    %98 = crt.constant : () -> tensor<192x192x1x7xf32>
    %99 = crt.constant : () -> tensor<192xf32>
    %100 = crt.constant : () -> tensor<192x192x7x1xf32>
    %101 = crt.constant : () -> tensor<192xf32>
    %102 = crt.constant : () -> tensor<192x768x1x1xf32>
    %103 = crt.constant : () -> tensor<192x192x7x1xf32>
    %104 = crt.constant : () -> tensor<192xf32>
    %105 = crt.constant : () -> tensor<192x192x1x7xf32>
    %106 = crt.constant : () -> tensor<192xf32>
    %107 = crt.constant : () -> tensor<192x192x7x1xf32>
    %108 = crt.constant : () -> tensor<192xf32>
    %109 = crt.constant : () -> tensor<192x192x1x7xf32>
    %110 = crt.constant : () -> tensor<192xf32>
    %111 = crt.constant : () -> tensor<192x768x1x1xf32>
    %112 = crt.constant : () -> tensor<192x768x1x1xf32>
    %113 = crt.constant : () -> tensor<320x192x3x3xf32>
    %114 = crt.constant : () -> tensor<320xf32>
    %115 = crt.constant : () -> tensor<192x768x1x1xf32>
    %116 = crt.constant : () -> tensor<192x192x1x7xf32>
    %117 = crt.constant : () -> tensor<192xf32>
    %118 = crt.constant : () -> tensor<192x192x7x1xf32>
    %119 = crt.constant : () -> tensor<192xf32>
    %120 = crt.constant : () -> tensor<192x192x3x3xf32>
    %121 = crt.constant : () -> tensor<192xf32>
    %122 = crt.constant : () -> tensor<320x1280x1x1xf32>
    %123 = crt.constant : () -> tensor<384x1280x1x1xf32>
    %124 = crt.constant : () -> tensor<384x384x1x3xf32>
    %125 = crt.constant : () -> tensor<384xf32>
    %126 = crt.constant : () -> tensor<384x384x3x1xf32>
    %127 = crt.constant : () -> tensor<384xf32>
    %128 = crt.constant : () -> tensor<448x1280x1x1xf32>
    %129 = crt.constant : () -> tensor<384x448x3x3xf32>
    %130 = crt.constant : () -> tensor<384xf32>
    %131 = crt.constant : () -> tensor<384x384x1x3xf32>
    %132 = crt.constant : () -> tensor<384xf32>
    %133 = crt.constant : () -> tensor<384x384x3x1xf32>
    %134 = crt.constant : () -> tensor<384xf32>
    %135 = crt.constant : () -> tensor<192x1280x1x1xf32>
    %136 = crt.constant : () -> tensor<320x2048x1x1xf32>
    %137 = crt.constant : () -> tensor<384x2048x1x1xf32>
    %138 = crt.constant : () -> tensor<384x384x1x3xf32>
    %139 = crt.constant : () -> tensor<384xf32>
    %140 = crt.constant : () -> tensor<384x384x3x1xf32>
    %141 = crt.constant : () -> tensor<384xf32>
    %142 = crt.constant : () -> tensor<448x2048x1x1xf32>
    %143 = crt.constant : () -> tensor<384x448x3x3xf32>
    %144 = crt.constant : () -> tensor<384xf32>
    %145 = crt.constant : () -> tensor<384x384x1x3xf32>
    %146 = crt.constant : () -> tensor<384xf32>
    %147 = crt.constant : () -> tensor<384x384x3x1xf32>
    %148 = crt.constant : () -> tensor<384xf32>
    %149 = crt.constant : () -> tensor<192x2048x1x1xf32>
    %150 = crt.constant : () -> tensor<i64>
    %151 = crt.constant : () -> tensor<1xi64>
    %152 = crt.constant : () -> tensor<f32>
    %153 = crt.constant : () -> tensor<f32>
    %154 = crt.constant : () -> tensor<i64>
    %155 = crt.constant : () -> tensor<f32>
    %156 = crt.constant : () -> tensor<f32>
    %157 = crt.constant : () -> tensor<i64>
    %158 = crt.constant : () -> tensor<f32>
    %159 = crt.constant : () -> tensor<f32>
    %160 = crt.gather %arg0, %150 : (tensor<8x3x299x299xf32>, tensor<i64>) -> tensor<8x299x299xf32>
    %161 = crt.unsqueeze %160, %151 : (tensor<8x299x299xf32>, tensor<1xi64>) -> tensor<8x1x299x299xf32>
    %162 = crt.mul %161, %152 : (tensor<8x1x299x299xf32>, tensor<f32>) -> tensor<8x1x299x299xf32>
    %163 = crt.add %162, %153 : (tensor<8x1x299x299xf32>, tensor<f32>) -> tensor<8x1x299x299xf32>
    %164 = crt.gather %arg0, %154 : (tensor<8x3x299x299xf32>, tensor<i64>) -> tensor<8x299x299xf32>
    %165 = crt.unsqueeze %164, %151 : (tensor<8x299x299xf32>, tensor<1xi64>) -> tensor<8x1x299x299xf32>
    %166 = crt.mul %165, %155 : (tensor<8x1x299x299xf32>, tensor<f32>) -> tensor<8x1x299x299xf32>
    %167 = crt.add %166, %156 : (tensor<8x1x299x299xf32>, tensor<f32>) -> tensor<8x1x299x299xf32>
    %168 = crt.gather %arg0, %157 : (tensor<8x3x299x299xf32>, tensor<i64>) -> tensor<8x299x299xf32>
    %169 = crt.unsqueeze %168, %151 : (tensor<8x299x299xf32>, tensor<1xi64>) -> tensor<8x1x299x299xf32>
    %170 = crt.mul %169, %158 : (tensor<8x1x299x299xf32>, tensor<f32>) -> tensor<8x1x299x299xf32>
    %171 = crt.add %170, %159 : (tensor<8x1x299x299xf32>, tensor<f32>) -> tensor<8x1x299x299xf32>
    %172 = crt.concat %163, %167, %171 : (tensor<8x1x299x299xf32>, tensor<8x1x299x299xf32>, tensor<8x1x299x299xf32>) -> tensor<8x3x299x299xf32>
    %173 = crt.convadd %172, %2, %3 : (tensor<8x3x299x299xf32>, tensor<32x3x3x3xf32>, tensor<32xf32>) -> tensor<8x32x149x149xf32>
    %174 = crt.relu %173 : (tensor<8x32x149x149xf32>) -> tensor<8x32x149x149xf32>
    %175 = crt.convadd %174, %4, %5 : (tensor<8x32x149x149xf32>, tensor<32x32x3x3xf32>, tensor<32xf32>) -> tensor<8x32x147x147xf32>
    %176 = crt.relu %175 : (tensor<8x32x147x147xf32>) -> tensor<8x32x147x147xf32>
    %177 = crt.convadd %176, %6, %7 : (tensor<8x32x147x147xf32>, tensor<64x32x3x3xf32>, tensor<64xf32>) -> tensor<8x64x147x147xf32>
    %178 = crt.relu %177 : (tensor<8x64x147x147xf32>) -> tensor<8x64x147x147xf32>
    %179 = crt.maxpool %178 : (tensor<8x64x147x147xf32>) -> tensor<8x64x73x73xf32>
    %180 = crt.constant : () -> tensor<3xi64>
    %181 = crt.reshape %179, %180 : (tensor<8x64x73x73xf32>, tensor<3xi64>) -> tensor<8x64x5329xf32>
    %182 = crt.constant : () -> tensor<2xi64>
    %183 = crt.reshape %8, %182 : (tensor<80x64x1x1xf32>, tensor<2xi64>) -> tensor<80x64xf32>
    %184 = crt.matmul %183, %181 : (tensor<80x64xf32>, tensor<8x64x5329xf32>) -> tensor<8x80x5329xf32>
    %185 = crt.constant : () -> tensor<1x80x1xf32>
    %186 = crt.add %184, %185 : (tensor<8x80x5329xf32>, tensor<1x80x1xf32>) -> tensor<8x80x5329xf32>
    %187 = crt.constant : () -> tensor<4xi64>
    %188 = crt.reshape %186, %187 : (tensor<8x80x5329xf32>, tensor<4xi64>) -> tensor<8x80x73x73xf32>
    %189 = crt.relu %188 : (tensor<8x80x73x73xf32>) -> tensor<8x80x73x73xf32>
    %190 = crt.convadd %189, %9, %10 : (tensor<8x80x73x73xf32>, tensor<192x80x3x3xf32>, tensor<192xf32>) -> tensor<8x192x71x71xf32>
    %191 = crt.relu %190 : (tensor<8x192x71x71xf32>) -> tensor<8x192x71x71xf32>
    %192 = crt.maxpool %191 : (tensor<8x192x71x71xf32>) -> tensor<8x192x35x35xf32>
    %193 = crt.constant : () -> tensor<3xi64>
    %194 = crt.reshape %192, %193 : (tensor<8x192x35x35xf32>, tensor<3xi64>) -> tensor<8x192x1225xf32>
    %195 = crt.constant : () -> tensor<2xi64>
    %196 = crt.reshape %11, %195 : (tensor<64x192x1x1xf32>, tensor<2xi64>) -> tensor<64x192xf32>
    %197 = crt.matmul %196, %194 : (tensor<64x192xf32>, tensor<8x192x1225xf32>) -> tensor<8x64x1225xf32>
    %198 = crt.constant : () -> tensor<1x64x1xf32>
    %199 = crt.add %197, %198 : (tensor<8x64x1225xf32>, tensor<1x64x1xf32>) -> tensor<8x64x1225xf32>
    %200 = crt.constant : () -> tensor<4xi64>
    %201 = crt.reshape %199, %200 : (tensor<8x64x1225xf32>, tensor<4xi64>) -> tensor<8x64x35x35xf32>
    %202 = crt.relu %201 : (tensor<8x64x35x35xf32>) -> tensor<8x64x35x35xf32>
    %203 = crt.constant : () -> tensor<3xi64>
    %204 = crt.reshape %192, %203 : (tensor<8x192x35x35xf32>, tensor<3xi64>) -> tensor<8x192x1225xf32>
    %205 = crt.constant : () -> tensor<2xi64>
    %206 = crt.reshape %12, %205 : (tensor<48x192x1x1xf32>, tensor<2xi64>) -> tensor<48x192xf32>
    %207 = crt.matmul %206, %204 : (tensor<48x192xf32>, tensor<8x192x1225xf32>) -> tensor<8x48x1225xf32>
    %208 = crt.constant : () -> tensor<1x48x1xf32>
    %209 = crt.add %207, %208 : (tensor<8x48x1225xf32>, tensor<1x48x1xf32>) -> tensor<8x48x1225xf32>
    %210 = crt.constant : () -> tensor<4xi64>
    %211 = crt.reshape %209, %210 : (tensor<8x48x1225xf32>, tensor<4xi64>) -> tensor<8x48x35x35xf32>
    %212 = crt.relu %211 : (tensor<8x48x35x35xf32>) -> tensor<8x48x35x35xf32>
    %213 = crt.convadd %212, %13, %14 : (tensor<8x48x35x35xf32>, tensor<64x48x5x5xf32>, tensor<64xf32>) -> tensor<8x64x35x35xf32>
    %214 = crt.relu %213 : (tensor<8x64x35x35xf32>) -> tensor<8x64x35x35xf32>
    %215 = crt.constant : () -> tensor<3xi64>
    %216 = crt.reshape %192, %215 : (tensor<8x192x35x35xf32>, tensor<3xi64>) -> tensor<8x192x1225xf32>
    %217 = crt.constant : () -> tensor<2xi64>
    %218 = crt.reshape %15, %217 : (tensor<64x192x1x1xf32>, tensor<2xi64>) -> tensor<64x192xf32>
    %219 = crt.matmul %218, %216 : (tensor<64x192xf32>, tensor<8x192x1225xf32>) -> tensor<8x64x1225xf32>
    %220 = crt.constant : () -> tensor<1x64x1xf32>
    %221 = crt.add %219, %220 : (tensor<8x64x1225xf32>, tensor<1x64x1xf32>) -> tensor<8x64x1225xf32>
    %222 = crt.constant : () -> tensor<4xi64>
    %223 = crt.reshape %221, %222 : (tensor<8x64x1225xf32>, tensor<4xi64>) -> tensor<8x64x35x35xf32>
    %224 = crt.relu %223 : (tensor<8x64x35x35xf32>) -> tensor<8x64x35x35xf32>
    %225 = crt.convadd %224, %16, %17 : (tensor<8x64x35x35xf32>, tensor<96x64x3x3xf32>, tensor<96xf32>) -> tensor<8x96x35x35xf32>
    %226 = crt.relu %225 : (tensor<8x96x35x35xf32>) -> tensor<8x96x35x35xf32>
    %227 = crt.convadd %226, %18, %19 : (tensor<8x96x35x35xf32>, tensor<96x96x3x3xf32>, tensor<96xf32>) -> tensor<8x96x35x35xf32>
    %228 = crt.relu %227 : (tensor<8x96x35x35xf32>) -> tensor<8x96x35x35xf32>
    %229 = crt.avgpool %192 : (tensor<8x192x35x35xf32>) -> tensor<8x192x35x35xf32>
    %230 = crt.constant : () -> tensor<3xi64>
    %231 = crt.reshape %229, %230 : (tensor<8x192x35x35xf32>, tensor<3xi64>) -> tensor<8x192x1225xf32>
    %232 = crt.constant : () -> tensor<2xi64>
    %233 = crt.reshape %20, %232 : (tensor<32x192x1x1xf32>, tensor<2xi64>) -> tensor<32x192xf32>
    %234 = crt.matmul %233, %231 : (tensor<32x192xf32>, tensor<8x192x1225xf32>) -> tensor<8x32x1225xf32>
    %235 = crt.constant : () -> tensor<1x32x1xf32>
    %236 = crt.add %234, %235 : (tensor<8x32x1225xf32>, tensor<1x32x1xf32>) -> tensor<8x32x1225xf32>
    %237 = crt.constant : () -> tensor<4xi64>
    %238 = crt.reshape %236, %237 : (tensor<8x32x1225xf32>, tensor<4xi64>) -> tensor<8x32x35x35xf32>
    %239 = crt.relu %238 : (tensor<8x32x35x35xf32>) -> tensor<8x32x35x35xf32>
    %240 = crt.concat %202, %214, %228, %239 : (tensor<8x64x35x35xf32>, tensor<8x64x35x35xf32>, tensor<8x96x35x35xf32>, tensor<8x32x35x35xf32>) -> tensor<8x256x35x35xf32>
    %241 = crt.constant : () -> tensor<3xi64>
    %242 = crt.reshape %240, %241 : (tensor<8x256x35x35xf32>, tensor<3xi64>) -> tensor<8x256x1225xf32>
    %243 = crt.constant : () -> tensor<2xi64>
    %244 = crt.reshape %21, %243 : (tensor<64x256x1x1xf32>, tensor<2xi64>) -> tensor<64x256xf32>
    %245 = crt.matmul %244, %242 : (tensor<64x256xf32>, tensor<8x256x1225xf32>) -> tensor<8x64x1225xf32>
    %246 = crt.constant : () -> tensor<1x64x1xf32>
    %247 = crt.add %245, %246 : (tensor<8x64x1225xf32>, tensor<1x64x1xf32>) -> tensor<8x64x1225xf32>
    %248 = crt.constant : () -> tensor<4xi64>
    %249 = crt.reshape %247, %248 : (tensor<8x64x1225xf32>, tensor<4xi64>) -> tensor<8x64x35x35xf32>
    %250 = crt.relu %249 : (tensor<8x64x35x35xf32>) -> tensor<8x64x35x35xf32>
    %251 = crt.constant : () -> tensor<3xi64>
    %252 = crt.reshape %240, %251 : (tensor<8x256x35x35xf32>, tensor<3xi64>) -> tensor<8x256x1225xf32>
    %253 = crt.constant : () -> tensor<2xi64>
    %254 = crt.reshape %22, %253 : (tensor<48x256x1x1xf32>, tensor<2xi64>) -> tensor<48x256xf32>
    %255 = crt.matmul %254, %252 : (tensor<48x256xf32>, tensor<8x256x1225xf32>) -> tensor<8x48x1225xf32>
    %256 = crt.constant : () -> tensor<1x48x1xf32>
    %257 = crt.add %255, %256 : (tensor<8x48x1225xf32>, tensor<1x48x1xf32>) -> tensor<8x48x1225xf32>
    %258 = crt.constant : () -> tensor<4xi64>
    %259 = crt.reshape %257, %258 : (tensor<8x48x1225xf32>, tensor<4xi64>) -> tensor<8x48x35x35xf32>
    %260 = crt.relu %259 : (tensor<8x48x35x35xf32>) -> tensor<8x48x35x35xf32>
    %261 = crt.convadd %260, %23, %24 : (tensor<8x48x35x35xf32>, tensor<64x48x5x5xf32>, tensor<64xf32>) -> tensor<8x64x35x35xf32>
    %262 = crt.relu %261 : (tensor<8x64x35x35xf32>) -> tensor<8x64x35x35xf32>
    %263 = crt.constant : () -> tensor<3xi64>
    %264 = crt.reshape %240, %263 : (tensor<8x256x35x35xf32>, tensor<3xi64>) -> tensor<8x256x1225xf32>
    %265 = crt.constant : () -> tensor<2xi64>
    %266 = crt.reshape %25, %265 : (tensor<64x256x1x1xf32>, tensor<2xi64>) -> tensor<64x256xf32>
    %267 = crt.matmul %266, %264 : (tensor<64x256xf32>, tensor<8x256x1225xf32>) -> tensor<8x64x1225xf32>
    %268 = crt.constant : () -> tensor<1x64x1xf32>
    %269 = crt.add %267, %268 : (tensor<8x64x1225xf32>, tensor<1x64x1xf32>) -> tensor<8x64x1225xf32>
    %270 = crt.constant : () -> tensor<4xi64>
    %271 = crt.reshape %269, %270 : (tensor<8x64x1225xf32>, tensor<4xi64>) -> tensor<8x64x35x35xf32>
    %272 = crt.relu %271 : (tensor<8x64x35x35xf32>) -> tensor<8x64x35x35xf32>
    %273 = crt.convadd %272, %26, %27 : (tensor<8x64x35x35xf32>, tensor<96x64x3x3xf32>, tensor<96xf32>) -> tensor<8x96x35x35xf32>
    %274 = crt.relu %273 : (tensor<8x96x35x35xf32>) -> tensor<8x96x35x35xf32>
    %275 = crt.convadd %274, %28, %29 : (tensor<8x96x35x35xf32>, tensor<96x96x3x3xf32>, tensor<96xf32>) -> tensor<8x96x35x35xf32>
    %276 = crt.relu %275 : (tensor<8x96x35x35xf32>) -> tensor<8x96x35x35xf32>
    %277 = crt.avgpool %240 : (tensor<8x256x35x35xf32>) -> tensor<8x256x35x35xf32>
    %278 = crt.constant : () -> tensor<3xi64>
    %279 = crt.reshape %277, %278 : (tensor<8x256x35x35xf32>, tensor<3xi64>) -> tensor<8x256x1225xf32>
    %280 = crt.constant : () -> tensor<2xi64>
    %281 = crt.reshape %30, %280 : (tensor<64x256x1x1xf32>, tensor<2xi64>) -> tensor<64x256xf32>
    %282 = crt.matmul %281, %279 : (tensor<64x256xf32>, tensor<8x256x1225xf32>) -> tensor<8x64x1225xf32>
    %283 = crt.constant : () -> tensor<1x64x1xf32>
    %284 = crt.add %282, %283 : (tensor<8x64x1225xf32>, tensor<1x64x1xf32>) -> tensor<8x64x1225xf32>
    %285 = crt.constant : () -> tensor<4xi64>
    %286 = crt.reshape %284, %285 : (tensor<8x64x1225xf32>, tensor<4xi64>) -> tensor<8x64x35x35xf32>
    %287 = crt.relu %286 : (tensor<8x64x35x35xf32>) -> tensor<8x64x35x35xf32>
    %288 = crt.concat %250, %262, %276, %287 : (tensor<8x64x35x35xf32>, tensor<8x64x35x35xf32>, tensor<8x96x35x35xf32>, tensor<8x64x35x35xf32>) -> tensor<8x288x35x35xf32>
    %289 = crt.constant : () -> tensor<3xi64>
    %290 = crt.reshape %288, %289 : (tensor<8x288x35x35xf32>, tensor<3xi64>) -> tensor<8x288x1225xf32>
    %291 = crt.constant : () -> tensor<2xi64>
    %292 = crt.reshape %31, %291 : (tensor<64x288x1x1xf32>, tensor<2xi64>) -> tensor<64x288xf32>
    %293 = crt.matmul %292, %290 : (tensor<64x288xf32>, tensor<8x288x1225xf32>) -> tensor<8x64x1225xf32>
    %294 = crt.constant : () -> tensor<1x64x1xf32>
    %295 = crt.add %293, %294 : (tensor<8x64x1225xf32>, tensor<1x64x1xf32>) -> tensor<8x64x1225xf32>
    %296 = crt.constant : () -> tensor<4xi64>
    %297 = crt.reshape %295, %296 : (tensor<8x64x1225xf32>, tensor<4xi64>) -> tensor<8x64x35x35xf32>
    %298 = crt.relu %297 : (tensor<8x64x35x35xf32>) -> tensor<8x64x35x35xf32>
    %299 = crt.constant : () -> tensor<3xi64>
    %300 = crt.reshape %288, %299 : (tensor<8x288x35x35xf32>, tensor<3xi64>) -> tensor<8x288x1225xf32>
    %301 = crt.constant : () -> tensor<2xi64>
    %302 = crt.reshape %32, %301 : (tensor<48x288x1x1xf32>, tensor<2xi64>) -> tensor<48x288xf32>
    %303 = crt.matmul %302, %300 : (tensor<48x288xf32>, tensor<8x288x1225xf32>) -> tensor<8x48x1225xf32>
    %304 = crt.constant : () -> tensor<1x48x1xf32>
    %305 = crt.add %303, %304 : (tensor<8x48x1225xf32>, tensor<1x48x1xf32>) -> tensor<8x48x1225xf32>
    %306 = crt.constant : () -> tensor<4xi64>
    %307 = crt.reshape %305, %306 : (tensor<8x48x1225xf32>, tensor<4xi64>) -> tensor<8x48x35x35xf32>
    %308 = crt.relu %307 : (tensor<8x48x35x35xf32>) -> tensor<8x48x35x35xf32>
    %309 = crt.convadd %308, %33, %34 : (tensor<8x48x35x35xf32>, tensor<64x48x5x5xf32>, tensor<64xf32>) -> tensor<8x64x35x35xf32>
    %310 = crt.relu %309 : (tensor<8x64x35x35xf32>) -> tensor<8x64x35x35xf32>
    %311 = crt.constant : () -> tensor<3xi64>
    %312 = crt.reshape %288, %311 : (tensor<8x288x35x35xf32>, tensor<3xi64>) -> tensor<8x288x1225xf32>
    %313 = crt.constant : () -> tensor<2xi64>
    %314 = crt.reshape %35, %313 : (tensor<64x288x1x1xf32>, tensor<2xi64>) -> tensor<64x288xf32>
    %315 = crt.matmul %314, %312 : (tensor<64x288xf32>, tensor<8x288x1225xf32>) -> tensor<8x64x1225xf32>
    %316 = crt.constant : () -> tensor<1x64x1xf32>
    %317 = crt.add %315, %316 : (tensor<8x64x1225xf32>, tensor<1x64x1xf32>) -> tensor<8x64x1225xf32>
    %318 = crt.constant : () -> tensor<4xi64>
    %319 = crt.reshape %317, %318 : (tensor<8x64x1225xf32>, tensor<4xi64>) -> tensor<8x64x35x35xf32>
    %320 = crt.relu %319 : (tensor<8x64x35x35xf32>) -> tensor<8x64x35x35xf32>
    %321 = crt.convadd %320, %36, %37 : (tensor<8x64x35x35xf32>, tensor<96x64x3x3xf32>, tensor<96xf32>) -> tensor<8x96x35x35xf32>
    %322 = crt.relu %321 : (tensor<8x96x35x35xf32>) -> tensor<8x96x35x35xf32>
    %323 = crt.convadd %322, %38, %39 : (tensor<8x96x35x35xf32>, tensor<96x96x3x3xf32>, tensor<96xf32>) -> tensor<8x96x35x35xf32>
    %324 = crt.relu %323 : (tensor<8x96x35x35xf32>) -> tensor<8x96x35x35xf32>
    %325 = crt.avgpool %288 : (tensor<8x288x35x35xf32>) -> tensor<8x288x35x35xf32>
    %326 = crt.constant : () -> tensor<3xi64>
    %327 = crt.reshape %325, %326 : (tensor<8x288x35x35xf32>, tensor<3xi64>) -> tensor<8x288x1225xf32>
    %328 = crt.constant : () -> tensor<2xi64>
    %329 = crt.reshape %40, %328 : (tensor<64x288x1x1xf32>, tensor<2xi64>) -> tensor<64x288xf32>
    %330 = crt.matmul %329, %327 : (tensor<64x288xf32>, tensor<8x288x1225xf32>) -> tensor<8x64x1225xf32>
    %331 = crt.constant : () -> tensor<1x64x1xf32>
    %332 = crt.add %330, %331 : (tensor<8x64x1225xf32>, tensor<1x64x1xf32>) -> tensor<8x64x1225xf32>
    %333 = crt.constant : () -> tensor<4xi64>
    %334 = crt.reshape %332, %333 : (tensor<8x64x1225xf32>, tensor<4xi64>) -> tensor<8x64x35x35xf32>
    %335 = crt.relu %334 : (tensor<8x64x35x35xf32>) -> tensor<8x64x35x35xf32>
    %336 = crt.concat %298, %310, %324, %335 : (tensor<8x64x35x35xf32>, tensor<8x64x35x35xf32>, tensor<8x96x35x35xf32>, tensor<8x64x35x35xf32>) -> tensor<8x288x35x35xf32>
    %337 = crt.convadd %336, %41, %42 : (tensor<8x288x35x35xf32>, tensor<384x288x3x3xf32>, tensor<384xf32>) -> tensor<8x384x17x17xf32>
    %338 = crt.relu %337 : (tensor<8x384x17x17xf32>) -> tensor<8x384x17x17xf32>
    %339 = crt.constant : () -> tensor<3xi64>
    %340 = crt.reshape %336, %339 : (tensor<8x288x35x35xf32>, tensor<3xi64>) -> tensor<8x288x1225xf32>
    %341 = crt.constant : () -> tensor<2xi64>
    %342 = crt.reshape %43, %341 : (tensor<64x288x1x1xf32>, tensor<2xi64>) -> tensor<64x288xf32>
    %343 = crt.matmul %342, %340 : (tensor<64x288xf32>, tensor<8x288x1225xf32>) -> tensor<8x64x1225xf32>
    %344 = crt.constant : () -> tensor<1x64x1xf32>
    %345 = crt.add %343, %344 : (tensor<8x64x1225xf32>, tensor<1x64x1xf32>) -> tensor<8x64x1225xf32>
    %346 = crt.constant : () -> tensor<4xi64>
    %347 = crt.reshape %345, %346 : (tensor<8x64x1225xf32>, tensor<4xi64>) -> tensor<8x64x35x35xf32>
    %348 = crt.relu %347 : (tensor<8x64x35x35xf32>) -> tensor<8x64x35x35xf32>
    %349 = crt.convadd %348, %44, %45 : (tensor<8x64x35x35xf32>, tensor<96x64x3x3xf32>, tensor<96xf32>) -> tensor<8x96x35x35xf32>
    %350 = crt.relu %349 : (tensor<8x96x35x35xf32>) -> tensor<8x96x35x35xf32>
    %351 = crt.convadd %350, %46, %47 : (tensor<8x96x35x35xf32>, tensor<96x96x3x3xf32>, tensor<96xf32>) -> tensor<8x96x17x17xf32>
    %352 = crt.relu %351 : (tensor<8x96x17x17xf32>) -> tensor<8x96x17x17xf32>
    %353 = crt.maxpool %336 : (tensor<8x288x35x35xf32>) -> tensor<8x288x17x17xf32>
    %354 = crt.concat %338, %352, %353 : (tensor<8x384x17x17xf32>, tensor<8x96x17x17xf32>, tensor<8x288x17x17xf32>) -> tensor<8x768x17x17xf32>
    %355 = crt.constant : () -> tensor<3xi64>
    %356 = crt.reshape %354, %355 : (tensor<8x768x17x17xf32>, tensor<3xi64>) -> tensor<8x768x289xf32>
    %357 = crt.constant : () -> tensor<2xi64>
    %358 = crt.reshape %48, %357 : (tensor<192x768x1x1xf32>, tensor<2xi64>) -> tensor<192x768xf32>
    %359 = crt.matmul %358, %356 : (tensor<192x768xf32>, tensor<8x768x289xf32>) -> tensor<8x192x289xf32>
    %360 = crt.constant : () -> tensor<1x192x1xf32>
    %361 = crt.add %359, %360 : (tensor<8x192x289xf32>, tensor<1x192x1xf32>) -> tensor<8x192x289xf32>
    %362 = crt.constant : () -> tensor<4xi64>
    %363 = crt.reshape %361, %362 : (tensor<8x192x289xf32>, tensor<4xi64>) -> tensor<8x192x17x17xf32>
    %364 = crt.relu %363 : (tensor<8x192x17x17xf32>) -> tensor<8x192x17x17xf32>
    %365 = crt.constant : () -> tensor<3xi64>
    %366 = crt.reshape %354, %365 : (tensor<8x768x17x17xf32>, tensor<3xi64>) -> tensor<8x768x289xf32>
    %367 = crt.constant : () -> tensor<2xi64>
    %368 = crt.reshape %49, %367 : (tensor<128x768x1x1xf32>, tensor<2xi64>) -> tensor<128x768xf32>
    %369 = crt.matmul %368, %366 : (tensor<128x768xf32>, tensor<8x768x289xf32>) -> tensor<8x128x289xf32>
    %370 = crt.constant : () -> tensor<1x128x1xf32>
    %371 = crt.add %369, %370 : (tensor<8x128x289xf32>, tensor<1x128x1xf32>) -> tensor<8x128x289xf32>
    %372 = crt.constant : () -> tensor<4xi64>
    %373 = crt.reshape %371, %372 : (tensor<8x128x289xf32>, tensor<4xi64>) -> tensor<8x128x17x17xf32>
    %374 = crt.relu %373 : (tensor<8x128x17x17xf32>) -> tensor<8x128x17x17xf32>
    %375 = crt.convadd %374, %50, %51 : (tensor<8x128x17x17xf32>, tensor<128x128x1x7xf32>, tensor<128xf32>) -> tensor<8x128x17x17xf32>
    %376 = crt.relu %375 : (tensor<8x128x17x17xf32>) -> tensor<8x128x17x17xf32>
    %377 = crt.convadd %376, %52, %53 : (tensor<8x128x17x17xf32>, tensor<192x128x7x1xf32>, tensor<192xf32>) -> tensor<8x192x17x17xf32>
    %378 = crt.relu %377 : (tensor<8x192x17x17xf32>) -> tensor<8x192x17x17xf32>
    %379 = crt.constant : () -> tensor<3xi64>
    %380 = crt.reshape %354, %379 : (tensor<8x768x17x17xf32>, tensor<3xi64>) -> tensor<8x768x289xf32>
    %381 = crt.constant : () -> tensor<2xi64>
    %382 = crt.reshape %54, %381 : (tensor<128x768x1x1xf32>, tensor<2xi64>) -> tensor<128x768xf32>
    %383 = crt.matmul %382, %380 : (tensor<128x768xf32>, tensor<8x768x289xf32>) -> tensor<8x128x289xf32>
    %384 = crt.constant : () -> tensor<1x128x1xf32>
    %385 = crt.add %383, %384 : (tensor<8x128x289xf32>, tensor<1x128x1xf32>) -> tensor<8x128x289xf32>
    %386 = crt.constant : () -> tensor<4xi64>
    %387 = crt.reshape %385, %386 : (tensor<8x128x289xf32>, tensor<4xi64>) -> tensor<8x128x17x17xf32>
    %388 = crt.relu %387 : (tensor<8x128x17x17xf32>) -> tensor<8x128x17x17xf32>
    %389 = crt.convadd %388, %55, %56 : (tensor<8x128x17x17xf32>, tensor<128x128x7x1xf32>, tensor<128xf32>) -> tensor<8x128x17x17xf32>
    %390 = crt.relu %389 : (tensor<8x128x17x17xf32>) -> tensor<8x128x17x17xf32>
    %391 = crt.convadd %390, %57, %58 : (tensor<8x128x17x17xf32>, tensor<128x128x1x7xf32>, tensor<128xf32>) -> tensor<8x128x17x17xf32>
    %392 = crt.relu %391 : (tensor<8x128x17x17xf32>) -> tensor<8x128x17x17xf32>
    %393 = crt.convadd %392, %59, %60 : (tensor<8x128x17x17xf32>, tensor<128x128x7x1xf32>, tensor<128xf32>) -> tensor<8x128x17x17xf32>
    %394 = crt.relu %393 : (tensor<8x128x17x17xf32>) -> tensor<8x128x17x17xf32>
    %395 = crt.convadd %394, %61, %62 : (tensor<8x128x17x17xf32>, tensor<192x128x1x7xf32>, tensor<192xf32>) -> tensor<8x192x17x17xf32>
    %396 = crt.relu %395 : (tensor<8x192x17x17xf32>) -> tensor<8x192x17x17xf32>
    %397 = crt.avgpool %354 : (tensor<8x768x17x17xf32>) -> tensor<8x768x17x17xf32>
    %398 = crt.constant : () -> tensor<3xi64>
    %399 = crt.reshape %397, %398 : (tensor<8x768x17x17xf32>, tensor<3xi64>) -> tensor<8x768x289xf32>
    %400 = crt.constant : () -> tensor<2xi64>
    %401 = crt.reshape %63, %400 : (tensor<192x768x1x1xf32>, tensor<2xi64>) -> tensor<192x768xf32>
    %402 = crt.matmul %401, %399 : (tensor<192x768xf32>, tensor<8x768x289xf32>) -> tensor<8x192x289xf32>
    %403 = crt.constant : () -> tensor<1x192x1xf32>
    %404 = crt.add %402, %403 : (tensor<8x192x289xf32>, tensor<1x192x1xf32>) -> tensor<8x192x289xf32>
    %405 = crt.constant : () -> tensor<4xi64>
    %406 = crt.reshape %404, %405 : (tensor<8x192x289xf32>, tensor<4xi64>) -> tensor<8x192x17x17xf32>
    %407 = crt.relu %406 : (tensor<8x192x17x17xf32>) -> tensor<8x192x17x17xf32>
    %408 = crt.concat %364, %378, %396, %407 : (tensor<8x192x17x17xf32>, tensor<8x192x17x17xf32>, tensor<8x192x17x17xf32>, tensor<8x192x17x17xf32>) -> tensor<8x768x17x17xf32>
    %409 = crt.constant : () -> tensor<3xi64>
    %410 = crt.reshape %408, %409 : (tensor<8x768x17x17xf32>, tensor<3xi64>) -> tensor<8x768x289xf32>
    %411 = crt.constant : () -> tensor<2xi64>
    %412 = crt.reshape %64, %411 : (tensor<192x768x1x1xf32>, tensor<2xi64>) -> tensor<192x768xf32>
    %413 = crt.matmul %412, %410 : (tensor<192x768xf32>, tensor<8x768x289xf32>) -> tensor<8x192x289xf32>
    %414 = crt.constant : () -> tensor<1x192x1xf32>
    %415 = crt.add %413, %414 : (tensor<8x192x289xf32>, tensor<1x192x1xf32>) -> tensor<8x192x289xf32>
    %416 = crt.constant : () -> tensor<4xi64>
    %417 = crt.reshape %415, %416 : (tensor<8x192x289xf32>, tensor<4xi64>) -> tensor<8x192x17x17xf32>
    %418 = crt.relu %417 : (tensor<8x192x17x17xf32>) -> tensor<8x192x17x17xf32>
    %419 = crt.constant : () -> tensor<3xi64>
    %420 = crt.reshape %408, %419 : (tensor<8x768x17x17xf32>, tensor<3xi64>) -> tensor<8x768x289xf32>
    %421 = crt.constant : () -> tensor<2xi64>
    %422 = crt.reshape %65, %421 : (tensor<160x768x1x1xf32>, tensor<2xi64>) -> tensor<160x768xf32>
    %423 = crt.matmul %422, %420 : (tensor<160x768xf32>, tensor<8x768x289xf32>) -> tensor<8x160x289xf32>
    %424 = crt.constant : () -> tensor<1x160x1xf32>
    %425 = crt.add %423, %424 : (tensor<8x160x289xf32>, tensor<1x160x1xf32>) -> tensor<8x160x289xf32>
    %426 = crt.constant : () -> tensor<4xi64>
    %427 = crt.reshape %425, %426 : (tensor<8x160x289xf32>, tensor<4xi64>) -> tensor<8x160x17x17xf32>
    %428 = crt.relu %427 : (tensor<8x160x17x17xf32>) -> tensor<8x160x17x17xf32>
    %429 = crt.convadd %428, %66, %67 : (tensor<8x160x17x17xf32>, tensor<160x160x1x7xf32>, tensor<160xf32>) -> tensor<8x160x17x17xf32>
    %430 = crt.relu %429 : (tensor<8x160x17x17xf32>) -> tensor<8x160x17x17xf32>
    %431 = crt.convadd %430, %68, %69 : (tensor<8x160x17x17xf32>, tensor<192x160x7x1xf32>, tensor<192xf32>) -> tensor<8x192x17x17xf32>
    %432 = crt.relu %431 : (tensor<8x192x17x17xf32>) -> tensor<8x192x17x17xf32>
    %433 = crt.constant : () -> tensor<3xi64>
    %434 = crt.reshape %408, %433 : (tensor<8x768x17x17xf32>, tensor<3xi64>) -> tensor<8x768x289xf32>
    %435 = crt.constant : () -> tensor<2xi64>
    %436 = crt.reshape %70, %435 : (tensor<160x768x1x1xf32>, tensor<2xi64>) -> tensor<160x768xf32>
    %437 = crt.matmul %436, %434 : (tensor<160x768xf32>, tensor<8x768x289xf32>) -> tensor<8x160x289xf32>
    %438 = crt.constant : () -> tensor<1x160x1xf32>
    %439 = crt.add %437, %438 : (tensor<8x160x289xf32>, tensor<1x160x1xf32>) -> tensor<8x160x289xf32>
    %440 = crt.constant : () -> tensor<4xi64>
    %441 = crt.reshape %439, %440 : (tensor<8x160x289xf32>, tensor<4xi64>) -> tensor<8x160x17x17xf32>
    %442 = crt.relu %441 : (tensor<8x160x17x17xf32>) -> tensor<8x160x17x17xf32>
    %443 = crt.convadd %442, %71, %72 : (tensor<8x160x17x17xf32>, tensor<160x160x7x1xf32>, tensor<160xf32>) -> tensor<8x160x17x17xf32>
    %444 = crt.relu %443 : (tensor<8x160x17x17xf32>) -> tensor<8x160x17x17xf32>
    %445 = crt.convadd %444, %73, %74 : (tensor<8x160x17x17xf32>, tensor<160x160x1x7xf32>, tensor<160xf32>) -> tensor<8x160x17x17xf32>
    %446 = crt.relu %445 : (tensor<8x160x17x17xf32>) -> tensor<8x160x17x17xf32>
    %447 = crt.convadd %446, %75, %76 : (tensor<8x160x17x17xf32>, tensor<160x160x7x1xf32>, tensor<160xf32>) -> tensor<8x160x17x17xf32>
    %448 = crt.relu %447 : (tensor<8x160x17x17xf32>) -> tensor<8x160x17x17xf32>
    %449 = crt.convadd %448, %77, %78 : (tensor<8x160x17x17xf32>, tensor<192x160x1x7xf32>, tensor<192xf32>) -> tensor<8x192x17x17xf32>
    %450 = crt.relu %449 : (tensor<8x192x17x17xf32>) -> tensor<8x192x17x17xf32>
    %451 = crt.avgpool %408 : (tensor<8x768x17x17xf32>) -> tensor<8x768x17x17xf32>
    %452 = crt.constant : () -> tensor<3xi64>
    %453 = crt.reshape %451, %452 : (tensor<8x768x17x17xf32>, tensor<3xi64>) -> tensor<8x768x289xf32>
    %454 = crt.constant : () -> tensor<2xi64>
    %455 = crt.reshape %79, %454 : (tensor<192x768x1x1xf32>, tensor<2xi64>) -> tensor<192x768xf32>
    %456 = crt.matmul %455, %453 : (tensor<192x768xf32>, tensor<8x768x289xf32>) -> tensor<8x192x289xf32>
    %457 = crt.constant : () -> tensor<1x192x1xf32>
    %458 = crt.add %456, %457 : (tensor<8x192x289xf32>, tensor<1x192x1xf32>) -> tensor<8x192x289xf32>
    %459 = crt.constant : () -> tensor<4xi64>
    %460 = crt.reshape %458, %459 : (tensor<8x192x289xf32>, tensor<4xi64>) -> tensor<8x192x17x17xf32>
    %461 = crt.relu %460 : (tensor<8x192x17x17xf32>) -> tensor<8x192x17x17xf32>
    %462 = crt.concat %418, %432, %450, %461 : (tensor<8x192x17x17xf32>, tensor<8x192x17x17xf32>, tensor<8x192x17x17xf32>, tensor<8x192x17x17xf32>) -> tensor<8x768x17x17xf32>
    %463 = crt.constant : () -> tensor<3xi64>
    %464 = crt.reshape %462, %463 : (tensor<8x768x17x17xf32>, tensor<3xi64>) -> tensor<8x768x289xf32>
    %465 = crt.constant : () -> tensor<2xi64>
    %466 = crt.reshape %80, %465 : (tensor<192x768x1x1xf32>, tensor<2xi64>) -> tensor<192x768xf32>
    %467 = crt.matmul %466, %464 : (tensor<192x768xf32>, tensor<8x768x289xf32>) -> tensor<8x192x289xf32>
    %468 = crt.constant : () -> tensor<1x192x1xf32>
    %469 = crt.add %467, %468 : (tensor<8x192x289xf32>, tensor<1x192x1xf32>) -> tensor<8x192x289xf32>
    %470 = crt.constant : () -> tensor<4xi64>
    %471 = crt.reshape %469, %470 : (tensor<8x192x289xf32>, tensor<4xi64>) -> tensor<8x192x17x17xf32>
    %472 = crt.relu %471 : (tensor<8x192x17x17xf32>) -> tensor<8x192x17x17xf32>
    %473 = crt.constant : () -> tensor<3xi64>
    %474 = crt.reshape %462, %473 : (tensor<8x768x17x17xf32>, tensor<3xi64>) -> tensor<8x768x289xf32>
    %475 = crt.constant : () -> tensor<2xi64>
    %476 = crt.reshape %81, %475 : (tensor<160x768x1x1xf32>, tensor<2xi64>) -> tensor<160x768xf32>
    %477 = crt.matmul %476, %474 : (tensor<160x768xf32>, tensor<8x768x289xf32>) -> tensor<8x160x289xf32>
    %478 = crt.constant : () -> tensor<1x160x1xf32>
    %479 = crt.add %477, %478 : (tensor<8x160x289xf32>, tensor<1x160x1xf32>) -> tensor<8x160x289xf32>
    %480 = crt.constant : () -> tensor<4xi64>
    %481 = crt.reshape %479, %480 : (tensor<8x160x289xf32>, tensor<4xi64>) -> tensor<8x160x17x17xf32>
    %482 = crt.relu %481 : (tensor<8x160x17x17xf32>) -> tensor<8x160x17x17xf32>
    %483 = crt.convadd %482, %82, %83 : (tensor<8x160x17x17xf32>, tensor<160x160x1x7xf32>, tensor<160xf32>) -> tensor<8x160x17x17xf32>
    %484 = crt.relu %483 : (tensor<8x160x17x17xf32>) -> tensor<8x160x17x17xf32>
    %485 = crt.convadd %484, %84, %85 : (tensor<8x160x17x17xf32>, tensor<192x160x7x1xf32>, tensor<192xf32>) -> tensor<8x192x17x17xf32>
    %486 = crt.relu %485 : (tensor<8x192x17x17xf32>) -> tensor<8x192x17x17xf32>
    %487 = crt.constant : () -> tensor<3xi64>
    %488 = crt.reshape %462, %487 : (tensor<8x768x17x17xf32>, tensor<3xi64>) -> tensor<8x768x289xf32>
    %489 = crt.constant : () -> tensor<2xi64>
    %490 = crt.reshape %86, %489 : (tensor<160x768x1x1xf32>, tensor<2xi64>) -> tensor<160x768xf32>
    %491 = crt.matmul %490, %488 : (tensor<160x768xf32>, tensor<8x768x289xf32>) -> tensor<8x160x289xf32>
    %492 = crt.constant : () -> tensor<1x160x1xf32>
    %493 = crt.add %491, %492 : (tensor<8x160x289xf32>, tensor<1x160x1xf32>) -> tensor<8x160x289xf32>
    %494 = crt.constant : () -> tensor<4xi64>
    %495 = crt.reshape %493, %494 : (tensor<8x160x289xf32>, tensor<4xi64>) -> tensor<8x160x17x17xf32>
    %496 = crt.relu %495 : (tensor<8x160x17x17xf32>) -> tensor<8x160x17x17xf32>
    %497 = crt.convadd %496, %87, %88 : (tensor<8x160x17x17xf32>, tensor<160x160x7x1xf32>, tensor<160xf32>) -> tensor<8x160x17x17xf32>
    %498 = crt.relu %497 : (tensor<8x160x17x17xf32>) -> tensor<8x160x17x17xf32>
    %499 = crt.convadd %498, %89, %90 : (tensor<8x160x17x17xf32>, tensor<160x160x1x7xf32>, tensor<160xf32>) -> tensor<8x160x17x17xf32>
    %500 = crt.relu %499 : (tensor<8x160x17x17xf32>) -> tensor<8x160x17x17xf32>
    %501 = crt.convadd %500, %91, %92 : (tensor<8x160x17x17xf32>, tensor<160x160x7x1xf32>, tensor<160xf32>) -> tensor<8x160x17x17xf32>
    %502 = crt.relu %501 : (tensor<8x160x17x17xf32>) -> tensor<8x160x17x17xf32>
    %503 = crt.convadd %502, %93, %94 : (tensor<8x160x17x17xf32>, tensor<192x160x1x7xf32>, tensor<192xf32>) -> tensor<8x192x17x17xf32>
    %504 = crt.relu %503 : (tensor<8x192x17x17xf32>) -> tensor<8x192x17x17xf32>
    %505 = crt.avgpool %462 : (tensor<8x768x17x17xf32>) -> tensor<8x768x17x17xf32>
    %506 = crt.constant : () -> tensor<3xi64>
    %507 = crt.reshape %505, %506 : (tensor<8x768x17x17xf32>, tensor<3xi64>) -> tensor<8x768x289xf32>
    %508 = crt.constant : () -> tensor<2xi64>
    %509 = crt.reshape %95, %508 : (tensor<192x768x1x1xf32>, tensor<2xi64>) -> tensor<192x768xf32>
    %510 = crt.matmul %509, %507 : (tensor<192x768xf32>, tensor<8x768x289xf32>) -> tensor<8x192x289xf32>
    %511 = crt.constant : () -> tensor<1x192x1xf32>
    %512 = crt.add %510, %511 : (tensor<8x192x289xf32>, tensor<1x192x1xf32>) -> tensor<8x192x289xf32>
    %513 = crt.constant : () -> tensor<4xi64>
    %514 = crt.reshape %512, %513 : (tensor<8x192x289xf32>, tensor<4xi64>) -> tensor<8x192x17x17xf32>
    %515 = crt.relu %514 : (tensor<8x192x17x17xf32>) -> tensor<8x192x17x17xf32>
    %516 = crt.concat %472, %486, %504, %515 : (tensor<8x192x17x17xf32>, tensor<8x192x17x17xf32>, tensor<8x192x17x17xf32>, tensor<8x192x17x17xf32>) -> tensor<8x768x17x17xf32>
    %517 = crt.constant : () -> tensor<3xi64>
    %518 = crt.reshape %516, %517 : (tensor<8x768x17x17xf32>, tensor<3xi64>) -> tensor<8x768x289xf32>
    %519 = crt.constant : () -> tensor<2xi64>
    %520 = crt.reshape %96, %519 : (tensor<192x768x1x1xf32>, tensor<2xi64>) -> tensor<192x768xf32>
    %521 = crt.matmul %520, %518 : (tensor<192x768xf32>, tensor<8x768x289xf32>) -> tensor<8x192x289xf32>
    %522 = crt.constant : () -> tensor<1x192x1xf32>
    %523 = crt.add %521, %522 : (tensor<8x192x289xf32>, tensor<1x192x1xf32>) -> tensor<8x192x289xf32>
    %524 = crt.constant : () -> tensor<4xi64>
    %525 = crt.reshape %523, %524 : (tensor<8x192x289xf32>, tensor<4xi64>) -> tensor<8x192x17x17xf32>
    %526 = crt.relu %525 : (tensor<8x192x17x17xf32>) -> tensor<8x192x17x17xf32>
    %527 = crt.constant : () -> tensor<3xi64>
    %528 = crt.reshape %516, %527 : (tensor<8x768x17x17xf32>, tensor<3xi64>) -> tensor<8x768x289xf32>
    %529 = crt.constant : () -> tensor<2xi64>
    %530 = crt.reshape %97, %529 : (tensor<192x768x1x1xf32>, tensor<2xi64>) -> tensor<192x768xf32>
    %531 = crt.matmul %530, %528 : (tensor<192x768xf32>, tensor<8x768x289xf32>) -> tensor<8x192x289xf32>
    %532 = crt.constant : () -> tensor<1x192x1xf32>
    %533 = crt.add %531, %532 : (tensor<8x192x289xf32>, tensor<1x192x1xf32>) -> tensor<8x192x289xf32>
    %534 = crt.constant : () -> tensor<4xi64>
    %535 = crt.reshape %533, %534 : (tensor<8x192x289xf32>, tensor<4xi64>) -> tensor<8x192x17x17xf32>
    %536 = crt.relu %535 : (tensor<8x192x17x17xf32>) -> tensor<8x192x17x17xf32>
    %537 = crt.convadd %536, %98, %99 : (tensor<8x192x17x17xf32>, tensor<192x192x1x7xf32>, tensor<192xf32>) -> tensor<8x192x17x17xf32>
    %538 = crt.relu %537 : (tensor<8x192x17x17xf32>) -> tensor<8x192x17x17xf32>
    %539 = crt.convadd %538, %100, %101 : (tensor<8x192x17x17xf32>, tensor<192x192x7x1xf32>, tensor<192xf32>) -> tensor<8x192x17x17xf32>
    %540 = crt.relu %539 : (tensor<8x192x17x17xf32>) -> tensor<8x192x17x17xf32>
    %541 = crt.constant : () -> tensor<3xi64>
    %542 = crt.reshape %516, %541 : (tensor<8x768x17x17xf32>, tensor<3xi64>) -> tensor<8x768x289xf32>
    %543 = crt.constant : () -> tensor<2xi64>
    %544 = crt.reshape %102, %543 : (tensor<192x768x1x1xf32>, tensor<2xi64>) -> tensor<192x768xf32>
    %545 = crt.matmul %544, %542 : (tensor<192x768xf32>, tensor<8x768x289xf32>) -> tensor<8x192x289xf32>
    %546 = crt.constant : () -> tensor<1x192x1xf32>
    %547 = crt.add %545, %546 : (tensor<8x192x289xf32>, tensor<1x192x1xf32>) -> tensor<8x192x289xf32>
    %548 = crt.constant : () -> tensor<4xi64>
    %549 = crt.reshape %547, %548 : (tensor<8x192x289xf32>, tensor<4xi64>) -> tensor<8x192x17x17xf32>
    %550 = crt.relu %549 : (tensor<8x192x17x17xf32>) -> tensor<8x192x17x17xf32>
    %551 = crt.convadd %550, %103, %104 : (tensor<8x192x17x17xf32>, tensor<192x192x7x1xf32>, tensor<192xf32>) -> tensor<8x192x17x17xf32>
    %552 = crt.relu %551 : (tensor<8x192x17x17xf32>) -> tensor<8x192x17x17xf32>
    %553 = crt.convadd %552, %105, %106 : (tensor<8x192x17x17xf32>, tensor<192x192x1x7xf32>, tensor<192xf32>) -> tensor<8x192x17x17xf32>
    %554 = crt.relu %553 : (tensor<8x192x17x17xf32>) -> tensor<8x192x17x17xf32>
    %555 = crt.convadd %554, %107, %108 : (tensor<8x192x17x17xf32>, tensor<192x192x7x1xf32>, tensor<192xf32>) -> tensor<8x192x17x17xf32>
    %556 = crt.relu %555 : (tensor<8x192x17x17xf32>) -> tensor<8x192x17x17xf32>
    %557 = crt.convadd %556, %109, %110 : (tensor<8x192x17x17xf32>, tensor<192x192x1x7xf32>, tensor<192xf32>) -> tensor<8x192x17x17xf32>
    %558 = crt.relu %557 : (tensor<8x192x17x17xf32>) -> tensor<8x192x17x17xf32>
    %559 = crt.avgpool %516 : (tensor<8x768x17x17xf32>) -> tensor<8x768x17x17xf32>
    %560 = crt.constant : () -> tensor<3xi64>
    %561 = crt.reshape %559, %560 : (tensor<8x768x17x17xf32>, tensor<3xi64>) -> tensor<8x768x289xf32>
    %562 = crt.constant : () -> tensor<2xi64>
    %563 = crt.reshape %111, %562 : (tensor<192x768x1x1xf32>, tensor<2xi64>) -> tensor<192x768xf32>
    %564 = crt.matmul %563, %561 : (tensor<192x768xf32>, tensor<8x768x289xf32>) -> tensor<8x192x289xf32>
    %565 = crt.constant : () -> tensor<1x192x1xf32>
    %566 = crt.add %564, %565 : (tensor<8x192x289xf32>, tensor<1x192x1xf32>) -> tensor<8x192x289xf32>
    %567 = crt.constant : () -> tensor<4xi64>
    %568 = crt.reshape %566, %567 : (tensor<8x192x289xf32>, tensor<4xi64>) -> tensor<8x192x17x17xf32>
    %569 = crt.relu %568 : (tensor<8x192x17x17xf32>) -> tensor<8x192x17x17xf32>
    %570 = crt.concat %526, %540, %558, %569 : (tensor<8x192x17x17xf32>, tensor<8x192x17x17xf32>, tensor<8x192x17x17xf32>, tensor<8x192x17x17xf32>) -> tensor<8x768x17x17xf32>
    %571 = crt.constant : () -> tensor<3xi64>
    %572 = crt.reshape %570, %571 : (tensor<8x768x17x17xf32>, tensor<3xi64>) -> tensor<8x768x289xf32>
    %573 = crt.constant : () -> tensor<2xi64>
    %574 = crt.reshape %112, %573 : (tensor<192x768x1x1xf32>, tensor<2xi64>) -> tensor<192x768xf32>
    %575 = crt.matmul %574, %572 : (tensor<192x768xf32>, tensor<8x768x289xf32>) -> tensor<8x192x289xf32>
    %576 = crt.constant : () -> tensor<1x192x1xf32>
    %577 = crt.add %575, %576 : (tensor<8x192x289xf32>, tensor<1x192x1xf32>) -> tensor<8x192x289xf32>
    %578 = crt.constant : () -> tensor<4xi64>
    %579 = crt.reshape %577, %578 : (tensor<8x192x289xf32>, tensor<4xi64>) -> tensor<8x192x17x17xf32>
    %580 = crt.relu %579 : (tensor<8x192x17x17xf32>) -> tensor<8x192x17x17xf32>
    %581 = crt.convadd %580, %113, %114 : (tensor<8x192x17x17xf32>, tensor<320x192x3x3xf32>, tensor<320xf32>) -> tensor<8x320x8x8xf32>
    %582 = crt.relu %581 : (tensor<8x320x8x8xf32>) -> tensor<8x320x8x8xf32>
    %583 = crt.constant : () -> tensor<3xi64>
    %584 = crt.reshape %570, %583 : (tensor<8x768x17x17xf32>, tensor<3xi64>) -> tensor<8x768x289xf32>
    %585 = crt.constant : () -> tensor<2xi64>
    %586 = crt.reshape %115, %585 : (tensor<192x768x1x1xf32>, tensor<2xi64>) -> tensor<192x768xf32>
    %587 = crt.matmul %586, %584 : (tensor<192x768xf32>, tensor<8x768x289xf32>) -> tensor<8x192x289xf32>
    %588 = crt.constant : () -> tensor<1x192x1xf32>
    %589 = crt.add %587, %588 : (tensor<8x192x289xf32>, tensor<1x192x1xf32>) -> tensor<8x192x289xf32>
    %590 = crt.constant : () -> tensor<4xi64>
    %591 = crt.reshape %589, %590 : (tensor<8x192x289xf32>, tensor<4xi64>) -> tensor<8x192x17x17xf32>
    %592 = crt.relu %591 : (tensor<8x192x17x17xf32>) -> tensor<8x192x17x17xf32>
    %593 = crt.convadd %592, %116, %117 : (tensor<8x192x17x17xf32>, tensor<192x192x1x7xf32>, tensor<192xf32>) -> tensor<8x192x17x17xf32>
    %594 = crt.relu %593 : (tensor<8x192x17x17xf32>) -> tensor<8x192x17x17xf32>
    %595 = crt.convadd %594, %118, %119 : (tensor<8x192x17x17xf32>, tensor<192x192x7x1xf32>, tensor<192xf32>) -> tensor<8x192x17x17xf32>
    %596 = crt.relu %595 : (tensor<8x192x17x17xf32>) -> tensor<8x192x17x17xf32>
    %597 = crt.convadd %596, %120, %121 : (tensor<8x192x17x17xf32>, tensor<192x192x3x3xf32>, tensor<192xf32>) -> tensor<8x192x8x8xf32>
    %598 = crt.relu %597 : (tensor<8x192x8x8xf32>) -> tensor<8x192x8x8xf32>
    %599 = crt.maxpool %570 : (tensor<8x768x17x17xf32>) -> tensor<8x768x8x8xf32>
    %600 = crt.concat %582, %598, %599 : (tensor<8x320x8x8xf32>, tensor<8x192x8x8xf32>, tensor<8x768x8x8xf32>) -> tensor<8x1280x8x8xf32>
    %601 = crt.constant : () -> tensor<3xi64>
    %602 = crt.reshape %600, %601 : (tensor<8x1280x8x8xf32>, tensor<3xi64>) -> tensor<8x1280x64xf32>
    %603 = crt.constant : () -> tensor<2xi64>
    %604 = crt.reshape %122, %603 : (tensor<320x1280x1x1xf32>, tensor<2xi64>) -> tensor<320x1280xf32>
    %605 = crt.matmul %604, %602 : (tensor<320x1280xf32>, tensor<8x1280x64xf32>) -> tensor<8x320x64xf32>
    %606 = crt.constant : () -> tensor<1x320x1xf32>
    %607 = crt.add %605, %606 : (tensor<8x320x64xf32>, tensor<1x320x1xf32>) -> tensor<8x320x64xf32>
    %608 = crt.constant : () -> tensor<4xi64>
    %609 = crt.reshape %607, %608 : (tensor<8x320x64xf32>, tensor<4xi64>) -> tensor<8x320x8x8xf32>
    %610 = crt.relu %609 : (tensor<8x320x8x8xf32>) -> tensor<8x320x8x8xf32>
    %611 = crt.constant : () -> tensor<3xi64>
    %612 = crt.reshape %600, %611 : (tensor<8x1280x8x8xf32>, tensor<3xi64>) -> tensor<8x1280x64xf32>
    %613 = crt.constant : () -> tensor<2xi64>
    %614 = crt.reshape %123, %613 : (tensor<384x1280x1x1xf32>, tensor<2xi64>) -> tensor<384x1280xf32>
    %615 = crt.matmul %614, %612 : (tensor<384x1280xf32>, tensor<8x1280x64xf32>) -> tensor<8x384x64xf32>
    %616 = crt.constant : () -> tensor<1x384x1xf32>
    %617 = crt.add %615, %616 : (tensor<8x384x64xf32>, tensor<1x384x1xf32>) -> tensor<8x384x64xf32>
    %618 = crt.constant : () -> tensor<4xi64>
    %619 = crt.reshape %617, %618 : (tensor<8x384x64xf32>, tensor<4xi64>) -> tensor<8x384x8x8xf32>
    %620 = crt.relu %619 : (tensor<8x384x8x8xf32>) -> tensor<8x384x8x8xf32>
    %621 = crt.convadd %620, %124, %125 : (tensor<8x384x8x8xf32>, tensor<384x384x1x3xf32>, tensor<384xf32>) -> tensor<8x384x8x8xf32>
    %622 = crt.relu %621 : (tensor<8x384x8x8xf32>) -> tensor<8x384x8x8xf32>
    %623 = crt.convadd %620, %126, %127 : (tensor<8x384x8x8xf32>, tensor<384x384x3x1xf32>, tensor<384xf32>) -> tensor<8x384x8x8xf32>
    %624 = crt.relu %623 : (tensor<8x384x8x8xf32>) -> tensor<8x384x8x8xf32>
    %625 = crt.constant : () -> tensor<3xi64>
    %626 = crt.reshape %600, %625 : (tensor<8x1280x8x8xf32>, tensor<3xi64>) -> tensor<8x1280x64xf32>
    %627 = crt.constant : () -> tensor<2xi64>
    %628 = crt.reshape %128, %627 : (tensor<448x1280x1x1xf32>, tensor<2xi64>) -> tensor<448x1280xf32>
    %629 = crt.matmul %628, %626 : (tensor<448x1280xf32>, tensor<8x1280x64xf32>) -> tensor<8x448x64xf32>
    %630 = crt.constant : () -> tensor<1x448x1xf32>
    %631 = crt.add %629, %630 : (tensor<8x448x64xf32>, tensor<1x448x1xf32>) -> tensor<8x448x64xf32>
    %632 = crt.constant : () -> tensor<4xi64>
    %633 = crt.reshape %631, %632 : (tensor<8x448x64xf32>, tensor<4xi64>) -> tensor<8x448x8x8xf32>
    %634 = crt.relu %633 : (tensor<8x448x8x8xf32>) -> tensor<8x448x8x8xf32>
    %635 = crt.convadd %634, %129, %130 : (tensor<8x448x8x8xf32>, tensor<384x448x3x3xf32>, tensor<384xf32>) -> tensor<8x384x8x8xf32>
    %636 = crt.relu %635 : (tensor<8x384x8x8xf32>) -> tensor<8x384x8x8xf32>
    %637 = crt.convadd %636, %131, %132 : (tensor<8x384x8x8xf32>, tensor<384x384x1x3xf32>, tensor<384xf32>) -> tensor<8x384x8x8xf32>
    %638 = crt.relu %637 : (tensor<8x384x8x8xf32>) -> tensor<8x384x8x8xf32>
    %639 = crt.convadd %636, %133, %134 : (tensor<8x384x8x8xf32>, tensor<384x384x3x1xf32>, tensor<384xf32>) -> tensor<8x384x8x8xf32>
    %640 = crt.relu %639 : (tensor<8x384x8x8xf32>) -> tensor<8x384x8x8xf32>
    %641 = crt.avgpool %600 : (tensor<8x1280x8x8xf32>) -> tensor<8x1280x8x8xf32>
    %642 = crt.constant : () -> tensor<3xi64>
    %643 = crt.reshape %641, %642 : (tensor<8x1280x8x8xf32>, tensor<3xi64>) -> tensor<8x1280x64xf32>
    %644 = crt.constant : () -> tensor<2xi64>
    %645 = crt.reshape %135, %644 : (tensor<192x1280x1x1xf32>, tensor<2xi64>) -> tensor<192x1280xf32>
    %646 = crt.matmul %645, %643 : (tensor<192x1280xf32>, tensor<8x1280x64xf32>) -> tensor<8x192x64xf32>
    %647 = crt.constant : () -> tensor<1x192x1xf32>
    %648 = crt.add %646, %647 : (tensor<8x192x64xf32>, tensor<1x192x1xf32>) -> tensor<8x192x64xf32>
    %649 = crt.constant : () -> tensor<4xi64>
    %650 = crt.reshape %648, %649 : (tensor<8x192x64xf32>, tensor<4xi64>) -> tensor<8x192x8x8xf32>
    %651 = crt.relu %650 : (tensor<8x192x8x8xf32>) -> tensor<8x192x8x8xf32>
    %652 = crt.concat %610, %622, %624, %638, %640, %651 : (tensor<8x320x8x8xf32>, tensor<8x384x8x8xf32>, tensor<8x384x8x8xf32>, tensor<8x384x8x8xf32>, tensor<8x384x8x8xf32>, tensor<8x192x8x8xf32>) -> tensor<8x2048x8x8xf32>
    %653 = crt.constant : () -> tensor<3xi64>
    %654 = crt.reshape %652, %653 : (tensor<8x2048x8x8xf32>, tensor<3xi64>) -> tensor<8x2048x64xf32>
    %655 = crt.constant : () -> tensor<2xi64>
    %656 = crt.reshape %136, %655 : (tensor<320x2048x1x1xf32>, tensor<2xi64>) -> tensor<320x2048xf32>
    %657 = crt.matmul %656, %654 : (tensor<320x2048xf32>, tensor<8x2048x64xf32>) -> tensor<8x320x64xf32>
    %658 = crt.constant : () -> tensor<1x320x1xf32>
    %659 = crt.add %657, %658 : (tensor<8x320x64xf32>, tensor<1x320x1xf32>) -> tensor<8x320x64xf32>
    %660 = crt.constant : () -> tensor<4xi64>
    %661 = crt.reshape %659, %660 : (tensor<8x320x64xf32>, tensor<4xi64>) -> tensor<8x320x8x8xf32>
    %662 = crt.relu %661 : (tensor<8x320x8x8xf32>) -> tensor<8x320x8x8xf32>
    %663 = crt.constant : () -> tensor<3xi64>
    %664 = crt.reshape %652, %663 : (tensor<8x2048x8x8xf32>, tensor<3xi64>) -> tensor<8x2048x64xf32>
    %665 = crt.constant : () -> tensor<2xi64>
    %666 = crt.reshape %137, %665 : (tensor<384x2048x1x1xf32>, tensor<2xi64>) -> tensor<384x2048xf32>
    %667 = crt.matmul %666, %664 : (tensor<384x2048xf32>, tensor<8x2048x64xf32>) -> tensor<8x384x64xf32>
    %668 = crt.constant : () -> tensor<1x384x1xf32>
    %669 = crt.add %667, %668 : (tensor<8x384x64xf32>, tensor<1x384x1xf32>) -> tensor<8x384x64xf32>
    %670 = crt.constant : () -> tensor<4xi64>
    %671 = crt.reshape %669, %670 : (tensor<8x384x64xf32>, tensor<4xi64>) -> tensor<8x384x8x8xf32>
    %672 = crt.relu %671 : (tensor<8x384x8x8xf32>) -> tensor<8x384x8x8xf32>
    %673 = crt.convadd %672, %138, %139 : (tensor<8x384x8x8xf32>, tensor<384x384x1x3xf32>, tensor<384xf32>) -> tensor<8x384x8x8xf32>
    %674 = crt.relu %673 : (tensor<8x384x8x8xf32>) -> tensor<8x384x8x8xf32>
    %675 = crt.convadd %672, %140, %141 : (tensor<8x384x8x8xf32>, tensor<384x384x3x1xf32>, tensor<384xf32>) -> tensor<8x384x8x8xf32>
    %676 = crt.relu %675 : (tensor<8x384x8x8xf32>) -> tensor<8x384x8x8xf32>
    %677 = crt.constant : () -> tensor<3xi64>
    %678 = crt.reshape %652, %677 : (tensor<8x2048x8x8xf32>, tensor<3xi64>) -> tensor<8x2048x64xf32>
    %679 = crt.constant : () -> tensor<2xi64>
    %680 = crt.reshape %142, %679 : (tensor<448x2048x1x1xf32>, tensor<2xi64>) -> tensor<448x2048xf32>
    %681 = crt.matmul %680, %678 : (tensor<448x2048xf32>, tensor<8x2048x64xf32>) -> tensor<8x448x64xf32>
    %682 = crt.constant : () -> tensor<1x448x1xf32>
    %683 = crt.add %681, %682 : (tensor<8x448x64xf32>, tensor<1x448x1xf32>) -> tensor<8x448x64xf32>
    %684 = crt.constant : () -> tensor<4xi64>
    %685 = crt.reshape %683, %684 : (tensor<8x448x64xf32>, tensor<4xi64>) -> tensor<8x448x8x8xf32>
    %686 = crt.relu %685 : (tensor<8x448x8x8xf32>) -> tensor<8x448x8x8xf32>
    %687 = crt.convadd %686, %143, %144 : (tensor<8x448x8x8xf32>, tensor<384x448x3x3xf32>, tensor<384xf32>) -> tensor<8x384x8x8xf32>
    %688 = crt.relu %687 : (tensor<8x384x8x8xf32>) -> tensor<8x384x8x8xf32>
    %689 = crt.convadd %688, %145, %146 : (tensor<8x384x8x8xf32>, tensor<384x384x1x3xf32>, tensor<384xf32>) -> tensor<8x384x8x8xf32>
    %690 = crt.relu %689 : (tensor<8x384x8x8xf32>) -> tensor<8x384x8x8xf32>
    %691 = crt.convadd %688, %147, %148 : (tensor<8x384x8x8xf32>, tensor<384x384x3x1xf32>, tensor<384xf32>) -> tensor<8x384x8x8xf32>
    %692 = crt.relu %691 : (tensor<8x384x8x8xf32>) -> tensor<8x384x8x8xf32>
    %693 = crt.avgpool %652 : (tensor<8x2048x8x8xf32>) -> tensor<8x2048x8x8xf32>
    %694 = crt.constant : () -> tensor<3xi64>
    %695 = crt.reshape %693, %694 : (tensor<8x2048x8x8xf32>, tensor<3xi64>) -> tensor<8x2048x64xf32>
    %696 = crt.constant : () -> tensor<2xi64>
    %697 = crt.reshape %149, %696 : (tensor<192x2048x1x1xf32>, tensor<2xi64>) -> tensor<192x2048xf32>
    %698 = crt.matmul %697, %695 : (tensor<192x2048xf32>, tensor<8x2048x64xf32>) -> tensor<8x192x64xf32>
    %699 = crt.constant : () -> tensor<1x192x1xf32>
    %700 = crt.add %698, %699 : (tensor<8x192x64xf32>, tensor<1x192x1xf32>) -> tensor<8x192x64xf32>
    %701 = crt.constant : () -> tensor<4xi64>
    %702 = crt.reshape %700, %701 : (tensor<8x192x64xf32>, tensor<4xi64>) -> tensor<8x192x8x8xf32>
    %703 = crt.relu %702 : (tensor<8x192x8x8xf32>) -> tensor<8x192x8x8xf32>
    %704 = crt.concat %662, %674, %676, %690, %692, %703 : (tensor<8x320x8x8xf32>, tensor<8x384x8x8xf32>, tensor<8x384x8x8xf32>, tensor<8x384x8x8xf32>, tensor<8x384x8x8xf32>, tensor<8x192x8x8xf32>) -> tensor<8x2048x8x8xf32>
    %705 = crt.reducemean %704 : (tensor<8x2048x8x8xf32>) -> tensor<8x2048x1x1xf32>
    %706 = crt.flatten %705 : (tensor<8x2048x1x1xf32>) -> tensor<8x2048xf32>
    %707 = crt.gemm %706, %0, %1 : (tensor<8x2048xf32>, tensor<1000x2048xf32>, tensor<1000xf32>) -> tensor<8x1000xf32>
    return %707 : tensor<8x1000xf32>
  }
  "onnx.EntryPoint"() {func = @main_graph} : () -> ()
}
