module attributes {llvm.data_layout = "e-m:e-p270:32:32-p271:32:32-p272:64:64-i64:64-f80:128-n8:16:32:64-S128", llvm.target_triple = "x86_64-unknown-linux-gnu"} {
  func.func @main_graph(%arg0: tensor<1x3x224x224xf32>) -> tensor<1x1000xf32> attributes {input_names = ["input"], output_names = ["output"]} {
    %0 = "onnx.Constant"() {value = dense_resource<__elided__> : tensor<1000x1280xf32>} : () -> tensor<1000x1280xf32>
    %1 = "onnx.Constant"() {value = dense_resource<__elided__> : tensor<1000xf32>} : () -> tensor<1000xf32>
    %2 = "onnx.Constant"() {value = dense_resource<__elided__> : tensor<32x3x3x3xf32>} : () -> tensor<32x3x3x3xf32>
    %3 = "onnx.Constant"() {value = dense<[… > : tensor<32xf32>} : () -> tensor<32xf32>
    %4 = "onnx.Constant"() {value = dense_resource<__elided__> : tensor<32x1x3x3xf32>} : () -> tensor<32x1x3x3xf32>
    %5 = "onnx.Constant"() {value = dense<[… > : tensor<32xf32>} : () -> tensor<32xf32>
    %6 = "onnx.Constant"() {value = dense_resource<__elided__> : tensor<16x32x1x1xf32>} : () -> tensor<16x32x1x1xf32>
    %7 = "onnx.Constant"() {value = dense_resource<__elided__> : tensor<96x16x1x1xf32>} : () -> tensor<96x16x1x1xf32>
    %8 = "onnx.Constant"() {value = dense_resource<__elided__> : tensor<96x1x3x3xf32>} : () -> tensor<96x1x3x3xf32>
    %9 = "onnx.Constant"() {value = dense<[… > : tensor<96xf32>} : () -> tensor<96xf32>
    %10 = "onnx.Constant"() {value = dense_resource<__elided__> : tensor<24x96x1x1xf32>} : () -> tensor<24x96x1x1xf32>
    %11 = "onnx.Constant"() {value = dense_resource<__elided__> : tensor<144x24x1x1xf32>} : () -> tensor<144x24x1x1xf32>
    %12 = "onnx.Constant"() {value = dense_resource<__elided__> : tensor<144x1x3x3xf32>} : () -> tensor<144x1x3x3xf32>
    %13 = "onnx.Constant"() {value = dense_resource<__elided__> : tensor<144xf32>} : () -> tensor<144xf32>
    %14 = "onnx.Constant"() {value = dense_resource<__elided__> : tensor<24x144x1x1xf32>} : () -> tensor<24x144x1x1xf32>
    %15 = "onnx.Constant"() {value = dense_resource<__elided__> : tensor<144x24x1x1xf32>} : () -> tensor<144x24x1x1xf32>
    %16 = "onnx.Constant"() {value = dense_resource<__elided__> : tensor<144x1x3x3xf32>} : () -> tensor<144x1x3x3xf32>
    %17 = "onnx.Constant"() {value = dense_resource<__elided__> : tensor<144xf32>} : () -> tensor<144xf32>
    %18 = "onnx.Constant"() {value = dense_resource<__elided__> : tensor<32x144x1x1xf32>} : () -> tensor<32x144x1x1xf32>
    %19 = "onnx.Constant"() {value = dense_resource<__elided__> : tensor<192x32x1x1xf32>} : () -> tensor<192x32x1x1xf32>
    %20 = "onnx.Constant"() {value = dense_resource<__elided__> : tensor<192x1x3x3xf32>} : () -> tensor<192x1x3x3xf32>
    %21 = "onnx.Constant"() {value = dense_resource<__elided__> : tensor<192xf32>} : () -> tensor<192xf32>
    %22 = "onnx.Constant"() {value = dense_resource<__elided__> : tensor<32x192x1x1xf32>} : () -> tensor<32x192x1x1xf32>
    %23 = "onnx.Constant"() {value = dense_resource<__elided__> : tensor<192x32x1x1xf32>} : () -> tensor<192x32x1x1xf32>
    %24 = "onnx.Constant"() {value = dense_resource<__elided__> : tensor<192x1x3x3xf32>} : () -> tensor<192x1x3x3xf32>
    %25 = "onnx.Constant"() {value = dense_resource<__elided__> : tensor<192xf32>} : () -> tensor<192xf32>
    %26 = "onnx.Constant"() {value = dense_resource<__elided__> : tensor<32x192x1x1xf32>} : () -> tensor<32x192x1x1xf32>
    %27 = "onnx.Constant"() {value = dense_resource<__elided__> : tensor<192x32x1x1xf32>} : () -> tensor<192x32x1x1xf32>
    %28 = "onnx.Constant"() {value = dense_resource<__elided__> : tensor<192x1x3x3xf32>} : () -> tensor<192x1x3x3xf32>
    %29 = "onnx.Constant"() {value = dense_resource<__elided__> : tensor<192xf32>} : () -> tensor<192xf32>
    %30 = "onnx.Constant"() {value = dense_resource<__elided__> : tensor<64x192x1x1xf32>} : () -> tensor<64x192x1x1xf32>
    %31 = "onnx.Constant"() {value = dense_resource<__elided__> : tensor<384x64x1x1xf32>} : () -> tensor<384x64x1x1xf32>
    %32 = "onnx.Constant"() {value = dense_resource<__elided__> : tensor<384x1x3x3xf32>} : () -> tensor<384x1x3x3xf32>
    %33 = "onnx.Constant"() {value = dense_resource<__elided__> : tensor<384xf32>} : () -> tensor<384xf32>
    %34 = "onnx.Constant"() {value = dense_resource<__elided__> : tensor<64x384x1x1xf32>} : () -> tensor<64x384x1x1xf32>
    %35 = "onnx.Constant"() {value = dense_resource<__elided__> : tensor<384x64x1x1xf32>} : () -> tensor<384x64x1x1xf32>
    %36 = "onnx.Constant"() {value = dense_resource<__elided__> : tensor<384x1x3x3xf32>} : () -> tensor<384x1x3x3xf32>
    %37 = "onnx.Constant"() {value = dense_resource<__elided__> : tensor<384xf32>} : () -> tensor<384xf32>
    %38 = "onnx.Constant"() {value = dense_resource<__elided__> : tensor<64x384x1x1xf32>} : () -> tensor<64x384x1x1xf32>
    %39 = "onnx.Constant"() {value = dense_resource<__elided__> : tensor<384x64x1x1xf32>} : () -> tensor<384x64x1x1xf32>
    %40 = "onnx.Constant"() {value = dense_resource<__elided__> : tensor<384x1x3x3xf32>} : () -> tensor<384x1x3x3xf32>
    %41 = "onnx.Constant"() {value = dense_resource<__elided__> : tensor<384xf32>} : () -> tensor<384xf32>
    %42 = "onnx.Constant"() {value = dense_resource<__elided__> : tensor<64x384x1x1xf32>} : () -> tensor<64x384x1x1xf32>
    %43 = "onnx.Constant"() {value = dense_resource<__elided__> : tensor<384x64x1x1xf32>} : () -> tensor<384x64x1x1xf32>
    %44 = "onnx.Constant"() {value = dense_resource<__elided__> : tensor<384x1x3x3xf32>} : () -> tensor<384x1x3x3xf32>
    %45 = "onnx.Constant"() {value = dense_resource<__elided__> : tensor<384xf32>} : () -> tensor<384xf32>
    %46 = "onnx.Constant"() {value = dense_resource<__elided__> : tensor<96x384x1x1xf32>} : () -> tensor<96x384x1x1xf32>
    %47 = "onnx.Constant"() {value = dense_resource<__elided__> : tensor<576x96x1x1xf32>} : () -> tensor<576x96x1x1xf32>
    %48 = "onnx.Constant"() {value = dense_resource<__elided__> : tensor<576x1x3x3xf32>} : () -> tensor<576x1x3x3xf32>
    %49 = "onnx.Constant"() {value = dense_resource<__elided__> : tensor<576xf32>} : () -> tensor<576xf32>
    %50 = "onnx.Constant"() {value = dense_resource<__elided__> : tensor<96x576x1x1xf32>} : () -> tensor<96x576x1x1xf32>
    %51 = "onnx.Constant"() {value = dense_resource<__elided__> : tensor<576x96x1x1xf32>} : () -> tensor<576x96x1x1xf32>
    %52 = "onnx.Constant"() {value = dense_resource<__elided__> : tensor<576x1x3x3xf32>} : () -> tensor<576x1x3x3xf32>
    %53 = "onnx.Constant"() {value = dense_resource<__elided__> : tensor<576xf32>} : () -> tensor<576xf32>
    %54 = "onnx.Constant"() {value = dense_resource<__elided__> : tensor<96x576x1x1xf32>} : () -> tensor<96x576x1x1xf32>
    %55 = "onnx.Constant"() {value = dense_resource<__elided__> : tensor<576x96x1x1xf32>} : () -> tensor<576x96x1x1xf32>
    %56 = "onnx.Constant"() {value = dense_resource<__elided__> : tensor<576x1x3x3xf32>} : () -> tensor<576x1x3x3xf32>
    %57 = "onnx.Constant"() {value = dense_resource<__elided__> : tensor<576xf32>} : () -> tensor<576xf32>
    %58 = "onnx.Constant"() {value = dense_resource<__elided__> : tensor<160x576x1x1xf32>} : () -> tensor<160x576x1x1xf32>
    %59 = "onnx.Constant"() {value = dense_resource<__elided__> : tensor<960x160x1x1xf32>} : () -> tensor<960x160x1x1xf32>
    %60 = "onnx.Constant"() {value = dense_resource<__elided__> : tensor<960x1x3x3xf32>} : () -> tensor<960x1x3x3xf32>
    %61 = "onnx.Constant"() {value = dense_resource<__elided__> : tensor<960xf32>} : () -> tensor<960xf32>
    %62 = "onnx.Constant"() {value = dense_resource<__elided__> : tensor<160x960x1x1xf32>} : () -> tensor<160x960x1x1xf32>
    %63 = "onnx.Constant"() {value = dense_resource<__elided__> : tensor<960x160x1x1xf32>} : () -> tensor<960x160x1x1xf32>
    %64 = "onnx.Constant"() {value = dense_resource<__elided__> : tensor<960x1x3x3xf32>} : () -> tensor<960x1x3x3xf32>
    %65 = "onnx.Constant"() {value = dense_resource<__elided__> : tensor<960xf32>} : () -> tensor<960xf32>
    %66 = "onnx.Constant"() {value = dense_resource<__elided__> : tensor<160x960x1x1xf32>} : () -> tensor<160x960x1x1xf32>
    %67 = "onnx.Constant"() {value = dense_resource<__elided__> : tensor<960x160x1x1xf32>} : () -> tensor<960x160x1x1xf32>
    %68 = "onnx.Constant"() {value = dense_resource<__elided__> : tensor<960x1x3x3xf32>} : () -> tensor<960x1x3x3xf32>
    %69 = "onnx.Constant"() {value = dense_resource<__elided__> : tensor<960xf32>} : () -> tensor<960xf32>
    %70 = "onnx.Constant"() {value = dense_resource<__elided__> : tensor<320x960x1x1xf32>} : () -> tensor<320x960x1x1xf32>
    %71 = "onnx.Constant"() {value = dense_resource<__elided__> : tensor<1280x320x1x1xf32>} : () -> tensor<1280x320x1x1xf32>
    %72 = "onnx.Constant"() {value = dense<0.000000e+00> : tensor<f32>} : () -> tensor<f32>
    %73 = "onnx.Constant"() {value = dense<6.000000e+00> : tensor<f32>} : () -> tensor<f32>
    %74 = "onnx.Constant"() {value = dense<[1, -1]> : tensor<2xi64>} : () -> tensor<2xi64>
    %75 = "onnx.Conv"(%arg0, %2, %3) {auto_pad = "NOTSET", dilations = [1, 1], group = 1 : si64, kernel_shape = [3, 3], onnx_node_name = "Conv_0", pads = [1, 1, 1, 1], strides = [2, 2]} : (tensor<1x3x224x224xf32>, tensor<32x3x3x3xf32>, tensor<32xf32>) -> tensor<1x32x112x112xf32>
    %76 = "onnx.Clip"(%75, %72, %73) {onnx_node_name = "Clip_3"} : (tensor<1x32x112x112xf32>, tensor<f32>, tensor<f32>) -> tensor<1x32x112x112xf32>
    %77 = "onnx.Conv"(%76, %4, %5) {auto_pad = "NOTSET", dilations = [1, 1], group = 32 : si64, kernel_shape = [3, 3], onnx_node_name = "Conv_4", pads = [1, 1, 1, 1], strides = [1, 1]} : (tensor<1x32x112x112xf32>, tensor<32x1x3x3xf32>, tensor<32xf32>) -> tensor<1x32x112x112xf32>
    %78 = "onnx.Clip"(%77, %72, %73) {onnx_node_name = "Clip_7"} : (tensor<1x32x112x112xf32>, tensor<f32>, tensor<f32>) -> tensor<1x32x112x112xf32>
    %79 = "onnx.Constant"() {value = dense<[1, 32, -1]> : tensor<3xi64>} : () -> tensor<3xi64>
    %80 = "onnx.Reshape"(%78, %79) {allowzero = 0 : si64} : (tensor<1x32x112x112xf32>, tensor<3xi64>) -> tensor<1x32x12544xf32>
    %81 = "onnx.Constant"() {value = dense<[16, -1]> : tensor<2xi64>} : () -> tensor<2xi64>
    %82 = "onnx.Reshape"(%6, %81) {allowzero = 0 : si64} : (tensor<16x32x1x1xf32>, tensor<2xi64>) -> tensor<16x32xf32>
    %83 = "onnx.MatMul"(%82, %80) : (tensor<16x32xf32>, tensor<1x32x12544xf32>) -> tensor<1x16x12544xf32>
    %84 = "onnx.Constant"() {value = dense<[[[… > : tensor<1x16x1xf32>} : () -> tensor<1x16x1xf32>
    %85 = "onnx.Add"(%83, %84) : (tensor<1x16x12544xf32>, tensor<1x16x1xf32>) -> tensor<1x16x12544xf32>
    %86 = "onnx.Constant"() {value = dense<[1, 16, -1]> : tensor<3xi64>} : () -> tensor<3xi64>
    %87 = "onnx.Reshape"(%85, %86) {allowzero = 0 : si64} : (tensor<1x16x12544xf32>, tensor<3xi64>) -> tensor<1x16x12544xf32>
    %88 = "onnx.Constant"() {value = dense<[96, -1]> : tensor<2xi64>} : () -> tensor<2xi64>
    %89 = "onnx.Reshape"(%7, %88) {allowzero = 0 : si64} : (tensor<96x16x1x1xf32>, tensor<2xi64>) -> tensor<96x16xf32>
    %90 = "onnx.MatMul"(%89, %87) : (tensor<96x16xf32>, tensor<1x16x12544xf32>) -> tensor<1x96x12544xf32>
    %91 = "onnx.Constant"() {value = dense<[[[… > : tensor<1x96x1xf32>} : () -> tensor<1x96x1xf32>
    %92 = "onnx.Add"(%90, %91) : (tensor<1x96x12544xf32>, tensor<1x96x1xf32>) -> tensor<1x96x12544xf32>
    %93 = "onnx.Constant"() {value = dense<[1, 96, 112, 112]> : tensor<4xi64>} : () -> tensor<4xi64>
    %94 = "onnx.Reshape"(%92, %93) {allowzero = 0 : si64} : (tensor<1x96x12544xf32>, tensor<4xi64>) -> tensor<1x96x112x112xf32>
    %95 = "onnx.Clip"(%94, %72, %73) {onnx_node_name = "Clip_12"} : (tensor<1x96x112x112xf32>, tensor<f32>, tensor<f32>) -> tensor<1x96x112x112xf32>
    %96 = "onnx.Conv"(%95, %8, %9) {auto_pad = "NOTSET", dilations = [1, 1], group = 96 : si64, kernel_shape = [3, 3], onnx_node_name = "Conv_13", pads = [1, 1, 1, 1], strides = [2, 2]} : (tensor<1x96x112x112xf32>, tensor<96x1x3x3xf32>, tensor<96xf32>) -> tensor<1x96x56x56xf32>
    %97 = "onnx.Clip"(%96, %72, %73) {onnx_node_name = "Clip_16"} : (tensor<1x96x56x56xf32>, tensor<f32>, tensor<f32>) -> tensor<1x96x56x56xf32>
    %98 = "onnx.Constant"() {value = dense<[1, 96, -1]> : tensor<3xi64>} : () -> tensor<3xi64>
    %99 = "onnx.Reshape"(%97, %98) {allowzero = 0 : si64} : (tensor<1x96x56x56xf32>, tensor<3xi64>) -> tensor<1x96x3136xf32>
    %100 = "onnx.Constant"() {value = dense<[24, -1]> : tensor<2xi64>} : () -> tensor<2xi64>
    %101 = "onnx.Reshape"(%10, %100) {allowzero = 0 : si64} : (tensor<24x96x1x1xf32>, tensor<2xi64>) -> tensor<24x96xf32>
    %102 = "onnx.MatMul"(%101, %99) : (tensor<24x96xf32>, tensor<1x96x3136xf32>) -> tensor<1x24x3136xf32>
    %103 = "onnx.Constant"() {value = dense<[[[… > : tensor<1x24x1xf32>} : () -> tensor<1x24x1xf32>
    %104 = "onnx.Add"(%102, %103) : (tensor<1x24x3136xf32>, tensor<1x24x1xf32>) -> tensor<1x24x3136xf32>
    %105 = "onnx.Constant"() {value = dense<[1, 24, 56, 56]> : tensor<4xi64>} : () -> tensor<4xi64>
    %106 = "onnx.Reshape"(%104, %105) {allowzero = 0 : si64} : (tensor<1x24x3136xf32>, tensor<4xi64>) -> tensor<1x24x56x56xf32>
    %107 = "onnx.Constant"() {value = dense<[1, 24, -1]> : tensor<3xi64>} : () -> tensor<3xi64>
    %108 = "onnx.Reshape"(%104, %107) {allowzero = 0 : si64} : (tensor<1x24x3136xf32>, tensor<3xi64>) -> tensor<1x24x3136xf32>
    %109 = "onnx.Constant"() {value = dense<[144, -1]> : tensor<2xi64>} : () -> tensor<2xi64>
    %110 = "onnx.Reshape"(%11, %109) {allowzero = 0 : si64} : (tensor<144x24x1x1xf32>, tensor<2xi64>) -> tensor<144x24xf32>
    %111 = "onnx.MatMul"(%110, %108) : (tensor<144x24xf32>, tensor<1x24x3136xf32>) -> tensor<1x144x3136xf32>
    %112 = "onnx.Constant"() {value = dense_resource<__elided__> : tensor<1x144x1xf32>} : () -> tensor<1x144x1xf32>
    %113 = "onnx.Add"(%111, %112) : (tensor<1x144x3136xf32>, tensor<1x144x1xf32>) -> tensor<1x144x3136xf32>
    %114 = "onnx.Constant"() {value = dense<[1, 144, 56, 56]> : tensor<4xi64>} : () -> tensor<4xi64>
    %115 = "onnx.Reshape"(%113, %114) {allowzero = 0 : si64} : (tensor<1x144x3136xf32>, tensor<4xi64>) -> tensor<1x144x56x56xf32>
    %116 = "onnx.Clip"(%115, %72, %73) {onnx_node_name = "Clip_21"} : (tensor<1x144x56x56xf32>, tensor<f32>, tensor<f32>) -> tensor<1x144x56x56xf32>
    %117 = "onnx.Conv"(%116, %12, %13) {auto_pad = "NOTSET", dilations = [1, 1], group = 144 : si64, kernel_shape = [3, 3], onnx_node_name = "Conv_22", pads = [1, 1, 1, 1], strides = [1, 1]} : (tensor<1x144x56x56xf32>, tensor<144x1x3x3xf32>, tensor<144xf32>) -> tensor<1x144x56x56xf32>
    %118 = "onnx.Clip"(%117, %72, %73) {onnx_node_name = "Clip_25"} : (tensor<1x144x56x56xf32>, tensor<f32>, tensor<f32>) -> tensor<1x144x56x56xf32>
    %119 = "onnx.Constant"() {value = dense<[1, 144, -1]> : tensor<3xi64>} : () -> tensor<3xi64>
    %120 = "onnx.Reshape"(%118, %119) {allowzero = 0 : si64} : (tensor<1x144x56x56xf32>, tensor<3xi64>) -> tensor<1x144x3136xf32>
    %121 = "onnx.Constant"() {value = dense<[24, -1]> : tensor<2xi64>} : () -> tensor<2xi64>
    %122 = "onnx.Reshape"(%14, %121) {allowzero = 0 : si64} : (tensor<24x144x1x1xf32>, tensor<2xi64>) -> tensor<24x144xf32>
    %123 = "onnx.MatMul"(%122, %120) : (tensor<24x144xf32>, tensor<1x144x3136xf32>) -> tensor<1x24x3136xf32>
    %124 = "onnx.Constant"() {value = dense<[[[… > : tensor<1x24x1xf32>} : () -> tensor<1x24x1xf32>
    %125 = "onnx.Add"(%123, %124) : (tensor<1x24x3136xf32>, tensor<1x24x1xf32>) -> tensor<1x24x3136xf32>
    %126 = "onnx.Constant"() {value = dense<[1, 24, 56, 56]> : tensor<4xi64>} : () -> tensor<4xi64>
    %127 = "onnx.Reshape"(%125, %126) {allowzero = 0 : si64} : (tensor<1x24x3136xf32>, tensor<4xi64>) -> tensor<1x24x56x56xf32>
    %128 = "onnx.Add"(%106, %127) {onnx_node_name = "Add_27"} : (tensor<1x24x56x56xf32>, tensor<1x24x56x56xf32>) -> tensor<1x24x56x56xf32>
    %129 = "onnx.Constant"() {value = dense<[1, 24, -1]> : tensor<3xi64>} : () -> tensor<3xi64>
    %130 = "onnx.Reshape"(%128, %129) {allowzero = 0 : si64} : (tensor<1x24x56x56xf32>, tensor<3xi64>) -> tensor<1x24x3136xf32>
    %131 = "onnx.Constant"() {value = dense<[144, -1]> : tensor<2xi64>} : () -> tensor<2xi64>
    %132 = "onnx.Reshape"(%15, %131) {allowzero = 0 : si64} : (tensor<144x24x1x1xf32>, tensor<2xi64>) -> tensor<144x24xf32>
    %133 = "onnx.MatMul"(%132, %130) : (tensor<144x24xf32>, tensor<1x24x3136xf32>) -> tensor<1x144x3136xf32>
    %134 = "onnx.Constant"() {value = dense_resource<__elided__> : tensor<1x144x1xf32>} : () -> tensor<1x144x1xf32>
    %135 = "onnx.Add"(%133, %134) : (tensor<1x144x3136xf32>, tensor<1x144x1xf32>) -> tensor<1x144x3136xf32>
    %136 = "onnx.Constant"() {value = dense<[1, 144, 56, 56]> : tensor<4xi64>} : () -> tensor<4xi64>
    %137 = "onnx.Reshape"(%135, %136) {allowzero = 0 : si64} : (tensor<1x144x3136xf32>, tensor<4xi64>) -> tensor<1x144x56x56xf32>
    %138 = "onnx.Clip"(%137, %72, %73) {onnx_node_name = "Clip_31"} : (tensor<1x144x56x56xf32>, tensor<f32>, tensor<f32>) -> tensor<1x144x56x56xf32>
    %139 = "onnx.Conv"(%138, %16, %17) {auto_pad = "NOTSET", dilations = [1, 1], group = 144 : si64, kernel_shape = [3, 3], onnx_node_name = "Conv_32", pads = [1, 1, 1, 1], strides = [2, 2]} : (tensor<1x144x56x56xf32>, tensor<144x1x3x3xf32>, tensor<144xf32>) -> tensor<1x144x28x28xf32>
    %140 = "onnx.Clip"(%139, %72, %73) {onnx_node_name = "Clip_35"} : (tensor<1x144x28x28xf32>, tensor<f32>, tensor<f32>) -> tensor<1x144x28x28xf32>
    %141 = "onnx.Constant"() {value = dense<[1, 144, -1]> : tensor<3xi64>} : () -> tensor<3xi64>
    %142 = "onnx.Reshape"(%140, %141) {allowzero = 0 : si64} : (tensor<1x144x28x28xf32>, tensor<3xi64>) -> tensor<1x144x784xf32>
    %143 = "onnx.Constant"() {value = dense<[32, -1]> : tensor<2xi64>} : () -> tensor<2xi64>
    %144 = "onnx.Reshape"(%18, %143) {allowzero = 0 : si64} : (tensor<32x144x1x1xf32>, tensor<2xi64>) -> tensor<32x144xf32>
    %145 = "onnx.MatMul"(%144, %142) : (tensor<32x144xf32>, tensor<1x144x784xf32>) -> tensor<1x32x784xf32>
    %146 = "onnx.Constant"() {value = dense<[[[… > : tensor<1x32x1xf32>} : () -> tensor<1x32x1xf32>
    %147 = "onnx.Add"(%145, %146) : (tensor<1x32x784xf32>, tensor<1x32x1xf32>) -> tensor<1x32x784xf32>
    %148 = "onnx.Constant"() {value = dense<[1, 32, 28, 28]> : tensor<4xi64>} : () -> tensor<4xi64>
    %149 = "onnx.Reshape"(%147, %148) {allowzero = 0 : si64} : (tensor<1x32x784xf32>, tensor<4xi64>) -> tensor<1x32x28x28xf32>
    %150 = "onnx.Constant"() {value = dense<[1, 32, -1]> : tensor<3xi64>} : () -> tensor<3xi64>
    %151 = "onnx.Reshape"(%147, %150) {allowzero = 0 : si64} : (tensor<1x32x784xf32>, tensor<3xi64>) -> tensor<1x32x784xf32>
    %152 = "onnx.Constant"() {value = dense<[192, -1]> : tensor<2xi64>} : () -> tensor<2xi64>
    %153 = "onnx.Reshape"(%19, %152) {allowzero = 0 : si64} : (tensor<192x32x1x1xf32>, tensor<2xi64>) -> tensor<192x32xf32>
    %154 = "onnx.MatMul"(%153, %151) : (tensor<192x32xf32>, tensor<1x32x784xf32>) -> tensor<1x192x784xf32>
    %155 = "onnx.Constant"() {value = dense_resource<__elided__> : tensor<1x192x1xf32>} : () -> tensor<1x192x1xf32>
    %156 = "onnx.Add"(%154, %155) : (tensor<1x192x784xf32>, tensor<1x192x1xf32>) -> tensor<1x192x784xf32>
    %157 = "onnx.Constant"() {value = dense<[1, 192, 28, 28]> : tensor<4xi64>} : () -> tensor<4xi64>
    %158 = "onnx.Reshape"(%156, %157) {allowzero = 0 : si64} : (tensor<1x192x784xf32>, tensor<4xi64>) -> tensor<1x192x28x28xf32>
    %159 = "onnx.Clip"(%158, %72, %73) {onnx_node_name = "Clip_40"} : (tensor<1x192x28x28xf32>, tensor<f32>, tensor<f32>) -> tensor<1x192x28x28xf32>
    %160 = "onnx.Conv"(%159, %20, %21) {auto_pad = "NOTSET", dilations = [1, 1], group = 192 : si64, kernel_shape = [3, 3], onnx_node_name = "Conv_41", pads = [1, 1, 1, 1], strides = [1, 1]} : (tensor<1x192x28x28xf32>, tensor<192x1x3x3xf32>, tensor<192xf32>) -> tensor<1x192x28x28xf32>
    %161 = "onnx.Clip"(%160, %72, %73) {onnx_node_name = "Clip_44"} : (tensor<1x192x28x28xf32>, tensor<f32>, tensor<f32>) -> tensor<1x192x28x28xf32>
    %162 = "onnx.Constant"() {value = dense<[1, 192, -1]> : tensor<3xi64>} : () -> tensor<3xi64>
    %163 = "onnx.Reshape"(%161, %162) {allowzero = 0 : si64} : (tensor<1x192x28x28xf32>, tensor<3xi64>) -> tensor<1x192x784xf32>
    %164 = "onnx.Constant"() {value = dense<[32, -1]> : tensor<2xi64>} : () -> tensor<2xi64>
    %165 = "onnx.Reshape"(%22, %164) {allowzero = 0 : si64} : (tensor<32x192x1x1xf32>, tensor<2xi64>) -> tensor<32x192xf32>
    %166 = "onnx.MatMul"(%165, %163) : (tensor<32x192xf32>, tensor<1x192x784xf32>) -> tensor<1x32x784xf32>
    %167 = "onnx.Constant"() {value = dense<[[[… > : tensor<1x32x1xf32>} : () -> tensor<1x32x1xf32>
    %168 = "onnx.Add"(%166, %167) : (tensor<1x32x784xf32>, tensor<1x32x1xf32>) -> tensor<1x32x784xf32>
    %169 = "onnx.Constant"() {value = dense<[1, 32, 28, 28]> : tensor<4xi64>} : () -> tensor<4xi64>
    %170 = "onnx.Reshape"(%168, %169) {allowzero = 0 : si64} : (tensor<1x32x784xf32>, tensor<4xi64>) -> tensor<1x32x28x28xf32>
    %171 = "onnx.Add"(%149, %170) {onnx_node_name = "Add_46"} : (tensor<1x32x28x28xf32>, tensor<1x32x28x28xf32>) -> tensor<1x32x28x28xf32>
    %172 = "onnx.Constant"() {value = dense<[1, 32, -1]> : tensor<3xi64>} : () -> tensor<3xi64>
    %173 = "onnx.Reshape"(%171, %172) {allowzero = 0 : si64} : (tensor<1x32x28x28xf32>, tensor<3xi64>) -> tensor<1x32x784xf32>
    %174 = "onnx.Constant"() {value = dense<[192, -1]> : tensor<2xi64>} : () -> tensor<2xi64>
    %175 = "onnx.Reshape"(%23, %174) {allowzero = 0 : si64} : (tensor<192x32x1x1xf32>, tensor<2xi64>) -> tensor<192x32xf32>
    %176 = "onnx.MatMul"(%175, %173) : (tensor<192x32xf32>, tensor<1x32x784xf32>) -> tensor<1x192x784xf32>
    %177 = "onnx.Constant"() {value = dense_resource<__elided__> : tensor<1x192x1xf32>} : () -> tensor<1x192x1xf32>
    %178 = "onnx.Add"(%176, %177) : (tensor<1x192x784xf32>, tensor<1x192x1xf32>) -> tensor<1x192x784xf32>
    %179 = "onnx.Constant"() {value = dense<[1, 192, 28, 28]> : tensor<4xi64>} : () -> tensor<4xi64>
    %180 = "onnx.Reshape"(%178, %179) {allowzero = 0 : si64} : (tensor<1x192x784xf32>, tensor<4xi64>) -> tensor<1x192x28x28xf32>
    %181 = "onnx.Clip"(%180, %72, %73) {onnx_node_name = "Clip_50"} : (tensor<1x192x28x28xf32>, tensor<f32>, tensor<f32>) -> tensor<1x192x28x28xf32>
    %182 = "onnx.Conv"(%181, %24, %25) {auto_pad = "NOTSET", dilations = [1, 1], group = 192 : si64, kernel_shape = [3, 3], onnx_node_name = "Conv_51", pads = [1, 1, 1, 1], strides = [1, 1]} : (tensor<1x192x28x28xf32>, tensor<192x1x3x3xf32>, tensor<192xf32>) -> tensor<1x192x28x28xf32>
    %183 = "onnx.Clip"(%182, %72, %73) {onnx_node_name = "Clip_54"} : (tensor<1x192x28x28xf32>, tensor<f32>, tensor<f32>) -> tensor<1x192x28x28xf32>
    %184 = "onnx.Constant"() {value = dense<[1, 192, -1]> : tensor<3xi64>} : () -> tensor<3xi64>
    %185 = "onnx.Reshape"(%183, %184) {allowzero = 0 : si64} : (tensor<1x192x28x28xf32>, tensor<3xi64>) -> tensor<1x192x784xf32>
    %186 = "onnx.Constant"() {value = dense<[32, -1]> : tensor<2xi64>} : () -> tensor<2xi64>
    %187 = "onnx.Reshape"(%26, %186) {allowzero = 0 : si64} : (tensor<32x192x1x1xf32>, tensor<2xi64>) -> tensor<32x192xf32>
    %188 = "onnx.MatMul"(%187, %185) : (tensor<32x192xf32>, tensor<1x192x784xf32>) -> tensor<1x32x784xf32>
    %189 = "onnx.Constant"() {value = dense<[[[… > : tensor<1x32x1xf32>} : () -> tensor<1x32x1xf32>
    %190 = "onnx.Add"(%188, %189) : (tensor<1x32x784xf32>, tensor<1x32x1xf32>) -> tensor<1x32x784xf32>
    %191 = "onnx.Constant"() {value = dense<[1, 32, 28, 28]> : tensor<4xi64>} : () -> tensor<4xi64>
    %192 = "onnx.Reshape"(%190, %191) {allowzero = 0 : si64} : (tensor<1x32x784xf32>, tensor<4xi64>) -> tensor<1x32x28x28xf32>
    %193 = "onnx.Add"(%171, %192) {onnx_node_name = "Add_56"} : (tensor<1x32x28x28xf32>, tensor<1x32x28x28xf32>) -> tensor<1x32x28x28xf32>
    %194 = "onnx.Constant"() {value = dense<[1, 32, -1]> : tensor<3xi64>} : () -> tensor<3xi64>
    %195 = "onnx.Reshape"(%193, %194) {allowzero = 0 : si64} : (tensor<1x32x28x28xf32>, tensor<3xi64>) -> tensor<1x32x784xf32>
    %196 = "onnx.Constant"() {value = dense<[192, -1]> : tensor<2xi64>} : () -> tensor<2xi64>
    %197 = "onnx.Reshape"(%27, %196) {allowzero = 0 : si64} : (tensor<192x32x1x1xf32>, tensor<2xi64>) -> tensor<192x32xf32>
    %198 = "onnx.MatMul"(%197, %195) : (tensor<192x32xf32>, tensor<1x32x784xf32>) -> tensor<1x192x784xf32>
    %199 = "onnx.Constant"() {value = dense_resource<__elided__> : tensor<1x192x1xf32>} : () -> tensor<1x192x1xf32>
    %200 = "onnx.Add"(%198, %199) : (tensor<1x192x784xf32>, tensor<1x192x1xf32>) -> tensor<1x192x784xf32>
    %201 = "onnx.Constant"() {value = dense<[1, 192, 28, 28]> : tensor<4xi64>} : () -> tensor<4xi64>
    %202 = "onnx.Reshape"(%200, %201) {allowzero = 0 : si64} : (tensor<1x192x784xf32>, tensor<4xi64>) -> tensor<1x192x28x28xf32>
    %203 = "onnx.Clip"(%202, %72, %73) {onnx_node_name = "Clip_60"} : (tensor<1x192x28x28xf32>, tensor<f32>, tensor<f32>) -> tensor<1x192x28x28xf32>
    %204 = "onnx.Conv"(%203, %28, %29) {auto_pad = "NOTSET", dilations = [1, 1], group = 192 : si64, kernel_shape = [3, 3], onnx_node_name = "Conv_61", pads = [1, 1, 1, 1], strides = [2, 2]} : (tensor<1x192x28x28xf32>, tensor<192x1x3x3xf32>, tensor<192xf32>) -> tensor<1x192x14x14xf32>
    %205 = "onnx.Clip"(%204, %72, %73) {onnx_node_name = "Clip_64"} : (tensor<1x192x14x14xf32>, tensor<f32>, tensor<f32>) -> tensor<1x192x14x14xf32>
    %206 = "onnx.Constant"() {value = dense<[1, 192, -1]> : tensor<3xi64>} : () -> tensor<3xi64>
    %207 = "onnx.Reshape"(%205, %206) {allowzero = 0 : si64} : (tensor<1x192x14x14xf32>, tensor<3xi64>) -> tensor<1x192x196xf32>
    %208 = "onnx.Constant"() {value = dense<[64, -1]> : tensor<2xi64>} : () -> tensor<2xi64>
    %209 = "onnx.Reshape"(%30, %208) {allowzero = 0 : si64} : (tensor<64x192x1x1xf32>, tensor<2xi64>) -> tensor<64x192xf32>
    %210 = "onnx.MatMul"(%209, %207) : (tensor<64x192xf32>, tensor<1x192x196xf32>) -> tensor<1x64x196xf32>
    %211 = "onnx.Constant"() {value = dense<[[[… > : tensor<1x64x1xf32>} : () -> tensor<1x64x1xf32>
    %212 = "onnx.Add"(%210, %211) : (tensor<1x64x196xf32>, tensor<1x64x1xf32>) -> tensor<1x64x196xf32>
    %213 = "onnx.Constant"() {value = dense<[1, 64, 14, 14]> : tensor<4xi64>} : () -> tensor<4xi64>
    %214 = "onnx.Reshape"(%212, %213) {allowzero = 0 : si64} : (tensor<1x64x196xf32>, tensor<4xi64>) -> tensor<1x64x14x14xf32>
    %215 = "onnx.Constant"() {value = dense<[1, 64, -1]> : tensor<3xi64>} : () -> tensor<3xi64>
    %216 = "onnx.Reshape"(%212, %215) {allowzero = 0 : si64} : (tensor<1x64x196xf32>, tensor<3xi64>) -> tensor<1x64x196xf32>
    %217 = "onnx.Constant"() {value = dense<[384, -1]> : tensor<2xi64>} : () -> tensor<2xi64>
    %218 = "onnx.Reshape"(%31, %217) {allowzero = 0 : si64} : (tensor<384x64x1x1xf32>, tensor<2xi64>) -> tensor<384x64xf32>
    %219 = "onnx.MatMul"(%218, %216) : (tensor<384x64xf32>, tensor<1x64x196xf32>) -> tensor<1x384x196xf32>
    %220 = "onnx.Constant"() {value = dense_resource<__elided__> : tensor<1x384x1xf32>} : () -> tensor<1x384x1xf32>
    %221 = "onnx.Add"(%219, %220) : (tensor<1x384x196xf32>, tensor<1x384x1xf32>) -> tensor<1x384x196xf32>
    %222 = "onnx.Constant"() {value = dense<[1, 384, 14, 14]> : tensor<4xi64>} : () -> tensor<4xi64>
    %223 = "onnx.Reshape"(%221, %222) {allowzero = 0 : si64} : (tensor<1x384x196xf32>, tensor<4xi64>) -> tensor<1x384x14x14xf32>
    %224 = "onnx.Clip"(%223, %72, %73) {onnx_node_name = "Clip_69"} : (tensor<1x384x14x14xf32>, tensor<f32>, tensor<f32>) -> tensor<1x384x14x14xf32>
    %225 = "onnx.Conv"(%224, %32, %33) {auto_pad = "NOTSET", dilations = [1, 1], group = 384 : si64, kernel_shape = [3, 3], onnx_node_name = "Conv_70", pads = [1, 1, 1, 1], strides = [1, 1]} : (tensor<1x384x14x14xf32>, tensor<384x1x3x3xf32>, tensor<384xf32>) -> tensor<1x384x14x14xf32>
    %226 = "onnx.Clip"(%225, %72, %73) {onnx_node_name = "Clip_73"} : (tensor<1x384x14x14xf32>, tensor<f32>, tensor<f32>) -> tensor<1x384x14x14xf32>
    %227 = "onnx.Constant"() {value = dense<[1, 384, -1]> : tensor<3xi64>} : () -> tensor<3xi64>
    %228 = "onnx.Reshape"(%226, %227) {allowzero = 0 : si64} : (tensor<1x384x14x14xf32>, tensor<3xi64>) -> tensor<1x384x196xf32>
    %229 = "onnx.Constant"() {value = dense<[64, -1]> : tensor<2xi64>} : () -> tensor<2xi64>
    %230 = "onnx.Reshape"(%34, %229) {allowzero = 0 : si64} : (tensor<64x384x1x1xf32>, tensor<2xi64>) -> tensor<64x384xf32>
    %231 = "onnx.MatMul"(%230, %228) : (tensor<64x384xf32>, tensor<1x384x196xf32>) -> tensor<1x64x196xf32>
    %232 = "onnx.Constant"() {value = dense<[[[… > : tensor<1x64x1xf32>} : () -> tensor<1x64x1xf32>
    %233 = "onnx.Add"(%231, %232) : (tensor<1x64x196xf32>, tensor<1x64x1xf32>) -> tensor<1x64x196xf32>
    %234 = "onnx.Constant"() {value = dense<[1, 64, 14, 14]> : tensor<4xi64>} : () -> tensor<4xi64>
    %235 = "onnx.Reshape"(%233, %234) {allowzero = 0 : si64} : (tensor<1x64x196xf32>, tensor<4xi64>) -> tensor<1x64x14x14xf32>
    %236 = "onnx.Add"(%214, %235) {onnx_node_name = "Add_75"} : (tensor<1x64x14x14xf32>, tensor<1x64x14x14xf32>) -> tensor<1x64x14x14xf32>
    %237 = "onnx.Constant"() {value = dense<[1, 64, -1]> : tensor<3xi64>} : () -> tensor<3xi64>
    %238 = "onnx.Reshape"(%236, %237) {allowzero = 0 : si64} : (tensor<1x64x14x14xf32>, tensor<3xi64>) -> tensor<1x64x196xf32>
    %239 = "onnx.Constant"() {value = dense<[384, -1]> : tensor<2xi64>} : () -> tensor<2xi64>
    %240 = "onnx.Reshape"(%35, %239) {allowzero = 0 : si64} : (tensor<384x64x1x1xf32>, tensor<2xi64>) -> tensor<384x64xf32>
    %241 = "onnx.MatMul"(%240, %238) : (tensor<384x64xf32>, tensor<1x64x196xf32>) -> tensor<1x384x196xf32>
    %242 = "onnx.Constant"() {value = dense_resource<__elided__> : tensor<1x384x1xf32>} : () -> tensor<1x384x1xf32>
    %243 = "onnx.Add"(%241, %242) : (tensor<1x384x196xf32>, tensor<1x384x1xf32>) -> tensor<1x384x196xf32>
    %244 = "onnx.Constant"() {value = dense<[1, 384, 14, 14]> : tensor<4xi64>} : () -> tensor<4xi64>
    %245 = "onnx.Reshape"(%243, %244) {allowzero = 0 : si64} : (tensor<1x384x196xf32>, tensor<4xi64>) -> tensor<1x384x14x14xf32>
    %246 = "onnx.Clip"(%245, %72, %73) {onnx_node_name = "Clip_79"} : (tensor<1x384x14x14xf32>, tensor<f32>, tensor<f32>) -> tensor<1x384x14x14xf32>
    %247 = "onnx.Conv"(%246, %36, %37) {auto_pad = "NOTSET", dilations = [1, 1], group = 384 : si64, kernel_shape = [3, 3], onnx_node_name = "Conv_80", pads = [1, 1, 1, 1], strides = [1, 1]} : (tensor<1x384x14x14xf32>, tensor<384x1x3x3xf32>, tensor<384xf32>) -> tensor<1x384x14x14xf32>
    %248 = "onnx.Clip"(%247, %72, %73) {onnx_node_name = "Clip_83"} : (tensor<1x384x14x14xf32>, tensor<f32>, tensor<f32>) -> tensor<1x384x14x14xf32>
    %249 = "onnx.Constant"() {value = dense<[1, 384, -1]> : tensor<3xi64>} : () -> tensor<3xi64>
    %250 = "onnx.Reshape"(%248, %249) {allowzero = 0 : si64} : (tensor<1x384x14x14xf32>, tensor<3xi64>) -> tensor<1x384x196xf32>
    %251 = "onnx.Constant"() {value = dense<[64, -1]> : tensor<2xi64>} : () -> tensor<2xi64>
    %252 = "onnx.Reshape"(%38, %251) {allowzero = 0 : si64} : (tensor<64x384x1x1xf32>, tensor<2xi64>) -> tensor<64x384xf32>
    %253 = "onnx.MatMul"(%252, %250) : (tensor<64x384xf32>, tensor<1x384x196xf32>) -> tensor<1x64x196xf32>
    %254 = "onnx.Constant"() {value = dense<[[[… > : tensor<1x64x1xf32>} : () -> tensor<1x64x1xf32>
    %255 = "onnx.Add"(%253, %254) : (tensor<1x64x196xf32>, tensor<1x64x1xf32>) -> tensor<1x64x196xf32>
    %256 = "onnx.Constant"() {value = dense<[1, 64, 14, 14]> : tensor<4xi64>} : () -> tensor<4xi64>
    %257 = "onnx.Reshape"(%255, %256) {allowzero = 0 : si64} : (tensor<1x64x196xf32>, tensor<4xi64>) -> tensor<1x64x14x14xf32>
    %258 = "onnx.Add"(%236, %257) {onnx_node_name = "Add_85"} : (tensor<1x64x14x14xf32>, tensor<1x64x14x14xf32>) -> tensor<1x64x14x14xf32>
    %259 = "onnx.Constant"() {value = dense<[1, 64, -1]> : tensor<3xi64>} : () -> tensor<3xi64>
    %260 = "onnx.Reshape"(%258, %259) {allowzero = 0 : si64} : (tensor<1x64x14x14xf32>, tensor<3xi64>) -> tensor<1x64x196xf32>
    %261 = "onnx.Constant"() {value = dense<[384, -1]> : tensor<2xi64>} : () -> tensor<2xi64>
    %262 = "onnx.Reshape"(%39, %261) {allowzero = 0 : si64} : (tensor<384x64x1x1xf32>, tensor<2xi64>) -> tensor<384x64xf32>
    %263 = "onnx.MatMul"(%262, %260) : (tensor<384x64xf32>, tensor<1x64x196xf32>) -> tensor<1x384x196xf32>
    %264 = "onnx.Constant"() {value = dense_resource<__elided__> : tensor<1x384x1xf32>} : () -> tensor<1x384x1xf32>
    %265 = "onnx.Add"(%263, %264) : (tensor<1x384x196xf32>, tensor<1x384x1xf32>) -> tensor<1x384x196xf32>
    %266 = "onnx.Constant"() {value = dense<[1, 384, 14, 14]> : tensor<4xi64>} : () -> tensor<4xi64>
    %267 = "onnx.Reshape"(%265, %266) {allowzero = 0 : si64} : (tensor<1x384x196xf32>, tensor<4xi64>) -> tensor<1x384x14x14xf32>
    %268 = "onnx.Clip"(%267, %72, %73) {onnx_node_name = "Clip_89"} : (tensor<1x384x14x14xf32>, tensor<f32>, tensor<f32>) -> tensor<1x384x14x14xf32>
    %269 = "onnx.Conv"(%268, %40, %41) {auto_pad = "NOTSET", dilations = [1, 1], group = 384 : si64, kernel_shape = [3, 3], onnx_node_name = "Conv_90", pads = [1, 1, 1, 1], strides = [1, 1]} : (tensor<1x384x14x14xf32>, tensor<384x1x3x3xf32>, tensor<384xf32>) -> tensor<1x384x14x14xf32>
    %270 = "onnx.Clip"(%269, %72, %73) {onnx_node_name = "Clip_93"} : (tensor<1x384x14x14xf32>, tensor<f32>, tensor<f32>) -> tensor<1x384x14x14xf32>
    %271 = "onnx.Constant"() {value = dense<[1, 384, -1]> : tensor<3xi64>} : () -> tensor<3xi64>
    %272 = "onnx.Reshape"(%270, %271) {allowzero = 0 : si64} : (tensor<1x384x14x14xf32>, tensor<3xi64>) -> tensor<1x384x196xf32>
    %273 = "onnx.Constant"() {value = dense<[64, -1]> : tensor<2xi64>} : () -> tensor<2xi64>
    %274 = "onnx.Reshape"(%42, %273) {allowzero = 0 : si64} : (tensor<64x384x1x1xf32>, tensor<2xi64>) -> tensor<64x384xf32>
    %275 = "onnx.MatMul"(%274, %272) : (tensor<64x384xf32>, tensor<1x384x196xf32>) -> tensor<1x64x196xf32>
    %276 = "onnx.Constant"() {value = dense<[[[… > : tensor<1x64x1xf32>} : () -> tensor<1x64x1xf32>
    %277 = "onnx.Add"(%275, %276) : (tensor<1x64x196xf32>, tensor<1x64x1xf32>) -> tensor<1x64x196xf32>
    %278 = "onnx.Constant"() {value = dense<[1, 64, 14, 14]> : tensor<4xi64>} : () -> tensor<4xi64>
    %279 = "onnx.Reshape"(%277, %278) {allowzero = 0 : si64} : (tensor<1x64x196xf32>, tensor<4xi64>) -> tensor<1x64x14x14xf32>
    %280 = "onnx.Add"(%258, %279) {onnx_node_name = "Add_95"} : (tensor<1x64x14x14xf32>, tensor<1x64x14x14xf32>) -> tensor<1x64x14x14xf32>
    %281 = "onnx.Constant"() {value = dense<[1, 64, -1]> : tensor<3xi64>} : () -> tensor<3xi64>
    %282 = "onnx.Reshape"(%280, %281) {allowzero = 0 : si64} : (tensor<1x64x14x14xf32>, tensor<3xi64>) -> tensor<1x64x196xf32>
    %283 = "onnx.Constant"() {value = dense<[384, -1]> : tensor<2xi64>} : () -> tensor<2xi64>
    %284 = "onnx.Reshape"(%43, %283) {allowzero = 0 : si64} : (tensor<384x64x1x1xf32>, tensor<2xi64>) -> tensor<384x64xf32>
    %285 = "onnx.MatMul"(%284, %282) : (tensor<384x64xf32>, tensor<1x64x196xf32>) -> tensor<1x384x196xf32>
    %286 = "onnx.Constant"() {value = dense_resource<__elided__> : tensor<1x384x1xf32>} : () -> tensor<1x384x1xf32>
    %287 = "onnx.Add"(%285, %286) : (tensor<1x384x196xf32>, tensor<1x384x1xf32>) -> tensor<1x384x196xf32>
    %288 = "onnx.Constant"() {value = dense<[1, 384, 14, 14]> : tensor<4xi64>} : () -> tensor<4xi64>
    %289 = "onnx.Reshape"(%287, %288) {allowzero = 0 : si64} : (tensor<1x384x196xf32>, tensor<4xi64>) -> tensor<1x384x14x14xf32>
    %290 = "onnx.Clip"(%289, %72, %73) {onnx_node_name = "Clip_99"} : (tensor<1x384x14x14xf32>, tensor<f32>, tensor<f32>) -> tensor<1x384x14x14xf32>
    %291 = "onnx.Conv"(%290, %44, %45) {auto_pad = "NOTSET", dilations = [1, 1], group = 384 : si64, kernel_shape = [3, 3], onnx_node_name = "Conv_100", pads = [1, 1, 1, 1], strides = [1, 1]} : (tensor<1x384x14x14xf32>, tensor<384x1x3x3xf32>, tensor<384xf32>) -> tensor<1x384x14x14xf32>
    %292 = "onnx.Clip"(%291, %72, %73) {onnx_node_name = "Clip_103"} : (tensor<1x384x14x14xf32>, tensor<f32>, tensor<f32>) -> tensor<1x384x14x14xf32>
    %293 = "onnx.Constant"() {value = dense<[1, 384, -1]> : tensor<3xi64>} : () -> tensor<3xi64>
    %294 = "onnx.Reshape"(%292, %293) {allowzero = 0 : si64} : (tensor<1x384x14x14xf32>, tensor<3xi64>) -> tensor<1x384x196xf32>
    %295 = "onnx.Constant"() {value = dense<[96, -1]> : tensor<2xi64>} : () -> tensor<2xi64>
    %296 = "onnx.Reshape"(%46, %295) {allowzero = 0 : si64} : (tensor<96x384x1x1xf32>, tensor<2xi64>) -> tensor<96x384xf32>
    %297 = "onnx.MatMul"(%296, %294) : (tensor<96x384xf32>, tensor<1x384x196xf32>) -> tensor<1x96x196xf32>
    %298 = "onnx.Constant"() {value = dense<[[[… > : tensor<1x96x1xf32>} : () -> tensor<1x96x1xf32>
    %299 = "onnx.Add"(%297, %298) : (tensor<1x96x196xf32>, tensor<1x96x1xf32>) -> tensor<1x96x196xf32>
    %300 = "onnx.Constant"() {value = dense<[1, 96, 14, 14]> : tensor<4xi64>} : () -> tensor<4xi64>
    %301 = "onnx.Reshape"(%299, %300) {allowzero = 0 : si64} : (tensor<1x96x196xf32>, tensor<4xi64>) -> tensor<1x96x14x14xf32>
    %302 = "onnx.Constant"() {value = dense<[1, 96, -1]> : tensor<3xi64>} : () -> tensor<3xi64>
    %303 = "onnx.Reshape"(%299, %302) {allowzero = 0 : si64} : (tensor<1x96x196xf32>, tensor<3xi64>) -> tensor<1x96x196xf32>
    %304 = "onnx.Constant"() {value = dense<[576, -1]> : tensor<2xi64>} : () -> tensor<2xi64>
    %305 = "onnx.Reshape"(%47, %304) {allowzero = 0 : si64} : (tensor<576x96x1x1xf32>, tensor<2xi64>) -> tensor<576x96xf32>
    %306 = "onnx.MatMul"(%305, %303) : (tensor<576x96xf32>, tensor<1x96x196xf32>) -> tensor<1x576x196xf32>
    %307 = "onnx.Constant"() {value = dense_resource<__elided__> : tensor<1x576x1xf32>} : () -> tensor<1x576x1xf32>
    %308 = "onnx.Add"(%306, %307) : (tensor<1x576x196xf32>, tensor<1x576x1xf32>) -> tensor<1x576x196xf32>
    %309 = "onnx.Constant"() {value = dense<[1, 576, 14, 14]> : tensor<4xi64>} : () -> tensor<4xi64>
    %310 = "onnx.Reshape"(%308, %309) {allowzero = 0 : si64} : (tensor<1x576x196xf32>, tensor<4xi64>) -> tensor<1x576x14x14xf32>
    %311 = "onnx.Clip"(%310, %72, %73) {onnx_node_name = "Clip_108"} : (tensor<1x576x14x14xf32>, tensor<f32>, tensor<f32>) -> tensor<1x576x14x14xf32>
    %312 = "onnx.Conv"(%311, %48, %49) {auto_pad = "NOTSET", dilations = [1, 1], group = 576 : si64, kernel_shape = [3, 3], onnx_node_name = "Conv_109", pads = [1, 1, 1, 1], strides = [1, 1]} : (tensor<1x576x14x14xf32>, tensor<576x1x3x3xf32>, tensor<576xf32>) -> tensor<1x576x14x14xf32>
    %313 = "onnx.Clip"(%312, %72, %73) {onnx_node_name = "Clip_112"} : (tensor<1x576x14x14xf32>, tensor<f32>, tensor<f32>) -> tensor<1x576x14x14xf32>
    %314 = "onnx.Constant"() {value = dense<[1, 576, -1]> : tensor<3xi64>} : () -> tensor<3xi64>
    %315 = "onnx.Reshape"(%313, %314) {allowzero = 0 : si64} : (tensor<1x576x14x14xf32>, tensor<3xi64>) -> tensor<1x576x196xf32>
    %316 = "onnx.Constant"() {value = dense<[96, -1]> : tensor<2xi64>} : () -> tensor<2xi64>
    %317 = "onnx.Reshape"(%50, %316) {allowzero = 0 : si64} : (tensor<96x576x1x1xf32>, tensor<2xi64>) -> tensor<96x576xf32>
    %318 = "onnx.MatMul"(%317, %315) : (tensor<96x576xf32>, tensor<1x576x196xf32>) -> tensor<1x96x196xf32>
    %319 = "onnx.Constant"() {value = dense<[[[… > : tensor<1x96x1xf32>} : () -> tensor<1x96x1xf32>
    %320 = "onnx.Add"(%318, %319) : (tensor<1x96x196xf32>, tensor<1x96x1xf32>) -> tensor<1x96x196xf32>
    %321 = "onnx.Constant"() {value = dense<[1, 96, 14, 14]> : tensor<4xi64>} : () -> tensor<4xi64>
    %322 = "onnx.Reshape"(%320, %321) {allowzero = 0 : si64} : (tensor<1x96x196xf32>, tensor<4xi64>) -> tensor<1x96x14x14xf32>
    %323 = "onnx.Add"(%301, %322) {onnx_node_name = "Add_114"} : (tensor<1x96x14x14xf32>, tensor<1x96x14x14xf32>) -> tensor<1x96x14x14xf32>
    %324 = "onnx.Constant"() {value = dense<[1, 96, -1]> : tensor<3xi64>} : () -> tensor<3xi64>
    %325 = "onnx.Reshape"(%323, %324) {allowzero = 0 : si64} : (tensor<1x96x14x14xf32>, tensor<3xi64>) -> tensor<1x96x196xf32>
    %326 = "onnx.Constant"() {value = dense<[576, -1]> : tensor<2xi64>} : () -> tensor<2xi64>
    %327 = "onnx.Reshape"(%51, %326) {allowzero = 0 : si64} : (tensor<576x96x1x1xf32>, tensor<2xi64>) -> tensor<576x96xf32>
    %328 = "onnx.MatMul"(%327, %325) : (tensor<576x96xf32>, tensor<1x96x196xf32>) -> tensor<1x576x196xf32>
    %329 = "onnx.Constant"() {value = dense_resource<__elided__> : tensor<1x576x1xf32>} : () -> tensor<1x576x1xf32>
    %330 = "onnx.Add"(%328, %329) : (tensor<1x576x196xf32>, tensor<1x576x1xf32>) -> tensor<1x576x196xf32>
    %331 = "onnx.Constant"() {value = dense<[1, 576, 14, 14]> : tensor<4xi64>} : () -> tensor<4xi64>
    %332 = "onnx.Reshape"(%330, %331) {allowzero = 0 : si64} : (tensor<1x576x196xf32>, tensor<4xi64>) -> tensor<1x576x14x14xf32>
    %333 = "onnx.Clip"(%332, %72, %73) {onnx_node_name = "Clip_118"} : (tensor<1x576x14x14xf32>, tensor<f32>, tensor<f32>) -> tensor<1x576x14x14xf32>
    %334 = "onnx.Conv"(%333, %52, %53) {auto_pad = "NOTSET", dilations = [1, 1], group = 576 : si64, kernel_shape = [3, 3], onnx_node_name = "Conv_119", pads = [1, 1, 1, 1], strides = [1, 1]} : (tensor<1x576x14x14xf32>, tensor<576x1x3x3xf32>, tensor<576xf32>) -> tensor<1x576x14x14xf32>
    %335 = "onnx.Clip"(%334, %72, %73) {onnx_node_name = "Clip_122"} : (tensor<1x576x14x14xf32>, tensor<f32>, tensor<f32>) -> tensor<1x576x14x14xf32>
    %336 = "onnx.Constant"() {value = dense<[1, 576, -1]> : tensor<3xi64>} : () -> tensor<3xi64>
    %337 = "onnx.Reshape"(%335, %336) {allowzero = 0 : si64} : (tensor<1x576x14x14xf32>, tensor<3xi64>) -> tensor<1x576x196xf32>
    %338 = "onnx.Constant"() {value = dense<[96, -1]> : tensor<2xi64>} : () -> tensor<2xi64>
    %339 = "onnx.Reshape"(%54, %338) {allowzero = 0 : si64} : (tensor<96x576x1x1xf32>, tensor<2xi64>) -> tensor<96x576xf32>
    %340 = "onnx.MatMul"(%339, %337) : (tensor<96x576xf32>, tensor<1x576x196xf32>) -> tensor<1x96x196xf32>
    %341 = "onnx.Constant"() {value = dense<[[[… > : tensor<1x96x1xf32>} : () -> tensor<1x96x1xf32>
    %342 = "onnx.Add"(%340, %341) : (tensor<1x96x196xf32>, tensor<1x96x1xf32>) -> tensor<1x96x196xf32>
    %343 = "onnx.Constant"() {value = dense<[1, 96, 14, 14]> : tensor<4xi64>} : () -> tensor<4xi64>
    %344 = "onnx.Reshape"(%342, %343) {allowzero = 0 : si64} : (tensor<1x96x196xf32>, tensor<4xi64>) -> tensor<1x96x14x14xf32>
    %345 = "onnx.Add"(%323, %344) {onnx_node_name = "Add_124"} : (tensor<1x96x14x14xf32>, tensor<1x96x14x14xf32>) -> tensor<1x96x14x14xf32>
    %346 = "onnx.Constant"() {value = dense<[1, 96, -1]> : tensor<3xi64>} : () -> tensor<3xi64>
    %347 = "onnx.Reshape"(%345, %346) {allowzero = 0 : si64} : (tensor<1x96x14x14xf32>, tensor<3xi64>) -> tensor<1x96x196xf32>
    %348 = "onnx.Constant"() {value = dense<[576, -1]> : tensor<2xi64>} : () -> tensor<2xi64>
    %349 = "onnx.Reshape"(%55, %348) {allowzero = 0 : si64} : (tensor<576x96x1x1xf32>, tensor<2xi64>) -> tensor<576x96xf32>
    %350 = "onnx.MatMul"(%349, %347) : (tensor<576x96xf32>, tensor<1x96x196xf32>) -> tensor<1x576x196xf32>
    %351 = "onnx.Constant"() {value = dense_resource<__elided__> : tensor<1x576x1xf32>} : () -> tensor<1x576x1xf32>
    %352 = "onnx.Add"(%350, %351) : (tensor<1x576x196xf32>, tensor<1x576x1xf32>) -> tensor<1x576x196xf32>
    %353 = "onnx.Constant"() {value = dense<[1, 576, 14, 14]> : tensor<4xi64>} : () -> tensor<4xi64>
    %354 = "onnx.Reshape"(%352, %353) {allowzero = 0 : si64} : (tensor<1x576x196xf32>, tensor<4xi64>) -> tensor<1x576x14x14xf32>
    %355 = "onnx.Clip"(%354, %72, %73) {onnx_node_name = "Clip_128"} : (tensor<1x576x14x14xf32>, tensor<f32>, tensor<f32>) -> tensor<1x576x14x14xf32>
    %356 = "onnx.Conv"(%355, %56, %57) {auto_pad = "NOTSET", dilations = [1, 1], group = 576 : si64, kernel_shape = [3, 3], onnx_node_name = "Conv_129", pads = [1, 1, 1, 1], strides = [2, 2]} : (tensor<1x576x14x14xf32>, tensor<576x1x3x3xf32>, tensor<576xf32>) -> tensor<1x576x7x7xf32>
    %357 = "onnx.Clip"(%356, %72, %73) {onnx_node_name = "Clip_132"} : (tensor<1x576x7x7xf32>, tensor<f32>, tensor<f32>) -> tensor<1x576x7x7xf32>
    %358 = "onnx.Constant"() {value = dense<[1, 576, -1]> : tensor<3xi64>} : () -> tensor<3xi64>
    %359 = "onnx.Reshape"(%357, %358) {allowzero = 0 : si64} : (tensor<1x576x7x7xf32>, tensor<3xi64>) -> tensor<1x576x49xf32>
    %360 = "onnx.Constant"() {value = dense<[160, -1]> : tensor<2xi64>} : () -> tensor<2xi64>
    %361 = "onnx.Reshape"(%58, %360) {allowzero = 0 : si64} : (tensor<160x576x1x1xf32>, tensor<2xi64>) -> tensor<160x576xf32>
    %362 = "onnx.MatMul"(%361, %359) : (tensor<160x576xf32>, tensor<1x576x49xf32>) -> tensor<1x160x49xf32>
    %363 = "onnx.Constant"() {value = dense_resource<__elided__> : tensor<1x160x1xf32>} : () -> tensor<1x160x1xf32>
    %364 = "onnx.Add"(%362, %363) : (tensor<1x160x49xf32>, tensor<1x160x1xf32>) -> tensor<1x160x49xf32>
    %365 = "onnx.Constant"() {value = dense<[1, 160, 7, 7]> : tensor<4xi64>} : () -> tensor<4xi64>
    %366 = "onnx.Reshape"(%364, %365) {allowzero = 0 : si64} : (tensor<1x160x49xf32>, tensor<4xi64>) -> tensor<1x160x7x7xf32>
    %367 = "onnx.Constant"() {value = dense<[1, 160, -1]> : tensor<3xi64>} : () -> tensor<3xi64>
    %368 = "onnx.Reshape"(%364, %367) {allowzero = 0 : si64} : (tensor<1x160x49xf32>, tensor<3xi64>) -> tensor<1x160x49xf32>
    %369 = "onnx.Constant"() {value = dense<[960, -1]> : tensor<2xi64>} : () -> tensor<2xi64>
    %370 = "onnx.Reshape"(%59, %369) {allowzero = 0 : si64} : (tensor<960x160x1x1xf32>, tensor<2xi64>) -> tensor<960x160xf32>
    %371 = "onnx.MatMul"(%370, %368) : (tensor<960x160xf32>, tensor<1x160x49xf32>) -> tensor<1x960x49xf32>
    %372 = "onnx.Constant"() {value = dense_resource<__elided__> : tensor<1x960x1xf32>} : () -> tensor<1x960x1xf32>
    %373 = "onnx.Add"(%371, %372) : (tensor<1x960x49xf32>, tensor<1x960x1xf32>) -> tensor<1x960x49xf32>
    %374 = "onnx.Constant"() {value = dense<[1, 960, 7, 7]> : tensor<4xi64>} : () -> tensor<4xi64>
    %375 = "onnx.Reshape"(%373, %374) {allowzero = 0 : si64} : (tensor<1x960x49xf32>, tensor<4xi64>) -> tensor<1x960x7x7xf32>
    %376 = "onnx.Clip"(%375, %72, %73) {onnx_node_name = "Clip_137"} : (tensor<1x960x7x7xf32>, tensor<f32>, tensor<f32>) -> tensor<1x960x7x7xf32>
    %377 = "onnx.Conv"(%376, %60, %61) {auto_pad = "NOTSET", dilations = [1, 1], group = 960 : si64, kernel_shape = [3, 3], onnx_node_name = "Conv_138", pads = [1, 1, 1, 1], strides = [1, 1]} : (tensor<1x960x7x7xf32>, tensor<960x1x3x3xf32>, tensor<960xf32>) -> tensor<1x960x7x7xf32>
    %378 = "onnx.Clip"(%377, %72, %73) {onnx_node_name = "Clip_141"} : (tensor<1x960x7x7xf32>, tensor<f32>, tensor<f32>) -> tensor<1x960x7x7xf32>
    %379 = "onnx.Constant"() {value = dense<[1, 960, -1]> : tensor<3xi64>} : () -> tensor<3xi64>
    %380 = "onnx.Reshape"(%378, %379) {allowzero = 0 : si64} : (tensor<1x960x7x7xf32>, tensor<3xi64>) -> tensor<1x960x49xf32>
    %381 = "onnx.Constant"() {value = dense<[160, -1]> : tensor<2xi64>} : () -> tensor<2xi64>
    %382 = "onnx.Reshape"(%62, %381) {allowzero = 0 : si64} : (tensor<160x960x1x1xf32>, tensor<2xi64>) -> tensor<160x960xf32>
    %383 = "onnx.MatMul"(%382, %380) : (tensor<160x960xf32>, tensor<1x960x49xf32>) -> tensor<1x160x49xf32>
    %384 = "onnx.Constant"() {value = dense_resource<__elided__> : tensor<1x160x1xf32>} : () -> tensor<1x160x1xf32>
    %385 = "onnx.Add"(%383, %384) : (tensor<1x160x49xf32>, tensor<1x160x1xf32>) -> tensor<1x160x49xf32>
    %386 = "onnx.Constant"() {value = dense<[1, 160, 7, 7]> : tensor<4xi64>} : () -> tensor<4xi64>
    %387 = "onnx.Reshape"(%385, %386) {allowzero = 0 : si64} : (tensor<1x160x49xf32>, tensor<4xi64>) -> tensor<1x160x7x7xf32>
    %388 = "onnx.Add"(%366, %387) {onnx_node_name = "Add_143"} : (tensor<1x160x7x7xf32>, tensor<1x160x7x7xf32>) -> tensor<1x160x7x7xf32>
    %389 = "onnx.Constant"() {value = dense<[1, 160, -1]> : tensor<3xi64>} : () -> tensor<3xi64>
    %390 = "onnx.Reshape"(%388, %389) {allowzero = 0 : si64} : (tensor<1x160x7x7xf32>, tensor<3xi64>) -> tensor<1x160x49xf32>
    %391 = "onnx.Constant"() {value = dense<[960, -1]> : tensor<2xi64>} : () -> tensor<2xi64>
    %392 = "onnx.Reshape"(%63, %391) {allowzero = 0 : si64} : (tensor<960x160x1x1xf32>, tensor<2xi64>) -> tensor<960x160xf32>
    %393 = "onnx.MatMul"(%392, %390) : (tensor<960x160xf32>, tensor<1x160x49xf32>) -> tensor<1x960x49xf32>
    %394 = "onnx.Constant"() {value = dense_resource<__elided__> : tensor<1x960x1xf32>} : () -> tensor<1x960x1xf32>
    %395 = "onnx.Add"(%393, %394) : (tensor<1x960x49xf32>, tensor<1x960x1xf32>) -> tensor<1x960x49xf32>
    %396 = "onnx.Constant"() {value = dense<[1, 960, 7, 7]> : tensor<4xi64>} : () -> tensor<4xi64>
    %397 = "onnx.Reshape"(%395, %396) {allowzero = 0 : si64} : (tensor<1x960x49xf32>, tensor<4xi64>) -> tensor<1x960x7x7xf32>
    %398 = "onnx.Clip"(%397, %72, %73) {onnx_node_name = "Clip_147"} : (tensor<1x960x7x7xf32>, tensor<f32>, tensor<f32>) -> tensor<1x960x7x7xf32>
    %399 = "onnx.Conv"(%398, %64, %65) {auto_pad = "NOTSET", dilations = [1, 1], group = 960 : si64, kernel_shape = [3, 3], onnx_node_name = "Conv_148", pads = [1, 1, 1, 1], strides = [1, 1]} : (tensor<1x960x7x7xf32>, tensor<960x1x3x3xf32>, tensor<960xf32>) -> tensor<1x960x7x7xf32>
    %400 = "onnx.Clip"(%399, %72, %73) {onnx_node_name = "Clip_151"} : (tensor<1x960x7x7xf32>, tensor<f32>, tensor<f32>) -> tensor<1x960x7x7xf32>
    %401 = "onnx.Constant"() {value = dense<[1, 960, -1]> : tensor<3xi64>} : () -> tensor<3xi64>
    %402 = "onnx.Reshape"(%400, %401) {allowzero = 0 : si64} : (tensor<1x960x7x7xf32>, tensor<3xi64>) -> tensor<1x960x49xf32>
    %403 = "onnx.Constant"() {value = dense<[160, -1]> : tensor<2xi64>} : () -> tensor<2xi64>
    %404 = "onnx.Reshape"(%66, %403) {allowzero = 0 : si64} : (tensor<160x960x1x1xf32>, tensor<2xi64>) -> tensor<160x960xf32>
    %405 = "onnx.MatMul"(%404, %402) : (tensor<160x960xf32>, tensor<1x960x49xf32>) -> tensor<1x160x49xf32>
    %406 = "onnx.Constant"() {value = dense_resource<__elided__> : tensor<1x160x1xf32>} : () -> tensor<1x160x1xf32>
    %407 = "onnx.Add"(%405, %406) : (tensor<1x160x49xf32>, tensor<1x160x1xf32>) -> tensor<1x160x49xf32>
    %408 = "onnx.Constant"() {value = dense<[1, 160, 7, 7]> : tensor<4xi64>} : () -> tensor<4xi64>
    %409 = "onnx.Reshape"(%407, %408) {allowzero = 0 : si64} : (tensor<1x160x49xf32>, tensor<4xi64>) -> tensor<1x160x7x7xf32>
    %410 = "onnx.Add"(%388, %409) {onnx_node_name = "Add_153"} : (tensor<1x160x7x7xf32>, tensor<1x160x7x7xf32>) -> tensor<1x160x7x7xf32>
    %411 = "onnx.Constant"() {value = dense<[1, 160, -1]> : tensor<3xi64>} : () -> tensor<3xi64>
    %412 = "onnx.Reshape"(%410, %411) {allowzero = 0 : si64} : (tensor<1x160x7x7xf32>, tensor<3xi64>) -> tensor<1x160x49xf32>
    %413 = "onnx.Constant"() {value = dense<[960, -1]> : tensor<2xi64>} : () -> tensor<2xi64>
    %414 = "onnx.Reshape"(%67, %413) {allowzero = 0 : si64} : (tensor<960x160x1x1xf32>, tensor<2xi64>) -> tensor<960x160xf32>
    %415 = "onnx.MatMul"(%414, %412) : (tensor<960x160xf32>, tensor<1x160x49xf32>) -> tensor<1x960x49xf32>
    %416 = "onnx.Constant"() {value = dense_resource<__elided__> : tensor<1x960x1xf32>} : () -> tensor<1x960x1xf32>
    %417 = "onnx.Add"(%415, %416) : (tensor<1x960x49xf32>, tensor<1x960x1xf32>) -> tensor<1x960x49xf32>
    %418 = "onnx.Constant"() {value = dense<[1, 960, 7, 7]> : tensor<4xi64>} : () -> tensor<4xi64>
    %419 = "onnx.Reshape"(%417, %418) {allowzero = 0 : si64} : (tensor<1x960x49xf32>, tensor<4xi64>) -> tensor<1x960x7x7xf32>
    %420 = "onnx.Clip"(%419, %72, %73) {onnx_node_name = "Clip_157"} : (tensor<1x960x7x7xf32>, tensor<f32>, tensor<f32>) -> tensor<1x960x7x7xf32>
    %421 = "onnx.Conv"(%420, %68, %69) {auto_pad = "NOTSET", dilations = [1, 1], group = 960 : si64, kernel_shape = [3, 3], onnx_node_name = "Conv_158", pads = [1, 1, 1, 1], strides = [1, 1]} : (tensor<1x960x7x7xf32>, tensor<960x1x3x3xf32>, tensor<960xf32>) -> tensor<1x960x7x7xf32>
    %422 = "onnx.Clip"(%421, %72, %73) {onnx_node_name = "Clip_161"} : (tensor<1x960x7x7xf32>, tensor<f32>, tensor<f32>) -> tensor<1x960x7x7xf32>
    %423 = "onnx.Constant"() {value = dense<[1, 960, -1]> : tensor<3xi64>} : () -> tensor<3xi64>
    %424 = "onnx.Reshape"(%422, %423) {allowzero = 0 : si64} : (tensor<1x960x7x7xf32>, tensor<3xi64>) -> tensor<1x960x49xf32>
    %425 = "onnx.Constant"() {value = dense<[320, -1]> : tensor<2xi64>} : () -> tensor<2xi64>
    %426 = "onnx.Reshape"(%70, %425) {allowzero = 0 : si64} : (tensor<320x960x1x1xf32>, tensor<2xi64>) -> tensor<320x960xf32>
    %427 = "onnx.MatMul"(%426, %424) : (tensor<320x960xf32>, tensor<1x960x49xf32>) -> tensor<1x320x49xf32>
    %428 = "onnx.Constant"() {value = dense_resource<__elided__> : tensor<1x320x1xf32>} : () -> tensor<1x320x1xf32>
    %429 = "onnx.Add"(%427, %428) : (tensor<1x320x49xf32>, tensor<1x320x1xf32>) -> tensor<1x320x49xf32>
    %430 = "onnx.Constant"() {value = dense<[1, 320, -1]> : tensor<3xi64>} : () -> tensor<3xi64>
    %431 = "onnx.Reshape"(%429, %430) {allowzero = 0 : si64} : (tensor<1x320x49xf32>, tensor<3xi64>) -> tensor<1x320x49xf32>
    %432 = "onnx.Constant"() {value = dense<[1280, -1]> : tensor<2xi64>} : () -> tensor<2xi64>
    %433 = "onnx.Reshape"(%71, %432) {allowzero = 0 : si64} : (tensor<1280x320x1x1xf32>, tensor<2xi64>) -> tensor<1280x320xf32>
    %434 = "onnx.MatMul"(%433, %431) : (tensor<1280x320xf32>, tensor<1x320x49xf32>) -> tensor<1x1280x49xf32>
    %435 = "onnx.Constant"() {value = dense_resource<__elided__> : tensor<1x1280x1xf32>} : () -> tensor<1x1280x1xf32>
    %436 = "onnx.Add"(%434, %435) : (tensor<1x1280x49xf32>, tensor<1x1280x1xf32>) -> tensor<1x1280x49xf32>
    %437 = "onnx.Constant"() {value = dense<[1, 1280, 7, 7]> : tensor<4xi64>} : () -> tensor<4xi64>
    %438 = "onnx.Reshape"(%436, %437) {allowzero = 0 : si64} : (tensor<1x1280x49xf32>, tensor<4xi64>) -> tensor<1x1280x7x7xf32>
    %439 = "onnx.Clip"(%438, %72, %73) {onnx_node_name = "Clip_166"} : (tensor<1x1280x7x7xf32>, tensor<f32>, tensor<f32>) -> tensor<1x1280x7x7xf32>
    %440 = "onnx.ReduceMean"(%439) {axes = [2, 3], keepdims = 1 : si64} : (tensor<1x1280x7x7xf32>) -> tensor<1x1280x1x1xf32>
    %441 = "onnx.Reshape"(%440, %74) {allowzero = 0 : si64, onnx_node_name = "Reshape_174"} : (tensor<1x1280x1x1xf32>, tensor<2xi64>) -> tensor<1x1280xf32>
    %442 = "onnx.Gemm"(%441, %0, %1) {alpha = 1.000000e+00 : f32, beta = 1.000000e+00 : f32, onnx_node_name = "Gemm_175", transA = 0 : si64, transB = 1 : si64} : (tensor<1x1280xf32>, tensor<1000x1280xf32>, tensor<1000xf32>) -> tensor<1x1000xf32>
    return %442 : tensor<1x1000xf32>
  }
  "onnx.EntryPoint"() {func = @main_graph} : () -> ()
}
